Assets/weights/FindRoad4.onnx (onnx, 76935 bytes, 10 tensors)

62 f4 [11]
0	0x4080c637	4.024196
1	0x3a494137	0.0007677259
2	0x40771c87	3.8611162
3	0x40aeccee	5.462516
4	0x3b0e4f16	0.002171462
5	0x4090286b	4.504934
6	0x409116da	4.5340395
7	0x3c66a08c	0.014076363
8	0x407cdc58	3.9509487
9	0x3d8a6aa9	0.06758625
10	0x3d989228	0.07449752

action_model._continuous_distribution.log_sigma f4 [1, 2]
0	0xbd53c3ea	-0.05170051
1	0xbdf32f93	-0.118743084

action_model._continuous_distribution.mu.bias f4 [2]
0	0x3c3813c8	0.011235185
1	0xbd6cfeb4	-0.05786009

action_model._continuous_distribution.mu.weight f4 [2, 128]
0	0x3c1aa8cc	0.009439658
1	0x3d075a65	0.03304519
2	0x38d9a4c2	0.00010378055
3	0x3cad9c66	0.02119274
4	0xbc0859b3	-0.008322167
5	0xbca5a011	-0.020217927
6	0xbb3ee810	-0.002913002
7	0xbe0addd1	-0.13561179
8	0xbd78c552	-0.060735054
9	0xbd0fa728	-0.035071522
10	0xbb849537	-0.004046108
11	0xbc694967	-0.014238692
12	0xbd4add38	-0.049527377
13	0xbd25b63e	-0.040457003
14	0xba9cb3db	-0.0011955457
15	0x3c0285ba	0.007966453
16	0xbb308453	-0.002693434
17	0x3c0be278	0.008537881
18	0xba84f915	-0.0010145033
19	0xbd4e0902	-0.05030156
20	0xbe5c62b5	-0.21522029
21	0xbbd74f07	-0.0065707
22	0xbe1d6c4c	-0.15373343
23	0xbb5d07b6	-0.003372652
24	0xbdbfb5f4	-0.09360877
25	0xbddc24f1	-0.107492335
26	0xbd472649	-0.048620496
27	0x3b9c9b72	0.0047792727
28	0xbba5a6a7	-0.005055267
29	0xbb530843	-0.003220097
30	0x3d06a5fb	0.032873135
31	0x3e02ade3	0.12761645
32	0x3b3c02d4	0.002868821
33	0x3cdacb1f	0.026708184
34	0xbc9e6416	-0.019334834
35	0x3c76126c	0.015019041
36	0xbb3bdada	-0.0028664381
37	0xbbcafb19	-0.006194484
38	0x3d82b541	0.06382228
39	0x3dbd0f17	0.09231394
40	0xb9072727	-0.00012889189
41	0x3a6930d0	0.0008895518
42	0x3c00a2fa	0.007851357
43	0x3d460281	0.04834223
44	0xbdfc85b6	-0.12330191
45	0xbe1b48bd	-0.15164466
46	0x3b6f6970	0.0036531352
47	0xbbc3ac22	-0.0059714476
48	0x3d0b236b	0.033969324
49	0xbc29b943	-0.010359111
50	0xbbc46332	-0.0059932703
51	0x3d31cdbb	0.04340909
52	0x3ba59851	0.005053558
53	0x3b6346fc	0.003467976
54	0xbcbc4d26	-0.022986006
55	0x3b008148	0.0019608308
56	0x3c4c009b	0.012451316
57	0xbc6e8121	-0.014557154
58	0xbc9413f0	-0.018075913
59	0x3d1207be	0.035651915
60	0x3e0a6352	0.1351445
61	0xbb095225	-0.0020953503
62	0xba756534	-0.0009361089
63	0xba20ecb9	-0.000613879
64	0x3e204e7e	0.15654942
65	0x3df0a783	0.117507
66	0x3d44560f	0.047933634
67	0xbd808551	-0.06275428
68	0xbe000e8b	-0.12505548
69	0xbc817b3f	-0.015805839
70	0x3c6a1c06	0.014288908
71	0xbaa2f58d	-0.0012432799
72	0x3c751eb9	0.014960938
73	0x3a10180c	0.00054967473
74	0x3ccbd077	0.024879677
75	0xba75fc1f	-0.0009383577
76	0xbd6b77b0	-0.05748719
77	0x3d05c3f6	0.032657586
78	0x3c26b9d4	0.010176141
79	0x3d9ac757	0.07557552
80	0x3d7aa492	0.061192103
81	0x3cfd411e	0.03091484
82	0xbdda0048	-0.10644585
83	0x3de888f5	0.113542475
84	0x3e2a4466	0.16627654
85	0xbd926de5	-0.07149867
86	0x3c5bc90c	0.0134146325
87	0xbd9eb515	-0.077493824
88	0x3bba3b64	0.0056833494
89	0xbb3cffd7	-0.0028839016
90	0x3bf9ffb2	0.007629358
91	0x3ca2c1e4	0.019867845
92	0x3ab5c104	0.0013866727
93	0x3b3f159b	0.0029157165
94	0x3d119a74	0.03554769
95	0xbaa5c857	-0.0012648207
96	0xbd2ee023	-0.042694222
97	0x3dc510a3	0.09622314
98	0xbbf691cd	-0.007524705
99	0xb998680c	-0.0002906922
100	0xbc8c8938	-0.017155275
101	0xbae83822	-0.0017716924
102	0x3d21169f	0.039328214
103	0xbb7ed5b4	-0.0038884701
104	0xbd044594	-0.032292917
105	0x3dedd7dc	0.116134375
106	0xbdd2d1bd	-0.10293911
107	0xbda98686	-0.082776114
108	0x3b51a729	0.0031990504
109	0xbaf2f643	-0.0018536526
110	0x3b981c61	0.004642055
111	0xbb71f41f	-0.003691919
112	0xbd84e5c9	-0.064891405
113	0x3cb2c769	0.021823602
114	0x3dba613c	0.09100577
115	0x3c3fa939	0.011698061
116	0xbd6173ec	-0.055042192
117	0xbb5ddb85	-0.0033852768
118	0xbdcf6eca	-0.10128553
119	0xbd62869c	-0.055304155
120	0xbd9450b2	-0.07241954
121	0xbbd9b391	-0.0066437204
122	0xbe38e912	-0.1805766
123	0xbe0dd608	-0.13851178
124	0xbe078539	-0.13234414
125	0xbc4666ab	-0.012109439
126	0x3e5b3856	0.21408209
127	0xbc5802bd	-0.013184247
128	0xbc8833fb	-0.016626349
129	0x3be48864	0.006974267
130	0xbcbd03c4	-0.023073085
131	0x3c9120ec	0.017715894
132	0x3cd5b7bc	0.026088588
133	0xbb3db049	-0.0028944185
134	0x390ab1d2	0.00013226949
135	0xbd9f22dc	-0.07770321
136	0xbdbcfb20	-0.09227586
137	0xbd3277db	-0.043571334
138	0xbbb2d638	-0.005457666
139	0x3c28b329	0.010296621
140	0x3d282b8d	0.04105716
141	0xbb8f9ceb	-0.0043827198
142	0xbc1516fe	-0.00909972
143	0x3cc04ba8	0.023473576
144	0xbb9adca9	-0.004726012
145	0xbc29bb72	-0.010359632
146	0x3b579d11	0.0032900015
147	0x3c743b22	0.0149066765
148	0x3ded6105	0.11590771
149	0x3aca991d	0.0015457008
150	0x3dadcce7	0.08486348
151	0x3c4ac5f5	0.012376298
152	0xbd085bf9	-0.033290837
153	0x3d162a71	0.03666157
154	0x3e34cec5	0.17657001
155	0x3bf9769f	0.0076130177
156	0xbc3f697c	-0.011682864
157	0x3bc8676e	0.0061158454
158	0x3db8388f	0.08995163
159	0x3e0377b3	0.1283863
160	0xb9a11ca7	-0.0003072966
161	0xbd9f1b4c	-0.07768878
162	0x3d8e9485	0.069619216
163	0x3d0b7054	0.03404267
164	0x3bdccf65	0.0067385905
165	0x3bf8d899	0.00759418
166	0xbde33d91	-0.11095727
167	0xbdcc5e8b	-0.0997897
168	0xb8927874	-6.984259e-05
169	0xbb54314d	-0.0032378018
170	0x3d5f950c	0.0545855
171	0xbda84637	-0.082165174
172	0x3d73832f	0.05945128
173	0x3cf4d6d5	0.029887596
174	0x3a80ac2b	0.0009816935
175	0xbc2c7f76	-0.010528436
176	0xbd65df3d	-0.0561211
177	0xbbd6e240	-0.006557733
178	0xba9dffe3	-0.001205441
179	0x3e3973a9	0.18110527
180	0x3c223edf	0.009902685
181	0x3b57a3ea	0.0032904097
182	0x3e30aa3c	0.1725244
183	0x3af24a6f	0.0018485318
184	0xbbca411a	-0.0061723115
185	0xbd38c186	-0.045106433
186	0x3ca84050	0.02053848
187	0x3cfc2c94	0.030782975
188	0xbdca40ac	-0.098756164
189	0x3aca8cb6	0.0015453312
190	0x3c166e28	0.009181537
191	0xb9c21c23	-0.00037023527
192	0xbcdcb736	-0.02694283
193	0x3ca2fb95	0.019895354
194	0x3d477364	0.04869403
195	0xbdba3c2d	-0.09093509
196	0x3d7d6939	0.061867926
197	0xbb943f55	-0.0045241513
198	0x3d0f5e6d	0.03500216
199	0x3b17b66c	0.0023149503
200	0x3cc424cd	0.02394333
201	0x3af6317c	0.0018783058
202	0x3d263f64	0.040587798
203	0x3c380434	0.011231471
204	0xbcdfe3d8	-0.027330324
205	0xbe071b18	-0.13193929
206	0xbc01393d	-0.007887182
207	0x3d868e22	0.065700784
208	0xbe1d2938	-0.15347755
209	0xbd42e09d	-0.04757749
210	0xbdd08317	-0.101812534
211	0xbd26d2d5	-0.04072841
212	0xbcf55fc3	-0.02995289
213	0x3ddfe9f2	0.109332934
214	0xbd53d8f4	-0.051720574
215	0xbe2b7d85	-0.167471
216	0x3a1ef35d	0.00060634856
217	0x3b28ea9e	0.0025774608
218	0x3c7ccf80	0.015430331
219	0xbc16d77c	-0.009206649
220	0xbcbefdf0	-0.023314446
221	0x3d1a21d2	0.03762991
222	0x3d6dce51	0.058058087
223	0xba470cf7	-0.00075931795
224	0x3c22266c	0.009896856
225	0x3deac9f1	0.114642985
226	0x3bafa85d	0.0053606466
227	0x3c634c3b	0.013873155
228	0x3bdedbbc	0.0068010967
229	0xbdee3ed1	-0.11633075
230	0x3dd60081	0.10449315
231	0xbc0a55c6	-0.008443302
232	0xbd082571	-0.033238832
233	0x3df80599	0.12110443
234	0xbe1c4a75	-0.15262778
235	0x3c9b4fc5	0.018958936
236	0x3ca65679	0.020304905
237	0x3c21cb14	0.009875078
238	0xbc668401	-0.014069558
239	0x3bf0206f	0.007328085
240	0xbd250a31	-0.040292922
241	0xbc26d744	-0.010183159
242	0x3da7fa72	0.082020655
243	0xbbf89f25	-0.007587331
244	0x3d71a010	0.058990538
245	0x3cb48037	0.022033794
246	0xbe162d84	-0.146658
247	0xbe26bdbc	-0.16283315
248	0xbe097874	-0.13424855
249	0x3b8eb77b	0.0043553687
250	0x3deb09c0	0.11476469
251	0xbe13b34b	-0.14423864
252	0xbcba6656	-0.022753876
253	0x3d372461	0.044712428
254	0x3bbd4c4e	0.0057769185
255	0xbbd7cf05	-0.006585958

action_model._discrete_distribution.branches.0.weight f4 [1, 128]
0	0xbaa87e33	-0.0012854993
1	0xbbfa71c0	-0.0076429546
2	0x3b9f9bd3	0.0048708706
3	0xbc3709af	-0.011171742
4	0xbc0edc01	-0.008719445
5	0x3c5250c8	0.012836643
6	0xbbc52041	-0.006015808
7	0x3cc62a3f	0.024190066
8	0xbc14bef4	-0.00907873
9	0x3c227014	0.009914417
10	0x3c2bcde9	0.0104861045
11	0xbb01aeed	-0.0019788102
12	0x3c00d56b	0.007863383
13	0xbb147abf	-0.002265617
14	0xbb014e04	-0.0019730339
15	0xbc260415	-0.010132809
16	0xbbeaaeed	-0.007161966
17	0x3b066062	0.0020504226
18	0x3c322ead	0.010875386
19	0xbc0c5a31	-0.008566425
20	0x3ac0bfb6	0.0014705572
21	0xbbb5bcbe	-0.0055461815
22	0xb980d50b	-0.00024572792
23	0x3c089d5f	0.008338301
24	0xbc33f7df	-0.01098439
25	0xbc36e1fc	-0.011162277
26	0x3b34e9ea	0.0027605244
27	0xbc8e7fec	-0.017394982
28	0x3b714abd	0.003681823
29	0xbbdd86c3	-0.0067604496
30	0x3c0d22e7	0.008614278
31	0x3c1afb7b	0.009459372
32	0x3b2e7cb9	0.0026624633
33	0x3c4a815e	0.012359945
34	0xbbbfe493	-0.0058561056
35	0x3b36c48a	0.0027888143
36	0xba1fd57b	-0.000609718
37	0x3c8a9510	0.016916782
38	0x3c6e849a	0.014557982
39	0xbb88d5e3	-0.004175888
40	0xbbeb1548	-0.007174168
41	0x3b74e920	0.0037370399
42	0xba1e5a54	-0.00060406816
43	0x3b96b3f5	0.0045990893
44	0x3c319d6c	0.010840755
45	0x3c2e95a9	0.010655799
46	0x3c3398bb	0.010961707
47	0xbc3868db	-0.011255468
48	0x3ac610c1	0.0015111194
49	0x3bbbd087	0.0057316455
50	0x3c87dfa7	0.016586138
51	0x3a9e7067	0.0012087942
52	0x3b2263ae	0.0024778652
53	0x3bfd0c4f	0.0077224146
54	0x3c0281ff	0.007965564
55	0x3c0214af	0.007939502
56	0xbbcb2fba	-0.006200758
57	0xbb3b848c	-0.002861294
58	0xbb171b78	-0.0023057144
59	0xbb838353	-0.004013458
60	0x3a821a57	0.0009926063
61	0x3ab9bf38	0.0014171368
62	0x3bfe3018	0.007757198
63	0x3cc76b0e	0.02434304
64	0x3bfc7d43	0.007705362
65	0xbc81ea01	-0.015858652
66	0x3bb2860c	0.0054481085
67	0x3bc229dc	0.0059254
68	0x3c49b75d	0.012311784
69	0xbb45ac24	-0.0030162418
70	0xbc354615	-0.011064072
71	0xbaa58660	-0.0012628548
72	0xbc01363e	-0.0078864675
73	0x3ba71a35	0.0050995597
74	0x3b48f872	0.0030665663
75	0xbbc0bae3	-0.0058816536
76	0xbc793c33	-0.0152121065
77	0x3c0e674c	0.00869162
78	0xbc1f2d00	-0.009715319
79	0xbb8e90db	-0.004350764
80	0x3b325653	0.0027212098
81	0xbbbdfcf7	-0.005797978
82	0x3c81e4b7	0.01585613
83	0xbadcf8d2	-0.0016858822
84	0xbb4832aa	-0.0030547776
85	0x3c98cfc1	0.018653752
86	0x3b6b7713	0.0035929128
87	0xba6765cf	-0.00088271213
88	0xbbfebad7	-0.007773738
89	0x3b390d35	0.0028236632
90	0x3bf41d07	0.0074497494
91	0x397d051d	0.00024129865
92	0x38f7c920	0.0001181534
93	0xbb8ae258	-0.004238408
94	0x3b9d1957	0.0047942805
95	0xbab518dd	-0.0013816614
96	0xb96f0697	-0.00022795271
97	0x3c4e3da5	0.012587939
98	0x3bb5699c	0.0055362713
99	0xbbe2052b	-0.0068975887
100	0x3bcb9f44	0.0062140543
101	0xbbc4b390	-0.006002851
102	0xba6915ff	-0.00088915223
103	0xbc5ba5c8	-0.013406225
104	0xbc75bf93	-0.014999288
105	0xbad989eb	-0.0016596889
106	0x3b958ae3	0.0045636757
107	0xba57382d	-0.000820997
108	0x3a3d8e1e	0.0007230955
109	0x3b6171f3	0.0034400194
110	0x3b9db9b0	0.0048133954
111	0xbc4df05d	-0.012569514
112	0x3a47d777	0.00076233543
113	0x3c0ae699	0.00847783
114	0x3b9febec	0.004880419
115	0x3bed6100	0.0072442293
116	0xbaa06d06	-0.0012239523
117	0x3b49b09a	0.0030775429
118	0x3c9a505f	0.018837152
119	0x3ae28705	0.0017282671
120	0xbc75207b	-0.014961357
121	0x3bdb1d38	0.0066868328
122	0xbb376a6c	-0.0027987016
123	0xbc820037	-0.015869243
124	0x3b144d66	0.002262914
125	0x3b806c33	0.0039191484
126	0xbbdc5f58	-0.006725233
127	0x39a99516	0.0003234527

network_body._body_endoder.seq_layers.0.bias f4 [128]
0	0xbd91ca78	-0.07118696
1	0xbe12fa5b	-0.14353316
2	0x3ca192da	0.019723345
3	0xbdc95ba9	-0.09831936
4	0xbdcbdc75	-0.09954158
5	0xbe59ca12	-0.2126849
6	0xbe2546a9	-0.16140236
7	0xbe1867ae	-0.148833
8	0xbde67524	-0.112528116
9	0xbe84a118	-0.25904155
10	0xbdb13fce	-0.08654748
11	0xbcbfa965	-0.023396203
12	0xbe1d236c	-0.15345544
13	0xbe46a10b	-0.1939737
14	0xbdc34b21	-0.09535814
15	0xbde97245	-0.11398748
16	0xbe2be3de	-0.16786143
17	0x3d553331	0.052050773
18	0xbdfa9f38	-0.122374
19	0xbd9628a9	-0.07331974
20	0x3c8b531c	0.017007403
21	0xbd9786e4	-0.07398775
22	0xbd39b50a	-0.045338668
23	0xbdd29494	-0.10282245
24	0xbd26b862	-0.040703185
25	0xbdc19c55	-0.09453646
26	0xbcca991b	-0.02473121
27	0x3d6aa893	0.05728967
28	0xbde24789	-0.110488005
29	0xbbf48f6f	-0.0074633877
30	0xbbdffbcc	-0.0068354364
31	0xbde85120	-0.11343598
32	0xbe487ec4	-0.19579607
33	0xbdfe78ca	-0.124253824
34	0xbdb09ea2	-0.08624007
35	0xbd437563	-0.04771937
36	0xbe11e1a1	-0.14246227
37	0x3dab2f14	0.08358589
38	0xbc89b777	-0.016811116
39	0xbd879ef5	-0.066221155
40	0xbdf6fb49	-0.120596476
41	0x3d851fa2	0.06500174
42	0xbe2fb777	-0.1715983
43	0xbdb8377b	-0.08994957
44	0xbdf6590b	-0.12028702
45	0xbddf502b	-0.10903963
46	0xbe2edb79	-0.1707591
47	0xbe20b701	-0.1569481
48	0xbda0abba	-0.07845254
49	0xbe0b9f1e	-0.13634917
50	0xbdbd85d3	-0.092540406
51	0xbe01b4cb	-0.12666623
52	0x3dcbd1f6	0.09952156
53	0xbe2226ff	-0.15835188
54	0xbe5d744c	-0.21626395
55	0xbe104bab	-0.14091365
56	0xbe1f26c2	-0.15542129
57	0xbdeeff78	-0.116698205
58	0xbb22031a	-0.0024721087
59	0xbd1932fd	-0.03740214
60	0xbc442f96	-0.011974236
61	0xbde4af71	-0.11166275
62	0xbce49313	-0.027902162
63	0xbd64f229	-0.055895004
64	0xbe3529ef	-0.17691778
65	0xbe5a3dde	-0.21312663
66	0x3d13c871	0.036079828
67	0xbe69563d	-0.22786804
68	0x3d2566cd	0.04038124
69	0xbdd3cfe8	-0.10342389
70	0xbe30ebd2	-0.17277458
71	0xbdaa74bc	-0.083230466
72	0xbd13aa3c	-0.03605102
73	0xbc95561b	-0.018229535
74	0xbdd104f7	-0.10206025
75	0xbda82baf	-0.08211457
76	0xbd3c21e7	-0.04593077
77	0xbe4a49a2	-0.19754651
78	0xbd9bc248	-0.076054156
79	0xbd0058f6	-0.03133484
80	0x3c9a8cc4	0.01886595
81	0xbddc406d	-0.10754476
82	0xbe3dde29	-0.18541779
83	0xbd0bc1d8	-0.03412041
84	0xbd9d604d	-0.076843835
85	0xbdea1810	-0.11430371
86	0xbdabbb8b	-0.0838538
87	0xbe1e8f12	-0.15484264
88	0xbda75c89	-0.081719466
89	0xbe158351	-0.14600874
90	0x3d5da4f1	0.05411238
91	0xbe63d39f	-0.22248696
92	0xbe2727fa	-0.16323844
93	0xbdfab7a7	-0.1224206
94	0x3d1dfc07	0.03857043
95	0xbe5b7d7c	-0.21434587
96	0xbe0a9312	-0.13532665
97	0xbe13035f	-0.14356755
98	0x3d63078d	0.055427123
99	0x3d69dba8	0.057094246
100	0xbdffcab6	-0.12489836
101	0xbe05548b	-0.13020532
102	0xbdc63400	-0.09677887
103	0x3dff1387	0.124548964
104	0xbdaed075	-0.08535854
105	0xbe434310	-0.19068551
106	0xbda01154	-0.07815805
107	0xbe3eb659	-0.18624248
108	0xbe2bc734	-0.16775209
109	0xbe6d966f	-0.23201917
110	0xbe128859	-0.14309825
111	0xbc322f75	-0.010875572
112	0xbdb7e312	-0.08978857
113	0xbcc957c2	-0.024577979
114	0xbdb26bac	-0.08711943
115	0xbdcd110d	-0.10013018
116	0xbbf94466	-0.0076070307
117	0x3d60581b	0.054771524
118	0xbe6be573	-0.23036747
119	0xbdfe815e	-0.124270186
120	0xbdb0e99a	-0.08638306
121	0xbddbbeaa	-0.10729726
122	0xbd2bc0e8	-0.041932017
123	0xbd86aa3f	-0.065754406
124	0xbd9d1625	-0.07670239
125	0x3ca1c82d	0.019748772
126	0xbe590edc	-0.21197075
127	0xbe00ea27	-0.12589322

network_body._body_endoder.seq_layers.0.weight f4 [128, 11]
0	0x3df41213	0.1191751
1	0xbe26028a	-0.16211906
2	0xbe63254f	-0.22182201
3	0xbea197d0	-0.31561136
4	0x3d8369b1	0.064166434
5	0x3d8c3321	0.068456896
6	0xbf1abf40	-0.60448074
7	0x3d8be090	0.06829941
8	0xbdfc6794	-0.123244435
9	0x3eed197f	0.46308514
10	0xbdb207ae	-0.08692871
11	0x3e044c6a	0.12919775
12	0xbe965073	-0.29358253
13	0x3e95f7ba	0.29290563
14	0xbe285f0f	-0.16442512
15	0x3ece4aa9	0.40291336
16	0x3da0642d	0.07831607
17	0x3df111aa	0.11770947
18	0xbe042bdc	-0.12907356
19	0xbe6dc1a0	-0.23218393
20	0xbdc6ab98	-0.09700698
21	0xbd3f32b5	-0.046679217
22	0xbf1cdd28	-0.6127496
23	0x3dc9cdca	0.09853704
24	0x3ddbdb1f	0.107351534
25	0x3ba66f1f	0.0050791646
26	0xbebc719d	-0.3680543
27	0x3eab4b87	0.3345606
28	0x3f1e9f78	0.6196208
29	0xbf067111	-0.52516276
30	0x3d4c473f	0.049872633
31	0xbd09978f	-0.033591803
32	0xbedb70c2	-0.42859465
33	0xbe7e1c2f	-0.24815439
34	0x3e11910c	0.14215487
35	0x3d3e0375	0.046390016
36	0xbe2bbf57	-0.16772209
37	0xbdbf0aec	-0.09328255
38	0xbc90b9ca	-0.017666716
39	0x3c45e605	0.012078767
40	0xbee90ed8	-0.45519137
41	0x3dc57f84	0.09643462
42	0x3dae4ad0	0.08510363
43	0x3ecc7d94	0.39939559
44	0xbedfe25c	-0.43727386
45	0x3f101ce2	0.5629407
46	0xbe8f2796	-0.2795989
47	0xbe7fdc30	-0.24986339
48	0xbe425f54	-0.18981677
49	0xbe75a674	-0.23989278
50	0x3e896470	0.2683444
51	0xbdb11c59	-0.08647985
52	0x3e8adb94	0.2712065
53	0xbe9590f6	-0.2921216
54	0xbe760bd0	-0.24027944
55	0xbec27b98	-0.3798492
56	0xbd9af030	-0.075653434
57	0x3f195e67	0.5990967
58	0xbd2df9f0	-0.042474687
59	0xbcafc86f	-0.021457879
60	0x3e9afcad	0.302709
61	0x3d62dd95	0.0553871
62	0xbeddfc94	-0.43356764
63	0xbe1e852f	-0.15480493
64	0xbdd0a5f0	-0.101879
65	0x3c84d325	0.016213963
66	0x3f282562	0.6568204
67	0xbca6e76b	-0.02037402
68	0x3ca5c70a	0.02023651
69	0x3e6cd05c	0.23126358
70	0x3f6226e5	0.883406
71	0x3ec62444	0.38699543
72	0xbef3b313	-0.4759756
73	0x3a2f1582	0.0006678925
74	0xbe760dc5	-0.2402869
75	0x3d8e48a5	0.069474496
76	0xbe8b87a1	-0.27251914
77	0xbeb13630	-0.34611654
78	0xbf4e8432	-0.80670464
79	0x3e9f9a4d	0.3117241
80	0xbe033859	-0.12814464
81	0x3e8d2003	0.27563486
82	0x3e21a1dc	0.157844
83	0x3e4eed4c	0.20207709
84	0xbde0e520	-0.10981202
85	0xbe4c9e36	-0.19982228
86	0xbe3781d1	-0.17920615
87	0x3e237b53	0.15965013
88	0xbd27a4bc	-0.040928587
89	0xbf0f9fe2	-0.56103337
90	0x3e936c9b	0.28793797
91	0xbd388060	-0.045044303
92	0xbe8a82c9	-0.27052906
93	0xbe32f98d	-0.17478009
94	0xbce6ebec	-0.028188668
95	0xbd860827	-0.06544524
96	0xbea008ca	-0.31256706
97	0xbe04fc4d	-0.1298687
98	0x3e91a44a	0.28445655
99	0xbe864e1b	-0.26231465
100	0x3df950e7	0.12173634
101	0x3b918dc9	0.004441951
102	0xbeb099f0	-0.34492445
103	0x3e146e58	0.14495218
104	0xbe9a7097	-0.30164024
105	0xbd7040f2	-0.058655687
106	0x3de38672	0.11109628
107	0xbe6aedb1	-0.22942235
108	0xbc9f7a29	-0.01946743
109	0x3dc3ef67	0.09567147
110	0x3e718da7	0.23589192
111	0x3d6bf401	0.057605747
112	0xbe9fc161	-0.31202224
113	0x3f256f1e	0.64622676
114	0x3ebf4f07	0.3736498
115	0xbd17d9dc	-0.037073
116	0x3e9c0b77	0.30477497
117	0xbe815d69	-0.2526658
118	0x3e9391f2	0.28822285
119	0xbf27b820	-0.6551533
120	0x3e1d9154	0.1538747
121	0xbf06df37	-0.5268435
122	0x3d353edb	0.044249397
123	0xbeb3b67a	-0.35100156
124	0x3ec36ef1	0.3817058
125	0x3d2b98ab	0.041893642
126	0x3e2b257e	0.16713521
127	0x3f6540d7	0.8955206
128	0xbe0eaa3a	-0.13932124
129	0x3e805d84	0.25071347
130	0x3e4189e2	0.18900254
131	0xbf03b092	-0.514413
132	0xbd948589	-0.07252032
133	0x3e3616ca	0.17782131
134	0x3e5195b4	0.20467263
135	0xbdf531c7	-0.11972385
136	0x3ec90e67	0.392688
137	0xbe7e9930	-0.24863124
138	0x3dff0a20	0.12453103
139	0xbeb2e818	-0.34942698
140	0xbdc2c62f	-0.09510457
141	0x3e6ac150	0.22925305
142	0x3e438845	0.19094951
143	0x3f0b7773	0.5447914
144	0xbe04636e	-0.12928554
145	0x3e64badd	0.22336908
146	0xbed731ec	-0.42030275
147	0x3da60c1c	0.081077784
148	0x3e111a61	0.14170219
149	0xbf1d8f33	-0.6154663
150	0xbe9a6d93	-0.30161723
151	0x3d12f199	0.035874937
152	0x3d97df20	0.074156046
153	0xbf17add9	-0.59249645
154	0x3e45bcd0	0.19310308
155	0xbee51b51	-0.44747403
156	0x3ec79525	0.38980976
157	0xbe3081ea	-0.17237058
158	0xbd257c7c	-0.04040192
159	0x3ddcc94b	0.10780581
160	0xbdfdfbce	-0.124015436
161	0xbd528ad0	-0.051401913
162	0xbea07996	-0.31342763
163	0x3eeefaf1	0.46675828
164	0x3e294621	0.16530658
165	0xbe2b6c6e	-0.16740581
166	0xbeada87b	-0.33917603
167	0x3eb5e44b	0.35525736
168	0x3daaa59d	0.083323695
169	0x3e658b67	0.22416459
170	0x3d9cbaf5	0.07652847
171	0x3dcd3aec	0.10021004
172	0x3e373699	0.17891921
173	0xbe86ccff	-0.26328275
174	0xbdd8fa57	-0.105946235
175	0xbdd44547	-0.10364776
176	0x3da216b3	0.07914486
177	0xbf1600b0	-0.585948
178	0x3d06992c	0.03286092
179	0xbe37ff5a	-0.17968503
180	0xbe708023	-0.2348638
181	0xbe2eca8e	-0.17069456
182	0x3ea82434	0.3284012
183	0xbf3ac5d3	-0.72958106
184	0x3e2cdaa7	0.16880284
185	0x3dc135d7	0.09434097
186	0x3f30d0a7	0.6906838
187	0x3ec90043	0.39258012
188	0x3dced8a1	0.100999124
189	0xbf1960ff	-0.5991363
190	0x3d955059	0.07290716
191	0xbf1aa06e	-0.60401046
192	0xbebb7a4d	-0.36616746
193	0xbe475143	-0.19464593
194	0xbe060e09	-0.13091291
195	0x3eeea095	0.4660689
196	0x3e9fc091	0.31201604
197	0xbeffe204	-0.49977124
198	0xbe6afa68	-0.22947085
199	0xbebe3c18	-0.37155223
200	0x3ef69434	0.48159945
201	0x3db24223	0.08704021
202	0x3ccabff0	0.024749726
203	0x3d43a872	0.047768064
204	0x3eaf7467	0.34268495
205	0x3b33197c	0.0027328422
206	0xbef49603	-0.477707
207	0x3f0fc7d0	0.56164265
208	0x3ddb3016	0.10702531
209	0xbf166349	-0.5874525
210	0xbc398f47	-0.011325664
211	0xbf28054a	-0.6563307
212	0x3e9c7b5a	0.3056286
213	0x3e387762	0.18014291
214	0x3d2e6421	0.04257596
215	0x3f3aaa87	0.72916454
216	0x3f6e4c91	0.9308558
217	0x3eb3288d	0.34991875
218	0x3f297180	0.6618881
219	0x3e8e6271	0.2780948
220	0x3cf9847f	0.030458687
221	0x3ea92552	0.33036286
222	0xbed892f1	-0.42299607
223	0x3e56476c	0.20925683
224	0x3f117110	0.56813145
225	0x3e4162e3	0.18885379
226	0x3df24e31	0.1183132
227	0x3e88dbdb	0.26730236
228	0x3eac02fb	0.33596024
229	0x3e9f0112	0.31055504
230	0x3e04063a	0.12893
231	0x3e062da7	0.13103352
232	0xbe058eff	-0.1304283
233	0xbed23864	-0.41058648
234	0x3e83fd8e	0.25779384
235	0xbe086537	-0.1331986
236	0x3e136ce7	0.14397012
237	0xbe794629	-0.2434317
238	0x3e4b460d	0.19850941
239	0x3df4c347	0.11951309
240	0xbee6d24f	-0.45082328
241	0xbe92388c	-0.28558767
242	0xbed280cc	-0.4111389
243	0xbeec5762	-0.46160418
244	0x3f0735a1	0.52816206
245	0xbee6498b	-0.44977984
246	0xbc2b2807	-0.010446555
247	0xbd5775e9	-0.052602682
248	0x3f16421d	0.5869463
249	0xbe8d6a2f	-0.27620074
250	0xbe9241e6	-0.28565902
251	0xbcb5183f	-0.022106288
252	0x3ef7c436	0.48391885
253	0x3ed4c134	0.41553652
254	0x3e486a7b	0.19571869
255	0x3ee56038	0.44799972

network_body._body_endoder.seq_layers.2.bias f4 [128]
0	0x3cb35c4e	0.0218946
1	0xbd44b9fe	-0.04802894
2	0x3cb67943	0.022274619
3	0xbdc704af	-0.0971769
4	0xbe15b545	-0.1461993
5	0xbc59829c	-0.013275769
6	0xbb4965b0	-0.0030730776
7	0x3d5e1b55	0.054225285
8	0x3df9530c	0.12174043
9	0x3de821d8	0.1133458
10	0xbd013f01	-0.031554226
11	0xbdcc23df	-0.09967779
12	0xbd8cc64e	-0.06873761
13	0xbca408f8	-0.020023808
14	0xbd83837c	-0.06421563
15	0xbdfb49b9	-0.12269921
16	0x3c897a73	0.016782021
17	0x3b904544	0.0044027884
18	0xbc364da8	-0.011126913
19	0xbd73a863	-0.059486758
20	0x3ccccb4b	0.024999281
21	0xbd9d5ce7	-0.07683735
22	0xbc6bad07	-0.014384515
23	0x3d8b0407	0.067878775
24	0xbd32f548	-0.04369095
25	0xbcf0bbfe	-0.029386517
26	0xbd184f05	-0.037184734
27	0xbd26ad05	-0.040692348
28	0x3cacfa8c	0.021115564
29	0xbd771fe9	-0.060333166
30	0xbde3885e	-0.11109994
31	0xbce6fac6	-0.02819575
32	0xbd066518	-0.032811254
33	0x3d7a27e2	0.06107319
34	0xbd747bbd	-0.05968832
35	0xbe1d9d28	-0.15391982
36	0x3b4bd4f3	0.003110227
37	0xbc7ebe3d	-0.015548286
38	0x3d499d2e	0.049222164
39	0x3d20c798	0.039252847
40	0xbcfa3d8a	-0.030546922
41	0x3c3bcce6	0.011462426
42	0xbe0e9677	-0.13924585
43	0x3c5f6f13	0.013637322
44	0xbc9051e4	-0.017617173
45	0x3cfed280	0.031106234
46	0xbd0242ad	-0.03180187
47	0xbb8945c6	-0.004189226
48	0x3d421bdd	0.047389854
49	0x39b2cb52	0.0003410229
50	0x3c062921	0.008188517
51	0x3c79d327	0.015248097
52	0xbdf81aa2	-0.12114455
53	0xbd947b24	-0.0725005
54	0xbcad89de	-0.021183904
55	0xb891849a	-6.938838e-05
56	0xbbeb10ae	-0.0071736192
57	0x3d0dbaaa	0.034601845
58	0xbdab5b46	-0.083670184
59	0x3b9f4653	0.004860678
60	0x3d93e70d	0.07221804
61	0xbc7bc684	-0.015367154
62	0xbd85de7d	-0.06536577
63	0xbd4cbd82	-0.049985416
64	0x3c4b24c2	0.0123989
65	0xbdb0d093	-0.086335324
66	0xbdca00b1	-0.09863413
67	0x3e372d63	0.17888407
68	0xbd81dd61	-0.06341053
69	0xbd3b0eec	-0.045668527
70	0xbdbabcd3	-0.091180466
71	0x3c47bb68	0.012190677
72	0xbca3638a	-0.019944925
73	0xbe30e049	-0.17273058
74	0xbdc5ae97	-0.09652441
75	0xbd154eb0	-0.036451995
76	0x3cabf401	0.020990374
77	0x3db2dacc	0.087331384
78	0x3d1f4b05	0.038889904
79	0xbd344f60	-0.04402101
80	0x3df890ef	0.12137019
81	0x3c102fc3	0.00880045
82	0x3c941018	0.01807408
83	0xbb6bd506	-0.0035985126
84	0x3d852293	0.06500735
85	0xbd897dec	-0.06713471
86	0xbc5d7925	-0.013517653
87	0x3cbd5a42	0.023114327
88	0xbcbb479e	-0.022861298
89	0xbd14b26d	-0.036302973
90	0xbd62f3c3	-0.05540825
91	0xbc34c09a	-0.011032248
92	0x3c941c6a	0.018079955
93	0xbdc870cc	-0.09787139
94	0xbdd38da1	-0.10329748
95	0x3c9325b6	0.017962318
96	0xbcdfe2a2	-0.027329747
97	0xbd82ea3c	-0.06392333
98	0x3c9f9c4e	0.019483712
99	0xbda8e571	-0.082468875
100	0xbc4248c8	-0.011858173
101	0x3d8fda96	0.07024114
102	0xbde011a5	-0.109408654
103	0xbd656183	-0.056001198
104	0x3c761b1a	0.01502111
105	0xbc688564	-0.014191959
106	0x3d37eb00	0.044901848
107	0xbc99f40b	-0.018793127
108	0xbd95ae62	-0.073086515
109	0x3cc97285	0.02459074
110	0x3c8ba058	0.017044231
111	0xbc97c440	-0.018526196
112	0xbd2b84bc	-0.041874632
113	0xbdd14660	-0.10218501
114	0xbd9c6cff	-0.07637977
115	0xbd6bfe44	-0.057615533
116	0xbdb71209	-0.08938987
117	0xbbdcc908	-0.006737832
118	0x3e0ea594	0.1393035
119	0x3dbe7b50	0.09300864
120	0x3d1f9273	0.038958024
121	0x3c81a8f0	0.015827626
122	0xbc9daf31	-0.019248577
123	0x3a714191	0.00092031906
124	0xbcf5c81f	-0.030002652
125	0xbe3387f5	-0.17532332
126	0x3dd624af	0.104562156
127	0x3d23b7e0	0.03997028

network_body._body_endoder.seq_layers.2.weight f4 [128, 128]
0	0x3e05fc46	0.13084516
1	0xbe2612a8	-0.16218054
2	0xbd72bb5f	-0.059260722
3	0x3cbd3e92	0.023101125
4	0x3c657fc0	0.014007509
5	0xbd0ed13f	-0.03486752
6	0xbb10711e	-0.002204008
7	0x3d568095	0.05236872
8	0xbd235b2c	-0.03988187
9	0xbd8b399f	-0.067981
10	0x3e0e09db	0.13870947
11	0x3da7a012	0.08184828
12	0x3cec39fa	0.02883624
13	0xbd7c6a67	-0.06162491
14	0xbe27d832	-0.16391066
15	0xbdb0c5e9	-0.08631498
16	0x3d42395d	0.047417987
17	0x3cf6bcfb	0.03011941
18	0xbda3535b	-0.07974883
19	0xbbe52a3e	-0.006993561
20	0x3e149daa	0.14513269
21	0xbe0524c7	-0.1300231
22	0x3d5b0a3c	0.053476557
23	0xbc8fc9b4	-0.017552234
24	0x3ac27dd5	0.0014838526
25	0x3e1002c8	0.14063561
26	0xbe0379e4	-0.12839466
27	0xbdcb4ab8	-0.09926361
28	0xbc3ecf4f	-0.011646106
29	0x3d397856	0.045280777
30	0xbbaec6bb	-0.005333749
31	0x3d9f7df6	0.07787697
32	0x3d5e96e4	0.05434312
33	0xbd999707	-0.07499509
34	0xbccd7faa	-0.025085289
35	0x3c23c3aa	0.00999538
36	0xbde306a7	-0.11085253
37	0x3d6417d1	0.055686776
38	0xbd9252ec	-0.07144722
39	0xbd3aac69	-0.04557458
40	0x3d740f73	0.059585046
41	0x3e148167	0.14502488
42	0xbc25a591	-0.010110275
43	0xbd171c3c	-0.03689216
44	0x3acda8ad	0.0015690528
45	0xbdb2b86e	-0.087265834
46	0x3d655b3b	0.055995207
47	0xbcb62388	-0.02223374
48	0xbd4374c5	-0.047718782
49	0x3d4f56b2	0.05061979
50	0xbdcba802	-0.09944154
51	0xbd3fbffd	-0.046813954
52	0xbd8a8aa0	-0.06764722
53	0xbe7d1cfa	-0.24718085
54	0xbb3c776a	-0.00287577
55	0x3cfbf500	0.030756474
56	0xbcef4e0b	-0.029212018
57	0xbcb94c09	-0.022619264
58	0xbda63f15	-0.08117501
59	0xbe041644	-0.12899119
60	0xbc5b3049	-0.013378211
61	0x3d352b83	0.04423095
62	0xbe05e478	-0.13075435
63	0xba656a56	-0.0008751502
64	0x3cc764c9	0.02434005
65	0x3e771d1b	0.24132197
66	0x3e039896	0.12851176
67	0xbc0efcd5	-0.008727272
68	0xbd3fea40	-0.046854258
69	0x3d8e3c65	0.06945113
70	0xbe4ca160	-0.19983435
71	0xbd174096	-0.03692683
72	0xbe0b04e3	-0.13576083
73	0xbda0d137	-0.078524046
74	0xbe115b14	-0.141949
75	0xbde13261	-0.10995937
76	0x3d599276	0.05311819
77	0xbdcaad24	-0.09896305
78	0x3c8e3975	0.017361382
79	0xbe36ec1e	-0.17863509
80	0xbd12e3f7	-0.035861935
81	0xbded58c6	-0.11589198
82	0x3d8981ef	0.06714236
83	0xbe61a2fe	-0.22034833
84	0xbdf9d886	-0.12199502
85	0xbdf90606	-0.12159352
86	0xbce5cef5	-0.028052786
87	0xbdc548b6	-0.09633009
88	0xbe0f572a	-0.13998094
89	0x3e111aba	0.14170352
90	0x3d71501b	0.058914285
91	0x3b432f22	0.0029782732
92	0x3e1be252	0.15223053
93	0x3da0fb55	0.07860438
94	0xbc2e6f50	-0.010646656
95	0x3e3c7c59	0.1840681
96	0xbc0c7bcd	-0.008574438
97	0xbe16ae85	-0.14715011
98	0xbe25ef15	-0.16204484
99	0xbe114e8d	-0.14190121
100	0xbd6a6692	-0.057226725
101	0x3dc6de81	0.09710408
102	0x3d663ea7	0.056212094
103	0x3d66bdc5	0.056333322
104	0xbcccaf60	-0.024985969
105	0xbd4481c3	-0.047975313
106	0x3da32905	0.07966808
107	0xbc5cfab0	-0.013487503
108	0xbe07702b	-0.13226382
109	0x3e2e9994	0.17050773
110	0xbd79bfe2	-0.06097401
111	0x3d991504	0.074747115
112	0x3e00bc83	0.12571912
113	0x3bf64dd7	0.0075166035
114	0xbc021883	-0.007940414
115	0xbcea02c0	-0.028565764
116	0xbd767624	-0.06017126
117	0xbb260c40	-0.0025336891
118	0x3c76563d	0.015035209
119	0xbdbc71e9	-0.09201414
120	0xbcbca9e4	-0.023030229
121	0x3d042468	0.032261282
122	0x3d2db0c4	0.042404905
123	0xbe2525e1	-0.16127731
124	0xbe361edf	-0.17785214
125	0xbdf7fe03	-0.12108996
126	0x3dc68c79	0.09694762
127	0x3cfa0d4c	0.030523919
128	0x3d9ca864	0.076493055
129	0xbdeec9e5	-0.11659602
130	0xbc9c1742	-0.019054059
131	0x3d59b0ac	0.053147003
132	0xbdf5658e	-0.11982261
133	0xbdf1fe54	-0.11816087
134	0xbcd9b8da	-0.026577402
135	0xbd80ea13	-0.06294646
136	0x3e0458b8	0.12924469
137	0x3d8fddb2	0.07024707
138	0xbd021783	-0.031760704
139	0xbdc37fec	-0.095458835
140	0xbd567ced	-0.052365232
141	0xbd7e5fd4	-0.062103108
142	0x3cea3ba4	0.028592892
143	0xbdf778e3	-0.12083604
144	0x3d9c93d0	0.076453805
145	0x3d246e84	0.04014446
146	0x3e17d25f	0.14826344
147	0x3e22b62c	0.15889806
148	0xbcd55eb0	-0.026046127
149	0x3df75368	0.12076455
150	0xbd078e74	-0.03309484
151	0x3c254142	0.010086359
152	0x3e08075e	0.1328406
153	0xbc31f045	-0.010860507
154	0xbe046ba3	-0.12931685
155	0xbd3ec866	-0.046577834
156	0x3be281e6	0.0069124578
157	0xbd8dec81	-0.06929875
158	0x3c9a06c2	0.01880205
159	0x3dad86a1	0.08472944
160	0x3d630e52	0.05543358
161	0x3d765942	0.060143717
162	0x3db865e3	0.09003808
163	0x3c396a9b	0.011316921
164	0xbe24732f	-0.16059564
165	0x3d352dc9	0.044233117
166	0xbd8e98c1	-0.06962729
167	0x3dc66885	0.09687904
168	0xbdb14f30	-0.08657682
169	0x3d81f890	0.06346238
170	0xbe05d646	-0.1307002
171	0xbdd951e5	-0.10611323
172	0xbe24204b	-0.16027944
173	0xbbc8d791	-0.006129213
174	0x3c8ddbe8	0.017316774
175	0x3d56907d	0.05238389
176	0xbd14894f	-0.03626376
177	0x3dca0f13	0.098661564
178	0x3c9f2d99	0.019430922
179	0xbda1ba18	-0.07896823
180	0x3d5cf1d2	0.053941555
181	0x3d34fc06	0.04418566
182	0x3d9c5a40	0.07634401
183	0x3d2b336f	0.041797098
184	0xbd175fef	-0.036956724
185	0x3ce34ad3	0.02774564
186	0x3c2b02e4	0.010437701
187	0x3d8698d3	0.06572118
188	0xbd83b095	-0.06430165
189	0xbd51d218	-0.05122575
190	0x3e23db04	0.16001517
191	0xbdca97d2	-0.09892239
192	0x3d8bd407	0.068275504
193	0xbd820236	-0.06348078
194	0xbc7b4e4a	-0.01533849
195	0xbc08f836	-0.008359959
196	0x3dda40da	0.10656901
197	0xbd1c22c1	-0.03811908
198	0xbcaafc70	-0.020872325
199	0xbe070d0e	-0.13188574
200	0xbd77974f	-0.060447033
201	0x3e3011c2	0.17194274
202	0xbdbe06ba	-0.09278627
203	0xbe03a80b	-0.12857072
204	0x3de7f7ec	0.11326584
205	0xbcdf5d44	-0.027266152
206	0xbd24ec51	-0.04026443
207	0x3d1ba116	0.03799542
208	0x3d40f94d	0.04711275
209	0x3d8a0078	0.06738371
210	0x3d8b3312	0.0679685
211	0x3dc8bf21	0.0980208
212	0xbdab9a2a	-0.08379014
213	0xbe364905	-0.17801292
214	0x3e046a3a	0.12931147
215	0x3c14692f	0.009058281
216	0xbdfc8e3c	-0.123318166
217	0xbe099650	-0.13436246
218	0x3b16e6f6	0.0023025847
219	0xbcfb5db9	-0.030684339
220	0xbbc684a5	-0.006058293
221	0xbd86ae67	-0.06576233
222	0xbe5c8130	-0.21533656
223	0x3d8cf501	0.06882668
224	0x3db63224	0.08896282
225	0x3d657441	0.05601907
226	0xbd3a7ea4	-0.04553093
227	0x3e089fc9	0.13342203
228	0xbcc221c4	-0.023697741
229	0x3d2071af	0.039170917
230	0x3d072b90	0.03300053
231	0xbdf441d9	-0.11926622
232	0x3e11d98c	0.14243144
233	0x3dd7fac2	0.10545875
234	0x3e1a77df	0.1508479
235	0xbb542924	-0.0032373155
236	0x3d29e3cb	0.041477006
237	0x3cecba40	0.028897405
238	0x3cb7cabb	0.022435537
239	0xbd8a899e	-0.0676453
240	0x3d3c4a4e	0.0459693
241	0xbd227577	-0.039662804
242	0x39e9727d	0.00044526524
243	0xbdd15112	-0.10220541
244	0xbe446a85	-0.19181259
245	0xbcb70ddb	-0.022345474
246	0x3dea590e	0.11442767
247	0xbc3b70e1	-0.011440487
248	0xbd5ca38c	-0.053866908
249	0x3dbc276c	0.091872066
250	0x3d15f524	0.036610737
251	0xbd8fd7bb	-0.07023569
252	0xbd35255f	-0.044225093
253	0x3e374f08	0.17901242
254	0x3d151066	0.036392592
255	0x3e064d61	0.13115455

network_body.observation_encoder.processors.0.normalizer.running_mean f4 [11]
0	0x3edf0553	0.4355875
1	0x3effffa7	0.49999735
2	0xbffd96fb	-1.98117
3	0x3f2e3780	0.68053436
4	0xc03fffb2	-2.9999814
5	0xbf71bb5b	-0.94426507
6	0x3f2ad400	0.66729736
7	0x3baa43e0	0.0051960796
8	0xbf508770	-0.8145666
9	0xbb4dfaac	-0.003142993
10	0xba898d4f	-0.0010494384
