Assets/weights/FindRoad2.onnx (onnx, 77078 bytes, 8 tensors)

47 f4 [11]
0	0x408708b6	4.2198133
1	0x392613dd	0.00015838393
2	0x407d36c9	3.9564688
3	0x40a75bfb	5.229978
4	0x39eebea0	0.00045536924
5	0x4099e7b7	4.8095355
6	0x40b521cc	5.6603756
7	0x3e550c34	0.20805436
8	0x40b953ec	5.7914944
9	0x408bc4d3	4.3677764
10	0x408d79ca	4.421117

action_model._discrete_distribution.branches.0.bias f4 [5]
0	0xbe9129b9	-0.28352144
1	0xbf51c2c8	-0.8193784
2	0x3f0f5805	0.5599368
3	0x3bd3f482	0.0064683566
4	0xbddab9e5	-0.10679988

action_model._discrete_distribution.branches.0.weight f4 [5, 128]
0	0x3e73d68b	0.2381231
1	0x3bb2510e	0.0054417914
2	0xbeb00d84	-0.34385312
3	0xbe85e1d2	-0.2614885
4	0x3ec2a2d4	0.38014853
5	0x3ecf52cd	0.4049286
6	0xbe5a0461	-0.21290733
7	0x3d70cdef	0.058790144
8	0xbef0ad8d	-0.4700741
9	0x3dbf621d	0.093448855
10	0x3e5c8d76	0.21538338
11	0x3d94a5c7	0.07258182
12	0xbe865ca6	-0.2624256
13	0x3e768bef	0.24076818
14	0x3d93e4d8	0.07221383
15	0xbdd1da29	-0.10246689
16	0xbe059d80	-0.13048363
17	0x3f210e6c	0.6291263
18	0xbd7bc3c1	-0.061465982
19	0x3eb42cc5	0.35190406
20	0x3dd43aef	0.10362803
21	0x3eac2c12	0.33627373
22	0xbed907d6	-0.4238879
23	0x3cec8dae	0.028876152
24	0xbc7916f9	-0.015203231
25	0x3d8d857f	0.06910228
26	0x3e492216	0.19641909
27	0x3ee57fb3	0.4482399
28	0x3e8f6b7d	0.28011695
29	0x3ce2ed86	0.02770115
30	0x3e7e44b9	0.24830903
31	0x3e827694	0.25481093
32	0x3de27f1c	0.110594004
33	0x3e88a126	0.26685447
34	0x3e1018fb	0.1407203
35	0x3ed88906	0.4229204
36	0x3e8b9db6	0.2726876
37	0x3e8865cb	0.26640162
38	0xbea830cf	-0.32849738
39	0x3e653b6b	0.22385947
40	0x3e81fc10	0.2538762
41	0xbef46f26	-0.4774105
42	0xbeeecde1	-0.46641448
43	0xbd48d227	-0.049028542
44	0xbd99ad6c	-0.07503781
45	0x3e231cd5	0.15928967
46	0x3f35ff2a	0.71092474
47	0x3c2bea46	0.010492867
48	0x3e8cff4c	0.27538526
49	0xbd8375c4	-0.064189464
50	0x3e61805a	0.22021618
51	0x3e355735	0.17709048
52	0x3f517496	0.8181852
53	0x3f03e420	0.51519966
54	0x3eaf6438	0.34256148
55	0x3e717d8c	0.23583049
56	0x3eec7a83	0.4618722
57	0x3e83365a	0.25627404
58	0x3e96a494	0.29422438
59	0x3ea37edf	0.31932732
60	0x3e51d5e5	0.2049175
61	0x3d97a906	0.074052855
62	0x3ee85812	0.45379692
63	0xbe8d401c	-0.27587974
64	0x3e4d2a22	0.20035604
65	0xbdc348de	-0.09535383
66	0x3ebda0a2	0.37036616
67	0xbe4a73a9	-0.19770683
68	0xbf6278cc	-0.8846557
69	0xbeba7b5a	-0.36422235
70	0x3ec63ea2	0.3871966
71	0xbe030165	-0.127935
72	0x3d9d637e	0.07684992
73	0xbf53fef0	-0.8281088
74	0x3ed11992	0.4083982
75	0x3ea5319b	0.32264408
76	0xbe0c270e	-0.13686773
77	0xbdf183c1	-0.11792708
78	0xbe83a966	-0.25715178
79	0x3f0fc87a	0.5616528
80	0x3c9184c6	0.017763507
81	0x3e535317	0.20637165
82	0x3e0428c5	0.12906177
83	0x3f1cb13f	0.61207956
84	0x3a59fbb4	0.00083154
85	0x3ea1a8c6	0.31574076
86	0x3e5bf342	0.21479514
87	0xbde6b785	-0.11265472
88	0x3c8b5f8a	0.01701333
89	0xbf23f966	-0.64052427
90	0x3e6470ec	0.22308701
91	0xbee0df89	-0.43920544
92	0x3e852961	0.26008132
93	0x3efa266a	0.48857433
94	0xbd971a78	-0.073780954
95	0x3e4c4b59	0.19950618
96	0xbe165e6e	-0.1468446
97	0x3d68d66d	0.056845117
98	0x3e190767	0.1494423
99	0xbd7e9832	-0.062156864
100	0x3e1323ba	0.14369097
101	0xbe5233a3	-0.2052751
102	0xbde58a71	-0.11208046
103	0x3e94a5a9	0.2903264
104	0xbea27b94	-0.31734908
105	0x3e6df982	0.23239711
106	0x3df72804	0.12068179
107	0x3e772a47	0.24137221
108	0x3e20c494	0.15699989
109	0xbe361372	-0.17780855
110	0x3ee947e5	0.45562664
111	0x3e8e93a4	0.27847016
112	0x3e40a365	0.1881233
113	0x3e696a7b	0.22794525
114	0xbef5420d	-0.47901955
115	0xbd86e457	-0.06586521
116	0xbe57ab2e	-0.21061394
117	0x3d3f8892	0.046761103
118	0x3e801ebd	0.2502345
119	0x3eaeee61	0.34166244
120	0xbe20413b	-0.15649883
121	0x3e942aa2	0.28938776
122	0xbe755829	-0.23959412
123	0x3f5d8b40	0.86540604
124	0xbe6b3d94	-0.22972709
125	0xbd95b66d	-0.073101856
126	0x3f1fe35e	0.6245631
127	0xbd2a49b4	-0.041574195
128	0xbe1bb567	-0.15205918
129	0x3e1bc17c	0.15210527
130	0x3e80320d	0.25038186
131	0x3fb3803d	1.402351
132	0xbf01baee	-0.5067586
133	0x3fb139f7	1.3845814
134	0xbf13c18e	-0.57717216
135	0xbb7669ec	-0.0037599755
136	0x3f0ac38d	0.54204637
137	0x3f149ed0	0.5805483
138	0x3d476ea7	0.04868951
139	0x3f7c3d4d	0.9853104
140	0x3f2a6f95	0.6657651
141	0x3fd9f92e	1.7029169
142	0x4006a37f	2.103729
143	0x3f06a12b	0.5258967
144	0x3f1d352f	0.61409277
145	0x3dcea488	0.100899756
146	0x3eb6dc47	0.35714933
147	0x3f0464b5	0.51716167
148	0x3f1d7b3a	0.61516154
149	0xbcae6a13	-0.021290815
150	0x3e8afc3f	0.27145573
151	0x3e65582b	0.22396915
152	0x3fa6cbe4	1.3030972
153	0x3e27f0d3	0.16400461
154	0x3e055377	0.1302012
155	0x3f0e0812	0.55481064
156	0x3e5da303	0.21644215
157	0x3f04c19c	0.51857924
158	0x3ee5e44d	0.44900742
159	0xbe188810	-0.14895654
160	0x3e663c7b	0.22484009
161	0xbe56ebb2	-0.20988348
162	0xbec551f3	-0.38539085
163	0xbe92411e	-0.28565305
164	0xbef34b12	-0.47518212
165	0xbc353e07	-0.011062152
166	0xbe775f1e	-0.24157378
167	0xbe3359a5	-0.17514665
168	0x3e23def2	0.16003016
169	0xbf21f5e4	-0.63265824
170	0xbe0e81ec	-0.13916749
171	0x3f4ab82d	0.7918728
172	0x3f3b3b8c	0.73137736
173	0x3c1c21be	0.009529529
174	0x3e6400a9	0.22265877
175	0xbe0db90f	-0.13840126
176	0xbeac890f	-0.33698317
177	0x3f0301c5	0.51174575
178	0x3ea4de0c	0.32200658
179	0x3ea041c5	0.31300178
180	0x3e67e49c	0.22645801
181	0x3f09d225	0.5383628
182	0x3f095684	0.5364764
183	0x3d7cc3e5	0.061710257
184	0x3e5b848c	0.21437281
185	0x3e866653	0.26249942
186	0x3e62b0dd	0.2213778
187	0x3f40d70b	0.7532813
188	0x3ede7a29	0.43452576
189	0x3f594492	0.84870255
190	0xbf373599	-0.7156616
191	0xbe257df4	-0.16161329
192	0xbd25a6d3	-0.0404423
193	0x3ec75af1	0.3893657
194	0x3e1dc62b	0.15407626
195	0xbe83b9e6	-0.25727767
196	0x3e28df79	0.16491498
197	0x3ed4d5ed	0.41569462
198	0xbe9bc9d1	-0.3042741
199	0x3f1ccd56	0.6125082
200	0x3ee820dc	0.4533757
201	0xbe8763bb	-0.26443276
202	0x3fe66f3a	1.8002694
203	0x3b8a0aff	0.0042127366
204	0xbe9bb5d7	-0.3041217
205	0x3e218343	0.15772729
206	0x3e7abf85	0.24487121
207	0xbd109ded	-0.03530686
208	0x3e53572f	0.20638727
209	0xbc369153	-0.011143046
210	0x3d18439a	0.037173845
211	0x3d5a523e	0.05330109
212	0x3e6edf9e	0.2332749
213	0xbec3bb2f	-0.38228747
214	0x3d2a7541	0.04161573
215	0x3f05a26e	0.52200973
216	0xbde5efe5	-0.11227397
217	0x3f093283	0.535927
218	0x3f115ed2	0.5678531
219	0x3e86b669	0.26311043
220	0x3f2fd89f	0.6868991
221	0x3dbdb4f8	0.09263033
222	0xbd2822b7	-0.04104873
223	0xbbf871eb	-0.0075819395
224	0x3f0fe7fe	0.56213367
225	0xbe9fe385	-0.3122827
226	0x3ee5f53b	0.44913658
227	0xbee9cd2f	-0.45664355
228	0xbdaa1d09	-0.08306319
229	0x3efa4501	0.4888077
230	0x3f0dd07e	0.5539626
231	0x3e2441ba	0.16040698
232	0xbee47da9	-0.4462712
233	0x3e9af86a	0.3026765
234	0x3f72e37c	0.94878364
235	0xbda88a69	-0.08229525
236	0x3f2bf24e	0.671666
237	0x3fdaf09c	1.7104678
238	0xbdd4bba8	-0.10387355
239	0x3db2386f	0.0870217
240	0x3ea5175f	0.32244393
241	0xbdaa54fe	-0.08316992
242	0x3e62a58b	0.22133462
243	0x3d093b0f	0.03350359
244	0xbf1f5d18	-0.62251425
245	0x3d9cb6ac	0.076520294
246	0xbe7c68f6	-0.24649414
247	0x3ec53668	0.3851807
248	0x3e1de1ba	0.15418139
249	0x3e9812a7	0.2970173
250	0x3f4b2d70	0.7936621
251	0x3ea268ec	0.31720674
252	0xbdb2bbaf	-0.08727204
253	0x3c3be13f	0.011467277
254	0x3e2e50f9	0.17023076
255	0x3e95e25a	0.29274255

network_body._body_endoder.seq_layers.0.bias f4 [128]
0	0x3d6b5494	0.057453707
1	0xbe8f6ffd	-0.28015128
2	0xbe336b4d	-0.17521401
3	0xbe2992e9	-0.16559948
4	0x3e8d0205	0.27540603
5	0xbe311763	-0.17294078
6	0xbded1db5	-0.11577932
7	0xbee1902a	-0.440553
8	0xbe599219	-0.21247138
9	0xbf5a0ab5	-0.8517259
10	0xbdb2f86f	-0.08738791
11	0x3daa9f49	0.083311625
12	0xbe404f28	-0.18780196
13	0x3db2ca4f	0.087299936
14	0xbefbf460	-0.4920988
15	0x3e8feeca	0.2811187
16	0xbdffa86b	-0.12483295
17	0xbefa7cd0	-0.4892335
18	0x3e396f59	0.18108882
19	0x3cd3bfd3	0.025848305
20	0xbeebfef8	-0.46092963
21	0xbe16857f	-0.14699362
22	0xbf13fdd7	-0.57809204
23	0x3efc71d6	0.493056
24	0x3ea45a1e	0.32100004
25	0x3e1b21ce	0.15149614
26	0x3e92cee7	0.2867348
27	0x3e54d42b	0.2078406
28	0x3eb4dc17	0.35324165
29	0xbeec525e	-0.4615659
30	0x3ed99a0c	0.4250034
31	0xbe8ec7bb	-0.27886757
32	0xbe22ca72	-0.1589754
33	0x3da25138	0.079256475
34	0x3e4c5397	0.19953762
35	0x3e317e9c	0.17333454
36	0xbee8090a	-0.45319396
37	0x3ce013d7	0.02735321
38	0xbeb11090	-0.3458295
39	0xbe1e7ac9	-0.15476526
40	0xbee16ad4	-0.44026816
41	0xbdc3c0a5	-0.095582284
42	0x3dd5248e	0.10407363
43	0xbd1c40cb	-0.03814773
44	0xbed7fad4	-0.42183554
45	0xbf00daef	-0.50334066
46	0x3f0f5da9	0.5600229
47	0x3e595b52	0.21226242
48	0x3e344762	0.17605355
49	0x3e7ee84d	0.24893303
50	0x3e7a017f	0.24414633
51	0x3edafe8b	0.42772326
52	0x3d85b3ae	0.06528412
53	0x3c76d544	0.015065495
54	0xbe3eb615	-0.18624146
55	0x3dadf3ed	0.08493791
56	0xbedc65d5	-0.43046442
57	0x3e68d2bf	0.22736643
58	0xbd15bad6	-0.036555134
59	0xbd108519	-0.03528318
60	0xbcf60744	-0.030032761
61	0xbe70e923	-0.23526435
62	0xbd18a66c	-0.037268087
63	0x3efe86f8	0.49712348
64	0xbe6b1e6b	-0.22960822
65	0x3ec970c3	0.39343843
66	0x3e38c2b5	0.18043025
67	0x3e059a7b	0.13047211
68	0xbe8c6675	-0.2742192
69	0xbde520ed	-0.11187921
70	0xbe461767	-0.19344865
71	0xbe691cdf	-0.2276492
72	0xbe5f42e7	-0.21802865
73	0xbd6829b5	-0.0566804
74	0xbeb962f7	-0.36208317
75	0xbee83c7e	-0.45358652
76	0xbeac1222	-0.33607584
77	0x3dc9724a	0.09836252
78	0x3e01febe	0.12694833
79	0x3ec919b5	0.39277425
80	0x3ea3bdc8	0.3198073
81	0x3de83818	0.11338824
82	0xbe90d3b5	-0.2828652
83	0xbe326d3e	-0.17424485
84	0xbcf11956	-0.029431026
85	0x3e034715	0.12820084
86	0xbc864080	-0.016388178
87	0x3e348b58	0.1763128
88	0xbe5f841e	-0.21827742
89	0xbe50bc9a	-0.20384446
90	0xbcd15043	-0.025550967
91	0x3e9346d6	0.2876498
92	0xbd73b34a	-0.059497155
93	0x3ebc0c65	0.36728206
94	0xbef1790f	-0.47162673
95	0x3ba5f5c6	0.005064699
96	0xbe5c41d4	-0.21509486
97	0xbed67b10	-0.41890764
98	0x3e38c3fd	0.18043514
99	0xbe105136	-0.1409348
100	0xbe9a44b4	-0.3013054
101	0xbd901094	-0.07034412
102	0x3c708e6a	0.014682392
103	0x3bdcd092	0.0067387307
104	0x3d4a6d60	0.049420714
105	0xbd8b9933	-0.0681633
106	0xbe37aaec	-0.17936295
107	0xbe068558	-0.13136804
108	0xbe6100da	-0.21972981
109	0xbe617f6b	-0.22021262
110	0x3e1069ba	0.14102831
111	0x3e47a31a	0.19495812
112	0xbf6d2de5	-0.92648154
113	0xbe1eb1a8	-0.15497458
114	0xbe481277	-0.19538294
115	0x3dc351ae	0.095370635
116	0xbe5a5208	-0.21320355
117	0xbd11c314	-0.03558643
118	0x3ed30320	0.41213322
119	0x3e04e501	0.12977983
120	0xbe767ec9	-0.24071802
121	0xbd70709c	-0.058701143
122	0x3d8b00f7	0.067872934
123	0x3e257ebc	0.16161627
124	0xbe057b9b	-0.13035433
125	0x3d4a6d2d	0.049420524
126	0x3e1c90b7	0.1528958
127	0xbde35925	-0.11100987

network_body._body_endoder.seq_layers.0.weight f4 [128, 11]
0	0x3c3ab91b	0.011396672
1	0xbec9f41d	-0.39444056
2	0x3c9f59ce	0.019452002
3	0xbd26c9d4	-0.040719822
4	0x3e3236ee	0.17403767
5	0x3d1b043f	0.037845846
6	0x3e13b611	0.14424922
7	0x3e0c6277	0.13709436
8	0xbded6613	-0.11591735
9	0x3ee48250	0.4463067
10	0xbe4db877	-0.20089899
11	0xbc412164	-0.011787746
12	0xbdd04982	-0.101702705
13	0xbdfd7dc5	-0.12377504
14	0xbdcd5617	-0.10026186
15	0xbe1d2fa2	-0.15350202
16	0x39acee6a	0.0003298403
17	0xbe153442	-0.14570716
18	0xbca5c7d8	-0.020236894
19	0x3f512353	0.81694525
20	0x3f08ab7c	0.53386664
21	0x3e935aca	0.28780204
22	0xbc6c5833	-0.014425325
23	0x3d864d8d	0.065577604
24	0x3eef2eaa	0.4671529
25	0xbe45e76d	-0.19326563
26	0x3ee61339	0.4493654
27	0x3e80c0b5	0.25147024
28	0x3eabcb9a	0.33553773
29	0xbe7ce7a8	-0.24697745
30	0xbf8367c3	-1.026604
31	0xbf696b21	-0.9117909
32	0x3eb34ebb	0.35021004
33	0xbef78628	-0.4834454
34	0xbea122c8	-0.31471848
35	0xbe46751f	-0.19380616
36	0xbd58d58b	-0.052938025
37	0x3dee7dec	0.116451114
38	0x3dfeec4c	0.12447414
39	0x3f755e09	0.9584661
40	0x3ce00e8a	0.027350683
41	0x3e0c1781	0.13680841
42	0x3f29cd38	0.66328764
43	0x3efe0b0f	0.49617812
44	0x3f041b3b	0.5160405
45	0x3f01c230	0.5068693
46	0xbe9e571a	-0.30925828
47	0xbd37d8ea	-0.0448846
48	0x3d74a7c2	0.0597303
49	0xbdc4b15e	-0.096041426
50	0xbee5487c	-0.44781864
51	0xbcb2ef51	-0.02184263
52	0x3ea6f552	0.3260904
53	0x3dd97797	0.10618513
54	0xbc99fc9d	-0.018797213
55	0xbe31f021	-0.17376758
56	0x3e180a17	0.14847599
57	0x3dd50504	0.10401347
58	0xbe56e93c	-0.2098741
59	0x3e39c54e	0.18141672
60	0xbcba02f4	-0.022706486
61	0x3f3da2ff	0.7407684
62	0x3ca16118	0.019699618
63	0x3df5aec4	0.119962245
64	0xbf4f1937	-0.8089785
65	0x3ec27aeb	0.37984404
66	0xbea55fb4	-0.32299578
67	0x3cb63358	0.02224128
68	0x3c90809d	0.017639453
69	0x3dd0740d	0.10178385
70	0x3d07a822	0.03311933
71	0xbe1e64de	-0.15468165
72	0x3f320542	0.6953927
73	0xbef0f9ac	-0.47065485
74	0xbf39d6c4	-0.7259333
75	0x3de8be3d	0.1136441
76	0xbe268d05	-0.16264732
77	0xbe6abda3	-0.22923903
78	0xbe8b4252	-0.27199036
79	0xbd2fc35a	-0.04291091
80	0x3e5adf29	0.21374191
81	0x3f287b97	0.65813583
82	0x3ce6bbf2	0.028165791
83	0x3e9bafea	0.3040765
84	0x3e89e269	0.2693055
85	0xbe509376	-0.20368752
86	0x3d3d6098	0.046234697
87	0xbf1a9cf7	-0.6039576
88	0xbeeb2c84	-0.459324
89	0xbed64d31	-0.41855767
90	0x3dbaf8b1	0.09129465
91	0x3e080cba	0.13286105
92	0x3e2cf18e	0.16889021
93	0xbc451570	-0.012029037
94	0x3f84965c	1.0358386
95	0xbe4a9c1a	-0.1978611
96	0xbecd885e	-0.40143102
97	0x3f397cb7	0.72455925
98	0xbea20e02	-0.31651312
99	0xbdc74b91	-0.0973121
100	0xbf5e059d	-0.86727315
101	0xbec66053	-0.38745365
102	0xbe69d089	-0.22833456
103	0x3f094f36	0.5363649
104	0x3e831ce9	0.25607994
105	0x3ea471b2	0.32117993
106	0xbf5a3e02	-0.85250866
107	0x3ec7fef0	0.3906169
108	0xbee412aa	-0.4454549
109	0xbf04fed0	-0.51951313
110	0x3dbc0c6c	0.09182057
111	0x3f29ee12	0.6637889
112	0xbda73b1a	-0.081655696
113	0xbdba5f27	-0.0910018
114	0xbe8feca5	-0.28110233
115	0xbca6fa82	-0.020383123
116	0x3e5ef23f	0.21772097
117	0x3dcceaca	0.1000572
118	0xbe05fe09	-0.13085188
119	0xbebeea8c	-0.3728832
120	0xbedfa8c7	-0.43683454
121	0x3cb13f66	0.021636676
122	0x3e27be60	0.16381216
123	0x3ea19578	0.31559348
124	0xbc7a8074	-0.015289415
125	0xbe374196	-0.17896113
126	0xbd1bec5b	-0.038067203
127	0xbdae7f28	-0.08520347
128	0xbda4535d	-0.08023713
129	0xbf508e1e	-0.81466854
130	0x3e3150e3	0.17316012
131	0xbe809b0d	-0.25118294
132	0xbe03cead	-0.1287181
133	0x3e8825be	0.26591295
134	0xbcd35941	-0.025799396
135	0xbc67aa89	-0.01413978
136	0x3ece2b33	0.40267333
137	0x3c03759e	0.008023648
138	0x3d8dbfd8	0.06921357
139	0xbe461059	-0.19342174
140	0xbefe5efe	-0.49681848
141	0x3ea5fcc0	0.32419395
142	0x3e758b3a	0.23978892
143	0x3f1b6bf1	0.6071158
144	0x3dceaba6	0.10091333
145	0xbec2041b	-0.37893757
146	0xbe5ae77d	-0.21377368
147	0xbdc2338e	-0.094824895
148	0xbc5b75bc	-0.013394769
149	0xbf524e53	-0.82150763
150	0x3eb38782	0.35064322
151	0x3f2e9dbb	0.6820943
152	0x3f1c1306	0.6096653
153	0xbdfb6130	-0.122743964
154	0x3d8f74db	0.0700471
155	0xbf616e91	-0.88059336
156	0xbe5c0d39	-0.21489419
157	0xbc1766e0	-0.009240836
158	0x3ed62e2c	0.418321
159	0xbdfb67cf	-0.12275659
160	0x3e372c42	0.17887977
161	0xbe5b2130	-0.21399379
162	0x3fa3c2ff	1.2793883
163	0xbe863efc	-0.26219928
164	0x3ed1c8d5	0.40973535
165	0xbf011c26	-0.50433576
166	0xbd3bed25	-0.045880456
167	0xbe8339c0	-0.25629997
168	0x3e07cea4	0.13262421
169	0xbe4efda3	-0.20213942
170	0xbd0dc1f3	-0.034608793
171	0x3ede62ab	0.43434653
172	0xbf49eb65	-0.7887481
173	0x3f3c4c48	0.73553896
174	0x3f68bc0f	0.90911955
175	0x3db8c965	0.09022788
176	0xbeeefd6a	-0.46677715
177	0x3e80a924	0.25129044
178	0x3cefc91d	0.029270703
179	0xbe379612	-0.17928341
180	0x3c2b60f9	0.010460132
181	0xbe0317be	-0.12802026
182	0xbdd21d1d	-0.10259459
183	0xbe7c7aa1	-0.24656154
184	0x3ef08f37	0.46984264
185	0xbef84624	-0.48491013
186	0x3f8a6b2f	1.081396
187	0x3d8a5156	0.06753795
188	0xbec1171d	-0.37712947
189	0xbe88b480	-0.2670021
190	0x3ea77845	0.32708946
191	0x3d968551	0.07349647
192	0x3eacb989	0.33735302
193	0xbc4cadd6	-0.012492618
194	0xbe18a054	-0.1490491
195	0x3f513d98	0.8173461
196	0xbe53da29	-0.2068869
197	0x3f38a985	0.72133666
198	0x3ec640b0	0.38721228
199	0xbe11d8bd	-0.14242835
200	0x3e995385	0.29946533
201	0x3d8de0e5	0.06927661
202	0xbe7f6d4b	-0.24944036
203	0x3d852ba1	0.06502462
204	0xbedfef14	-0.4373709
205	0x3dd1e3e5	0.102485456
206	0xbec1da8d	-0.37862054
207	0x3d176556	0.036961876
208	0x3fa7914d	1.3091217
209	0xbe94edf2	-0.29087788
210	0x3e81d504	0.2535783
211	0x3e5fa8ba	0.21841708
212	0x3e636b62	0.22208932
213	0x3dd25944	0.10270932
214	0xbc416c69	-0.011805632
215	0x3e8728f9	0.26398447
216	0xbe29c4dd	-0.16579004
217	0xbf4135ea	-0.7547289
218	0xbed75ebd	-0.42064467
219	0x3e1c6c3e	0.15275666
220	0x3b638cae	0.0034721303
221	0xbf2e60c1	-0.68116385
222	0xbe3a3854	-0.1818555
223	0xbe67728d	-0.22602291
224	0x3e7224f7	0.23646913
225	0x3c7ac4b8	0.0153056905
226	0xbf0a9522	-0.5413381
227	0xbde4fb65	-0.11180762
228	0x3e3851a5	0.17999895
229	0xbf21044e	-0.62897193
230	0x3ec390b4	0.38196337
231	0xbe4b808c	-0.19873255
232	0xbed575b9	-0.41691378
233	0xbc27f1fe	-0.0102505665
234	0x3c87c4f9	0.016573416
235	0x3ed4492f	0.41462085
236	0xbdc46ce8	-0.09591085
237	0x3eac5580	0.3365898
238	0x3db13008	0.08651739
239	0xbec28393	-0.37991008
240	0xbebbaef6	-0.36656922
241	0x3f85bda7	1.0448502
242	0xbe4115ff	-0.18856047
243	0xbf51e407	-0.8198857
244	0xbf0c1349	-0.54716927
245	0xbe55931f	-0.20856903
246	0x3f8006f5	1.0002123
247	0x3b0885ff	0.002083182
248	0x3d72b0b5	0.059250552
249	0x3e431e09	0.19054426
250	0x3eedc11b	0.4643639
251	0x3dc3497b	0.095355
252	0x3f41e9cb	0.75747365
253	0xbdc70d91	-0.097193845
254	0x3f56a55d	0.83846074
255	0x3d47c75f	0.04877412

network_body._body_endoder.seq_layers.2.bias f4 [128]
0	0x3d035e54	0.03207238
1	0x3e5473f5	0.20747359
2	0xbeead4de	-0.4586553
3	0xbe52d865	-0.2059036
4	0xbf1ec705	-0.6202243
5	0xbd6115d1	-0.054952446
6	0x3e6a4328	0.2287718
7	0x3c56a71d	0.013101366
8	0xbe869648	-0.2628653
9	0xbe9cc7a5	-0.30621067
10	0xbe17cd08	-0.14824307
11	0xbe8706ce	-0.2637238
12	0xbe960a91	-0.29304937
13	0xbe17a5d5	-0.14809354
14	0xbc72aa5e	-0.0148111265
15	0xbe157b21	-0.14597751
16	0xbeb3768a	-0.35051376
17	0xbf2697f8	-0.65075636
18	0xbf05a4b3	-0.52204436
19	0xbf14fd96	-0.5819944
20	0xbf2b887a	-0.6700512
21	0xbf1907ce	-0.59777534
22	0xbe2d8405	-0.16944893
23	0x3e4739c3	0.19455628
24	0xbd441601	-0.047872547
25	0xbbade958	-0.0053073578
26	0x3c3d5721	0.011556418
27	0xbe708b39	-0.23490609
28	0xbe2327a4	-0.1593309
29	0xbeacb4eb	-0.3373178
30	0xbf261921	-0.64882094
31	0x3d8405ed	0.06446443
32	0x3ce5473b	0.027988067
33	0x3a858ff9	0.0010190002
34	0xbb070d9d	-0.002060748
35	0xbf048e51	-0.5177966
36	0xbedd9aab	-0.43282065
37	0xbe53367b	-0.20626251
38	0x3e1c4bbc	0.15263265
39	0x3df5150b	0.11966904
40	0xbf03cdca	-0.51485884
41	0x3e929f03	0.2863694
42	0x3d82baf1	0.063833125
43	0xbe5d17df	-0.21591137
44	0xbda00879	-0.07814116
45	0xbe56705c	-0.20941299
46	0xbedc25f6	-0.42997712
47	0x3eb215db	0.347823
48	0x3ea10f5b	0.31457028
49	0xbed1c2ec	-0.40969026
50	0xbeb898f5	-0.36054197
51	0xbee2568a	-0.4420665
52	0xbee281c6	-0.44239634
53	0xbe856c93	-0.26059398
54	0xbeaa414e	-0.3325295
55	0xbde46722	-0.111524835
56	0xbde03d7b	-0.109492265
57	0xbee1a49e	-0.44070905
58	0xbd8c00dc	-0.068361014
59	0xbe63024e	-0.22168848
60	0xbeba318c	-0.36365926
61	0xbe868f73	-0.26281318
62	0x3ea0aa60	0.31379986
63	0xbcc5f35d	-0.024163896
64	0xbe08788b	-0.13327233
65	0xbe0849e9	-0.13309444
66	0xbee2ac46	-0.4427206
67	0x3eb5c66c	0.35502946
68	0x3dd3e88f	0.103470914
69	0xbeab9e74	-0.33519328
70	0xbcc206d5	-0.023684898
71	0xbe4d4510	-0.20045877
72	0xbed53fd2	-0.41650254
73	0x3e884fac	0.26623285
74	0x3cd89b78	0.02644132
75	0xbd4ba734	-0.049720004
76	0x3e122f07	0.14275752
77	0xbb2e7605	-0.0026620638
78	0xbe89e2e5	-0.2693092
79	0xbd75a9d8	-0.05997643
80	0x3b2e137a	0.0026561902
81	0x3d447419	0.04796228
82	0x3e34347c	0.17598146
83	0xbe53cbc1	-0.20683195
84	0xbdba28fd	-0.09089849
85	0xbea73d42	-0.32663924
86	0xbc104b3c	-0.008807
87	0xbec99200	-0.39369202
88	0xbd4b1f77	-0.049590554
89	0xbe98f873	-0.29877052
90	0xbe680a82	-0.22660258
91	0xbe6a2436	-0.22865376
92	0xbd0ec24f	-0.034853276
93	0x3d8297df	0.06376623
94	0x3e3f6b65	0.18693312
95	0xbea6d14a	-0.3258155
96	0xbf1d6b26	-0.6149162
97	0xbc2a7542	-0.010403933
98	0xbe974d94	-0.29551375
99	0x3e79499a	0.24344483
100	0x3e7a7879	0.24460019
101	0xbef5619e	-0.47926039
102	0xbea866e6	-0.32891005
103	0xbdb8e261	-0.09027553
104	0x3f11a576	0.568931
105	0xbc7bc790	-0.015367404
106	0xbc9cba29	-0.019131737
107	0xbe0fc344	-0.14039332
108	0xbf014fe3	-0.5051252
109	0xbc534462	-0.012894722
110	0xbf026144	-0.50929666
111	0x3b915677	0.0044353562
112	0xbe42172a	-0.18954149
113	0x3d98715f	0.07443499
114	0x3de95ed8	0.11395043
115	0x3de9b0b3	0.11410656
116	0x3e8ae978	0.27131248
117	0xbe3cad4c	-0.18425483
118	0xbf04a123	-0.51808375
119	0xbe84f3e2	-0.25967318
120	0xbe1899e0	-0.14902449
121	0xbe427f46	-0.18993863
122	0xbdb46d7e	-0.088099465
123	0xbeccf8c3	-0.4003354
124	0x3e861943	0.26191148
125	0xbe294c54	-0.16533023
126	0xbe3d8d07	-0.18510829
127	0xbd826a94	-0.063679844

network_body._body_endoder.seq_layers.2.weight f4 [128, 128]
0	0xbdd1714d	-0.102266885
1	0xbe542dea	-0.2072064
2	0xbe754975	-0.23953803
3	0x3ed34d73	0.41270027
4	0xbe8dd633	-0.27702484
5	0x3e34aaf3	0.17643337
6	0x3e11eda2	0.14250806
7	0xbd8573ff	-0.06516265
8	0xbef8e98d	-0.48615685
9	0xbed3efed	-0.41393986
10	0xbedce210	-0.43141222
11	0xbe824ec4	-0.25450718
12	0xbd3e293e	-0.04642605
13	0xbee697d0	-0.450377
14	0xbed13b9a	-0.40865785
15	0x3d0ffeda	0.035155155
16	0x3ea04f56	0.3131053
17	0xbc00e25a	-0.007866466
18	0xbd766894	-0.060158327
19	0xbcf714ef	-0.03016135
20	0xbcc345cc	-0.023836993
21	0x3f128e03	0.5724794
22	0x3de93bed	0.11388383
23	0xbe155930	-0.14584804
24	0xbf0ccf92	-0.5500423
25	0xbe39ee13	-0.18157224
26	0xbec35ffb	-0.38159165
27	0x3ed18414	0.4092108
28	0xbee9e1e5	-0.45680156
29	0xbca0707a	-0.019584883
30	0xbc6ab3b2	-0.014325069
31	0xbf14e804	-0.5816653
32	0xbea09573	-0.3136402
33	0xbdf42194	-0.11920467
34	0x3e319979	0.17343701
35	0xbe333efa	-0.17504492
36	0x3da64782	0.08119108
37	0xbd251ece	-0.04031258
38	0x3e23863b	0.15969174
39	0x3eaa3f1f	0.33251283
40	0x3d5fd212	0.054643698
41	0x3e4bcba5	0.19901903
42	0x3e5ac947	0.21365844
43	0xbf242403	-0.6411745
44	0x3ddd987a	0.10820098
45	0xbe9105a9	-0.2832463
46	0x3eb26398	0.3484161
47	0xbefd0c85	-0.49423614
48	0x3e89d6d4	0.26921713
49	0x3e073569	0.13203968
50	0x3d23bb91	0.0399738
51	0x3e31b88a	0.17355552
52	0xbe75f7e7	-0.24020348
53	0x3ed238e8	0.4105904
54	0xbf0dc1c9	-0.5537382
55	0xbe9420a0	-0.2893114
56	0xbe675aa2	-0.22593167
57	0xbebe6700	-0.37187958
58	0x3e9c2be5	0.3050224
59	0xbd6f4ab8	-0.058420867
60	0x3da7081b	0.08155843
61	0x3da6cf0e	0.08144961
62	0x3b81db02	0.0039628753
63	0xbf0ab59e	-0.54183376
64	0xbe27e362	-0.16395333
65	0x3efa84b2	0.48929363
66	0x3e4737c5	0.19454868
67	0x3e3a3e8a	0.1818792
68	0xbe367e5b	-0.17821638
69	0xbe287693	-0.16451482
70	0xbdbc5b62	-0.091971174
71	0x3deff5d2	0.117168084
72	0xbbbec514	-0.0058218334
73	0xbd2523de	-0.04031741
74	0x3e8ca79f	0.27471635
75	0xbe3cea07	-0.1844865
76	0xbebdd952	-0.37079865
77	0xbe9acf79	-0.30236414
78	0xbca76613	-0.020434415
79	0xbe736dd9	-0.23772372
80	0x3e44e728	0.19228804
81	0x3ce59438	0.028024778
82	0x3e76e54d	0.24110909
83	0xbea5b995	-0.3236815
84	0xbeb79d0e	-0.3586201
85	0x3e665406	0.2249299
86	0xbf0b9b80	-0.5453415
87	0x3d158062	0.03649939
88	0x3ca7461d	0.020419175
89	0x3d9039fe	0.07042311
90	0x3e61b882	0.2204304
91	0xbe9c7e07	-0.305649
92	0xbe770bb8	-0.24125564
93	0xbe8ead4f	-0.278666
94	0xbe60b7e4	-0.21945149
95	0xbefd316f	-0.49451777
96	0xbf5c0989	-0.8595205
97	0x3e4292e4	0.19001347
98	0x3db50d77	0.08840459
99	0x3e88c895	0.26715532
100	0x3e7ee692	0.24892643
101	0xbec0942a	-0.3761304
102	0xbd162e40	-0.0366652
103	0x3f038c2d	0.51385766
104	0xbe906a56	-0.28206128
105	0x3d2fd7ed	0.042930532
106	0x3dbe1ef6	0.09283249
107	0xbe93a54d	-0.28837052
108	0x3ead53a8	0.33852887
109	0xbc99fc25	-0.01879699
110	0xbd1292fa	-0.0357847
111	0xbdec94c1	-0.1155181
112	0xbe63cec4	-0.22246844
113	0xbe184225	-0.14868982
114	0xbf32aa5e	-0.6979121
115	0xbeaac4e0	-0.3335333
116	0xbe159ac8	-0.14609826
117	0x3eaf1f05	0.34203354
118	0x3ba24188	0.0049516596
119	0xbe2e9741	-0.17049886
120	0xbe593e90	-0.21215272
121	0xbe321df9	-0.17394246
122	0xbef84f95	-0.48498216
123	0x3dd4873e	0.10377358
124	0xbef13d9a	-0.4711731
125	0x3e85131e	0.25991148
126	0x3b90e97f	0.004422366
127	0xbdac6be8	-0.08419019
128	0x3ce5c0a2	0.028045956
129	0xbd860c36	-0.06545298
130	0xbf1e398f	-0.6180658
131	0xbef5ee98	-0.48033595
132	0x3ea54a0a	0.3228305
133	0xbf1c90b5	-0.61158305
134	0xbe9bdc51	-0.30441526
135	0x3dab6b20	0.08370042
136	0xbea9f1a3	-0.33192167
137	0xbb783817	-0.003787523
138	0x3d945251	0.07242263
139	0xbcee147f	-0.029062508
140	0xbd76ca7d	-0.0602517
141	0x3ee52741	0.4475651
142	0x3e62013c	0.22070783
143	0xbebb8ef8	-0.36632514
144	0xbec9eee9	-0.39440086
145	0x3dbaaca0	0.09114957
146	0xbd1285fd	-0.035772312
147	0xbede5296	-0.43422383
148	0xbe96cae5	-0.2945167
149	0xbf2356e9	-0.6380449
150	0xbec46edd	-0.38365832
151	0xbed75bb3	-0.42062148
152	0x3ec63e29	0.387193
153	0x3e8e14d0	0.27750254
154	0x3e3b9ee4	0.1832233
155	0xbe141c83	-0.14464001
156	0xbe28d4b7	-0.16487394
157	0x3eaf4543	0.3423253
158	0xbd258206	-0.040407203
159	0xbc33fb2c	-0.010985177
160	0xbf039660	-0.5140133
161	0xbecdf4d3	-0.4022585
162	0xbea4951f	-0.3214502
163	0xbeb72224	-0.35768235
164	0x3e8e521c	0.2779702
165	0xbf40e255	-0.75345355
166	0xbe9f84b9	-0.31155947
167	0xbf003cba	-0.5009266
168	0xbdcb6ae5	-0.09932498
169	0xbdb0d61a	-0.08634587
170	0xbe539a84	-0.20664412
171	0x3e15409b	0.14575426
172	0xbda1f414	-0.07907882
173	0xbe7cb737	-0.24679266
174	0xbe8ef6f9	-0.279228
175	0x3e719c1a	0.23594704
176	0xbea55ad3	-0.32295856
177	0x3e199a5d	0.15000291
178	0xbee8d0ce	-0.45471805
179	0xbed47497	-0.414952
180	0xbd280acd	-0.041025925
181	0xbf0f6ffa	-0.5603024
182	0xbeb19e8e	-0.3469128
183	0xbe13bab5	-0.14426692
184	0x3e4aa589	0.19789709
185	0xbcbee4e6	-0.023302507
186	0xbef113bc	-0.4708537
187	0xbd220d03	-0.03956319
188	0xbe953b66	-0.2914688
189	0xbdd00ee9	-0.10159094
190	0xbebfcb51	-0.37459806
191	0xbec80b22	-0.39070994
192	0x3e7c22d6	0.24622664
193	0xbf0175d8	-0.5057044
194	0xbe200a6a	-0.15628973
195	0x3ea306d9	0.31841162
196	0xbeb954c3	-0.3619748
197	0x3dc37ec7	0.09545665
198	0xbcc72036	-0.024307352
199	0xbeb6f94e	-0.3573708
200	0xbd88830d	-0.06665621
201	0x3dd77962	0.10521199
202	0xbd6c3412	-0.057666846
203	0x3dc73dac	0.0972856
204	0x3c13c411	0.009018914
205	0x3ec5f2f9	0.38661936
206	0xbd9065ea	-0.070506886
207	0xbd2d4f78	-0.042312115
208	0xbf24b51b	-0.64338845
209	0xbeccbe9e	-0.3998918
210	0xbeb7d200	-0.35902405
211	0xbe9d0af7	-0.30672428
212	0x3e6ccc72	0.23124865
213	0xbf1cc5c0	-0.6123924
214	0x3e835874	0.25653422
215	0xbe394088	-0.18091023
216	0xbde7f174	-0.113253504
217	0xbf6169f2	-0.88052285
218	0xbe89dfe6	-0.26928633
219	0x3e225390	0.15852189
220	0xbeb32296	-0.34987324
221	0x3e567dc6	0.20946416
222	0x3e8c27b4	0.2737404
223	0xbd0f6c66	-0.035015486
224	0x3e5845da	0.21120396
225	0x3d9bda5c	0.07610008
226	0x3efece1d	0.49766627
227	0xbdcbc2b5	-0.09949247
228	0xbe763e23	-0.24047141
229	0x3d856141	0.0651269
230	0xbefeb512	-0.4974752
231	0xbf9a2fb5	-1.2045809
232	0xbebc3cb2	-0.36765057
233	0x3eb18be0	0.3467703
234	0x3eb1258d	0.3459896
235	0x3d8d744c	0.069069475
236	0xbec38ec6	-0.38194865
237	0xbea14833	-0.31500396
238	0x3ce382a3	0.027772253
239	0xb96b01e7	-0.00022412055
240	0x3dc526c7	0.09626537
241	0xbed50ec3	-0.41612825
242	0x3e566534	0.20937043
243	0x3e863250	0.2621026
244	0xbdd1cef3	-0.102445506
245	0xbf252480	-0.6450882
246	0x3cb09e28	0.02155979
247	0x3e56fe55	0.20995457
248	0x3e9b8e23	0.3038188
249	0xbddf5674	-0.109051615
250	0x3ea5a291	0.3235059
251	0xbe69a4c0	-0.22816753
252	0xbcdf76bd	-0.027278299
253	0xbe5eab4b	-0.2174503
254	0xbceb0b4a	-0.028691906
255	0xbeea608d	-0.45776787

network_body.observation_encoder.processors.0.normalizer.running_mean f4 [11]
0	0x3e8c532c	0.27407205
1	0x3efffe67	0.4999878
2	0xc054dd10	-3.3259926
3	0x3f7f8c9b	0.9982392
4	0xc03ffe80	-2.9999084
5	0xc01c60b3	-2.443402
6	0x4003b79d	2.0580819
7	0xbde9bde6	-0.114131734
8	0xbf969c17	-1.1766385
9	0xbb59dd21	-0.0033243375
10	0xbdba9194	-0.09109798
