Assets/weights/FindRoad3.onnx (onnx, 76935 bytes, 10 tensors)

62 f4 [11]
000000 ba 07 89 40 3c c8 4a 3a d4 77 7b 40 15 bc a5 40
       4.282193 0.0007735526 3.9291887 5.179209
000010 4c 63 0f 3b 48 50 9e 40 ff 7c 49 40 63 a0 7b 3c
       0.0021879254 4.9473 3.1482542 0.015358063
000020 b1 a8 3f 40 47 a9 da 3e 2f 2b db 3e
       2.994671 0.42707273 0.42806384

action_model._continuous_distribution.log_sigma f4 [1, 2]
000000 8e 45 b1 bf 61 aa ab bf
       -1.3849351 -1.341137

action_model._continuous_distribution.mu.bias f4 [2]
000000 f8 21 65 3d cf e3 15 bd
       0.0559406 -0.03659421

action_model._continuous_distribution.mu.weight f4 [2, 128]
000000 ff d5 50 3d 68 d8 c3 bd cb 22 00 3b 24 0e 52 be
       0.050985333 -0.095627606 0.0019551988 -0.20513207
000010 17 c1 49 3e 5f e5 47 ba 45 e0 00 3e 18 26 1a be
       0.19702564 -0.00076254265 0.12585552 -0.15053594
000020 e0 ed c9 3d 3c 11 af 3b 2f 49 54 bd 7c 7a de bb
       0.09859824 0.0053426307 -0.051827606 -0.0067895036
000030 40 0c 09 bc 75 55 8e 3d 78 e8 db bd 27 59 36 be
       -0.008364737 0.069498934 -0.10737699 -0.17807446
000040 7e fa 78 be d2 d0 72 3a 5f d4 ae 3c c6 9d 17 be
       -0.24314305 0.0009262684 0.0213415 -0.1480628
000050 06 14 ef 3d 87 2b 76 bd b2 2c cd 3d 2e 82 7a be
       0.11673741 -0.060100105 0.100182906 -0.24463722
000060 17 f9 40 bd f4 b0 3e be ce 88 f6 3a e2 65 34 bd
       -0.04711255 -0.1862219 0.0018809082 -0.044042476
000070 4e 5d b6 b9 78 70 25 be f2 a2 4c be b6 8b de bd
       -0.00034783263 -0.16156185 -0.19984034 -0.108664915
000080 df ad 02 3d 73 f4 cb 3a fd 9b bf bd 74 48 3c 3a
       0.031904098 0.0015560522 -0.09355924 0.0007182427
000090 fb 8a dc bc cb 14 38 3c 60 f2 eb bd cb 9f f0 3d
       -0.02692174 0.011235426 -0.11520839 0.11749228
0000a0 45 a9 51 3d 07 d4 05 3b 63 a2 af 3c 82 4f 64 be
       0.05118682 0.0020420568 0.021439737 -0.22295955
0000b0 17 94 3f 3b e8 86 e2 bd 87 1a 64 3d 9c 41 39 3e
       0.0029232556 -0.110608876 0.05568936 0.18091434
0000c0 04 9d 40 3d fb f5 04 3c fc 6c 08 3d ab 30 59 3e
       0.04702474 0.008115287 0.03330706 0.21209972
0000d0 7d bc 45 ba 7d ec 84 3d 34 41 70 bc 07 7d 23 be
       -0.00075430406 0.06490419 -0.014663983 -0.15965663
0000e0 9c 05 36 3d 62 79 a2 bb 45 78 c0 ba cc d0 3c 3b
       0.044438943 -0.0049583176 -0.0014684281 0.0028810976
0000f0 8e 37 15 be 86 3d 9a 3b cf 76 38 bc 9d 08 59 be
       -0.14571974 0.004707041 -0.011258795 -0.21194692
000100 ec 9d 61 3d 86 28 37 bd c7 96 7c bc 92 ff 4a bd
       0.055082247 -0.04471638 -0.0154168075 -0.049560137
000110 30 e5 ae bd 2b a8 5d be 38 9c 80 3b 72 34 01 bb
       -0.08539808 -0.21646182 0.0039248727 -0.0019715098
000120 8c 03 c8 ba 3e 69 26 bc 35 68 ca 3b 63 cb 94 b9
       -0.0015259846 -0.010156928 0.006176973 -0.00028380295
000130 93 48 02 bd d0 7d 5b ba 5f d7 2a 3b 39 e7 cb 3c
       -0.031807493 -0.00083729345 0.0026068313 0.024890529
000140 f0 4b 84 3b 86 05 00 3c c2 16 33 be 37 fb 34 3e
       0.004037373 0.007813817 -0.1748915 0.17673956
000150 dc 96 0a 3d c5 3a 65 3d c7 05 38 be 79 34 91 3d
       0.033835277 0.05596425 -0.17970954 0.070900865
000160 bc d8 4a 3e d1 99 a1 bb 4c ed 70 be ad 67 4c be
       0.1980924 -0.0049316664 -0.23528022 -0.19961424
000170 4d d9 a5 39 69 dc 92 3c 65 04 b9 bd 14 2b 49 3b
       0.00031633154 0.017927365 -0.09034041 0.0030695843
000180 d2 e5 10 be 3e 73 1e be 8b 6c cf 3d 58 be 93 bd
       -0.1415017 -0.15473649 0.10128125 -0.072140396
000190 8c 06 3e be a9 43 d1 bd 27 bb f8 ba 97 c6 2a 3c
       -0.18557185 -0.10217983 -0.0018976674 0.010423324
0001a0 2e f2 8c 3b 2f d0 2a b9 30 e2 e9 3c 33 dc 54 bc
       0.004301331 -0.00016290018 0.028550237 -0.012991953
0001b0 bd 64 0d bd 87 c8 00 be ba 45 87 bb fc 5c 2e bd
       -0.0345199 -0.12576495 -0.004128185 -0.042569146
0001c0 1b f4 c2 3d e6 3e 0b bc aa 29 3b ba 6d e9 1a 3d
       0.09519216 -0.008498883 -0.00071396923 0.03782027
0001d0 a9 ad f9 bd 08 de 6c 3d 5f a2 42 be 85 83 08 3a
       -0.12191326 0.057828933 -0.19007252 0.0005207586
0001e0 11 c8 ef bc 69 6d 5a be 50 df 24 3d 75 e9 26 be
       -0.029270204 -0.21330799 0.04025203 -0.16299994
0001f0 68 12 0a 3b 3b 0a 29 3d bc a6 40 bd a0 64 33 ba
       0.00210681 0.041269522 -0.04703401 -0.00068433024
000200 27 00 02 bd ce 34 06 3d 09 d0 be bc 15 d0 8c 3c
       -0.031738427 0.032765202 -0.023292558 0.017189065
000210 8d 68 8c 3c 0b 13 a2 3a 3b c7 fa bc 21 77 b4 bb
       0.017139697 0.0012365294 -0.030612579 -0.0055073653
000220 ef 0b 9e 3d 5b ce 19 3b 0b 10 34 3e 28 21 87 bc
       0.0771712 0.0023468945 0.17584245 -0.016495302
000230 4c 9d 4d bd e0 13 b7 bb 66 4f ff 3c 41 bd 75 bd
       -0.050198838 -0.005587086 0.03116579 -0.05999494
000240 63 db 80 bd 3d af e1 bd dd 61 2b 3d ac 3a 89 3b
       -0.06291845 -0.11019752 0.041841377 0.0041879024
000250 56 85 83 bb d1 7b c2 bd 90 59 10 3e 01 c6 cc 3d
       -0.0040136976 -0.09496272 0.14096665 0.09998704
000260 66 55 50 be b0 fd ba 3d 2d 26 35 bc 47 23 7f 3e
       -0.20345077 0.09130418 -0.011056465 0.24915801
000270 67 0b 55 ba 6f 92 11 be ff e2 59 3c 24 c6 3f be
       -0.0008127004 -0.14216016 0.013298749 -0.18727928
000280 0c de a2 3d 2c 50 fe 3a 3f 3c ae bc 51 15 c1 3d
       0.07952508 0.0019402555 -0.021268962 0.09427894
000290 27 44 5e 3e 74 db 4a 3b 97 51 29 3e 6c d5 71 be
       0.21705686 0.0030953558 0.1653503 -0.2361657
0002a0 fb f8 7d bd 31 19 6f 3c 94 69 d6 3d 7d 41 7e 3d
       -0.062005024 0.014593408 0.10469356 0.062074173
0002b0 c7 fc cd 3b f5 84 dc bd 17 54 1d be 74 cd d6 bc
       0.006286237 -0.10767547 -0.15364109 -0.026221015
0002c0 62 a1 89 bd a2 65 35 bc 2e 85 60 3c a3 28 a1 3d
       -0.067202345 -0.011071594 0.0137036275 0.07869079
0002d0 a1 86 bb 3a 31 e0 d3 3d c3 b0 a1 bd 78 03 a3 3d
       0.001430709 0.103454955 -0.07895043 0.07959646
0002e0 36 b6 f8 bd f9 bc 17 be 26 d0 a7 39 3c 2c ba bc
       -0.12144129 -0.14818181 0.00032007805 -0.02272617
0002f0 0c e9 2c bd 27 8f 89 bd b9 fe 4e 3d 10 b9 94 3d
       -0.04221444 -0.06716757 0.05053589 0.0726186
000300 f1 8c 4e be 00 78 03 3e eb 2e 06 3e ef 9a 45 be
       -0.20170952 0.12838745 0.13103835 -0.19297384
000310 49 49 1d be 2f 12 ac 3d a6 95 1a 3c 78 9f 88 3b
       -0.15359987 0.08401906 0.009435093 0.004169401
000320 cd 77 9a ba df af 94 bb 60 ad d6 bd 95 6e 00 3b
       -0.0011784971 -0.004537567 -0.104822874 0.0019597162
000330 cd 30 1d be 3e 51 fe ba 30 62 59 bd 0f 3e 10 be
       -0.15350647 -0.0019402874 -0.053072155 -0.14086173
000340 44 97 03 3a a4 0a 1c bc c9 8f 44 3c 39 eb 88 bd
       0.0005019794 -0.009524021 0.011997172 -0.0668549
000350 32 e4 1d bc d1 24 60 3d 66 81 08 3e 61 52 bb 3b
       -0.0096369255 0.05472261 0.13330612 0.0057166074
000360 86 64 2e 3d ec 48 07 bb 56 15 bb 3d ff 42 bb 3d
       0.042576335 -0.002064283 0.09134929 0.09143638
000370 d1 44 7e 3a 53 ba ec 3d fe 84 1d 3d 10 48 18 3b
       0.00096995855 0.11558976 0.03845691 0.0023236312
000380 94 25 52 bb 9d 25 69 3b a0 ac 9e 3c a5 8c 13 be
       -0.0032065855 0.0035575398 0.019369423 -0.1440912
000390 86 17 fb 3d b9 0d 37 3c 3e b4 97 3a 15 d4 64 bb
       0.12260346 0.011172705 0.0011574102 -0.003491645
0003a0 cc 27 41 3e fe 2e 0e bb 6b 4b ea bd 36 78 6b be
       0.18862838 -0.002169549 -0.11440166 -0.22995076
0003b0 24 34 40 be 5b f8 17 bd 89 3f b1 bb c3 c3 3b be
       -0.1876989 -0.037102085 -0.0054091853 -0.18336396
0003c0 87 26 29 3d b0 e4 d6 bd da 61 46 ba 30 c0 82 3d
       0.04129651 -0.104928374 -0.00075676816 0.06384313
0003d0 76 9d 2a 3d 27 68 0b be 11 59 99 3d 1f 00 c2 3b
       0.041654073 -0.1361395 0.07487691 0.0059204246
0003e0 8c 22 ae bd b0 0f 83 bd 90 02 23 be 8d 32 1e bc
       -0.08502683 -0.063994765 -0.15918946 -0.009655607
0003f0 16 61 20 3c 68 46 50 3e 93 50 98 bd 28 ae 50 3d
       0.009788772 0.20339358 -0.07437243 0.05094734

action_model._discrete_distribution.branches.0.weight f4 [1, 128]
000000 e7 f0 77 bb 13 37 bd 37 30 2f 58 3c 67 2b 74 3c
       -0.0037832798 2.2556202e-05 0.013194844 0.014902926
000010 e1 8a ad 3c 9e 4f 8e 3c 17 3c 86 3b d5 11 83 bb
       0.021184387 0.017371949 0.0040965187 -0.0039999285
000020 0d 29 5c 3b 4a 59 2c 3b f7 b9 34 3b 4d 1e 7c 3c
       0.0033593804 0.0026298338 0.0027576664 0.015388084
000030 c7 28 86 3c 0f ba 6d 38 bf 18 e9 3b 84 10 9f 3c
       0.016376866 5.6678484e-05 0.0071135457 0.019417055
000040 25 fc 38 bb fc 50 0d 3c 59 27 af 3c 4a f4 71 3b
       -0.0028226462 0.008625265 0.021381067 0.003691929
000050 be ab 32 bc cf 9f ab 3b 28 c2 60 3b cb 7a 91 bb
       -0.010905204 0.0052375565 0.0034295414 -0.004439687
000060 d6 68 bf 3b 7b 30 86 bb 5d b7 57 bc c9 ca bb 3b
       0.005841355 -0.004095135 -0.013166276 0.005730961
000070 2a e4 b1 bb 2a 47 42 bc 4c b3 82 3a 17 68 2f bb
       -0.0054288106 -0.011857787 0.0009971648 -0.0026764923
000080 a7 2f 90 3b 50 f0 e8 b9 d2 ef 71 ba 6d 66 10 bb
       0.004400212 -0.00044429535 -0.00092291564 -0.0022033707
000090 b3 cb 9c 3c f6 54 08 bc 1a 12 22 bc f2 83 17 bc
       0.0191401 -0.0083210375 -0.009892011 -0.009247767
0000a0 77 69 9f bc f0 1a 28 3c d6 af 16 3c 52 f4 b8 3b
       -0.01945947 0.010260329 0.009197196 0.0056443596
0000b0 fa 08 39 3c 50 08 d3 3b 5d d7 6e 3c d8 23 ef 3b
       0.011293644 0.0064402 0.014577714 0.007297974
0000c0 b2 25 f0 b9 0f 1d 10 bc 72 b3 9b 3b 4b 95 64 3b
       -0.00045804452 -0.008795991 0.004751616 0.0034879025
0000d0 28 19 75 3c ab ba 60 3c c5 d3 67 3c 07 a3 d0 3b
       0.014959611 0.01371638 0.014149611 0.0063670906
0000e0 1f 8f 95 3c af 10 78 bb bb e6 06 bc 3a 8e 39 bb
       0.018256722 -0.003785174 -0.008233721 -0.0028313533
0000f0 77 f1 0d bc 15 b1 c6 bb f0 98 da 3b e3 f2 99 3b
       -0.008663527 -0.0060635903 0.0066710636 0.004698144
000100 bf 4a 82 bb 77 19 0f bc 27 44 de ba db 61 d0 bb
       -0.0039761956 -0.008734099 -0.0016957567 -0.0063593215
000110 c8 b5 f6 bb 29 12 33 bb d8 7a a2 bc d3 6e 34 bc
       -0.007528994 -0.0027324057 -0.019833967 -0.011012751
000120 39 e5 b3 bc ad f2 67 bb d1 31 82 bc b0 1d 93 bb
       -0.021959888 -0.0035392449 -0.015892895 -0.004489623
000130 f5 84 d9 3b f8 dd 85 3b 48 9b e6 3b 1a 43 40 3c
       0.006638164 0.0040852986 0.007037554 0.011734748
000140 b2 81 c1 3b 3d 67 c4 b9 94 fa 39 bc dd f1 f0 ba
       0.0059053535 -0.00037460952 -0.011351246 -0.0018382628
000150 53 60 ee bb 57 90 03 bb 03 35 09 bc 97 c6 0d bc
       -0.0072746663 -0.0020075047 -0.008374455 -0.008653305
000160 da 0e f1 bb cf 0b e6 b9 ae 7d 35 bc 87 0f 2f 3a
       -0.007356507 -0.00043877817 -0.011077328 0.0006678034
000170 86 0b 2a bc 17 7c e6 3a ab 2a 1f bb c2 50 16 bc
       -0.010378724 0.0017584589 -0.0024286907 -0.009174528
000180 0a 7d b1 3b 24 1b c8 bb cf 8b ee bb c8 a5 fb 3a
       0.005416517 -0.006106751 -0.00727985 0.0019199187
000190 87 22 24 bb 03 bc 38 bc 6b c7 c1 ba ae 79 a2 bb
       -0.0025044994 -0.011275294 -0.0014784163 -0.004958353
0001a0 98 6e 90 bc 24 ab 95 3b 43 fe 13 3c 57 cd ce 3b
       -0.01763086 0.0045675207 0.009032789 0.0063110995
0001b0 a8 1d 58 3a 53 96 05 bc 78 07 67 3b 9a b8 7a 3c
       0.0008244165 -0.008153516 0.0035252254 0.0153028015
0001c0 65 d6 cb 3b 75 13 60 bc 78 4d 60 3c 9d 99 45 3b
       0.006220626 -0.013676514 0.013690345 0.0030151375
0001d0 92 b8 84 bb df 21 4a bb 6b 24 21 bc ea df 58 bb
       -0.004050323 -0.0030842943 -0.009835343 -0.0033092448
0001e0 95 d2 38 3c c6 0b b5 3b 3f eb 12 3c ba 35 4f bb
       0.011280675 0.005525085 0.00896722 -0.0031617717
0001f0 4b fa c8 3a ba 36 f8 39 2b f0 be 3b 6b 49 2b bc
       0.0015333382 0.0004734302 0.00582697 -0.010454516

network_body._body_endoder.seq_layers.0.bias f4 [128]
000000 31 60 2d be 65 2e 25 be 82 e4 c3 3c 60 f9 b1 bd
       -0.16931225 -0.1613098 0.023912672 -0.08690143
000010 69 a2 c8 bd ec 72 4f bc a1 fd 35 bc 0e f1 1a bd
       -0.09796602 -0.012661677 -0.011107833 -0.037827544
000020 d0 07 9e bd fa a4 55 3d 3e d5 0d bd 45 ee e1 bb
       -0.07716334 0.052159287 -0.03462719 -0.006894859
000030 c0 b0 03 3d 94 c1 21 be 1d 6e 68 be b6 2a 03 be
       0.032150984 -0.157965 -0.22698255 -0.12809262
000040 8f 5a 04 be e5 dd 68 bd 61 c5 ef bd 0a 0f e6 bd
       -0.1292517 -0.05685224 -0.11707569 -0.11233337
000050 9b ec 85 bd 90 96 3e 3b 4e 8a 27 be fb 14 f1 bd
       -0.065392695 0.0029081441 -0.16361353 -0.1177158
000060 cd 66 b0 bd 2f a3 5b 3c 0e 8d 1d be 08 a4 03 be
       -0.08613358 0.013405605 -0.1538584 -0.12855542
000070 30 12 cd bd f7 bc 48 be 7c d8 dd bd a9 cb d3 bd
       -0.100132346 -0.19603334 -0.10832307 -0.103415795
000080 ce 14 59 be 22 6b 03 bd 5e 41 2e be 21 f4 06 bd
       -0.21199343 -0.03208459 -0.17017123 -0.032947663
000090 b5 ef a9 be ed a9 88 be 93 a4 1c be ba 57 ca be
       -0.33190694 -0.26692143 -0.15297155 -0.39520055
0000a0 2e 97 6d 3d 7d a2 db bd 58 9a 36 3e 0b 92 a2 3c
       0.058005504 -0.107243516 0.17832315 0.01984503
0000b0 20 86 5c bc da 60 87 be 36 b4 db bd 43 60 d2 bd
       -0.013459712 -0.2644108 -0.10727732 -0.10272267
0000c0 4f 3d b3 3d 6e fe ab bc eb 44 bd bd 3b b1 4e be
       0.08751928 -0.020995345 -0.09241661 -0.20184796
0000d0 3b 41 38 be 5a b9 94 3d ff b4 ea bd 1c a5 1f be
       -0.17993633 0.072619155 -0.114603035 -0.15590328
0000e0 e4 d3 75 bd 75 e8 3e 3c f4 a6 38 be 2b ba 94 bd
       -0.060016528 0.011652102 -0.18032438 -0.07262071
0000f0 22 00 87 3e a5 6b 24 be fa e9 90 3d 9c 08 a9 bd
       0.2636729 -0.16056688 0.070758775 -0.08253595
000100 33 e1 0b bd 4b 5e 83 3c 78 54 43 bc 7c 4f d8 3c
       -0.034150314 0.016036173 -0.011921994 0.026405089
000110 bf f0 18 be 2f 8d f4 bd 20 a4 e2 bd 87 95 90 3d
       -0.14935587 -0.11940991 -0.110664606 0.0705977
000120 7e 20 a4 bd e3 8a 1b be e6 22 77 3d 51 32 bd be
       -0.0801401 -0.151897 0.060336016 -0.3695245
000130 bf 58 02 bc 0f 9a d7 bd 95 5b 0e be ce 54 98 3b
       -0.007955729 -0.10527431 -0.13902123 0.0046487814
000140 f1 d1 96 be 5b 47 09 be 82 51 bc 3b 37 1e 5f be
       -0.29457048 -0.13406126 0.005747021 -0.2178887
000150 25 70 5c be 98 e8 63 bd ec 00 38 be 2d d5 3f 3d
       -0.21527155 -0.05564174 -0.17969102 0.04683416
000160 6d d1 1f be 2b 1e c9 3d c6 1c 6c be 49 50 89 be
       -0.15607233 0.09820207 -0.23057851 -0.26819065
000170 5c 6a a7 be ff 59 be bd 62 1b 11 bd f1 f4 39 3e
       -0.32698333 -0.09294509 -0.035426505 0.18159844
000180 4b ba 4d 3e 98 ef 00 be 93 5d ea bd 07 71 56 be
       0.20090596 -0.12591398 -0.11443629 -0.20941554
000190 82 d6 2a be bb 3b b6 bd c1 c2 11 be 57 40 9c bd
       -0.1668339 -0.088981114 -0.14234449 -0.07629459
0001a0 99 81 c6 bd f5 29 8b 3d 5f 2d a3 be f2 f5 bc 3d
       -0.096926875 0.06795112 -0.31870553 0.09226598
0001b0 94 98 bc 3c 21 0b 16 3d 2f 2f 0c bd ff f3 2d be
       0.023021974 0.036631707 -0.034224685 -0.16987608
0001c0 c5 a7 80 be 84 80 9d 3d df 1e fb bd 3a fe e3 bd
       -0.25127998 0.07690528 -0.122617476 -0.11132474
0001d0 a6 9e 9e 3d e8 4e 7e be 9d 26 67 be 8a f6 2e be
       0.077451035 -0.24834788 -0.22573324 -0.17086235
0001e0 97 cc d2 bb 73 7b f7 bd 6d d0 e8 bd 18 71 23 3d
       -0.0064330804 -0.12084093 -0.11367879 0.039902776
0001f0 62 e2 86 bc 67 60 b1 3d b5 95 57 bd 35 23 0d bd
       -0.01646537 0.086609654 -0.052633006 -0.034457404

network_body._body_endoder.seq_layers.0.weight f4 [128, 11]
000000 1f df 98 be 7a 2b c5 be 94 9b 31 3f 28 9f 60 3d
       -0.29857728 -0.38509732 0.6937802 0.054839283
000010 98 1b 02 3e 29 94 93 3d a7 62 3b 3e 3e 54 fb 3e
       0.12705839 0.07205994 0.18299352 0.4908771
000020 32 dc 0e bf 35 2a 8a 3d 66 35 12 3e 45 cb b0 3e
       -0.5580474 0.067463316 0.14278182 0.34530082
000030 2d 2e ab be c8 09 95 be 22 39 fd bd 23 a1 cb be
       -0.33433667 -0.29109025 -0.12364413 -0.39771375
000040 5a f7 17 3e 8b 30 49 bc c4 4e 02 3e 27 46 04 3e
       0.14840451 -0.01227964 0.12725359 0.12917386
000050 61 de 2e 3e 7f c8 a9 bd 14 18 29 bf 79 9c fb bd
       0.17077018 -0.08290195 -0.66052365 -0.12285704
000060 c0 5c 72 be c5 91 91 3e ec b6 ed 3d 13 de 52 3e
       -0.23668194 0.28431526 0.11607155 0.20592527
000070 78 83 28 bf 7b 33 12 be a6 80 ab 3e ec 84 f0 3e
       -0.65825605 -0.1427745 0.33496588 0.4697641
000080 52 75 05 3e a8 4b c8 3e d2 63 ad be b1 d4 38 bf
       0.13033035 0.3912022 -0.3386522 -0.7219954
000090 03 b3 6d 3e f1 1f 3f 3f 29 ab 7b be c6 2f 94 be
       0.23212819 0.74658114 -0.24577011 -0.28942698
0000a0 f7 05 0d 3f ff 61 42 be f7 cf 5e 3e 61 e7 ce be
       0.55087227 -0.18982695 0.2175902 -0.40410903
0000b0 ec c4 77 be c4 c0 3c 3e 45 79 a7 bd 0d 5e 8c be
       -0.24196213 0.18432909 -0.08177427 -0.27415505
0000c0 a8 9e de be 54 dc 8d 3c cb 18 83 be c3 fd cd be
       -0.4348042 0.017316975 -0.25604853 -0.40232667
0000d0 9c c4 ff bc 62 6e 02 3c 32 5d b3 be 53 c0 41 3f
       -0.03122168 0.007960888 -0.3503204 0.7568409
0000e0 9a fb 79 bd 68 db 60 bf 1b 7e 2d 3e 4b 7b 62 3e
       -0.06103096 -0.8783479 0.16942637 0.22117345
0000f0 4a 53 1e be 8c 2f 30 bf 33 d7 47 3e c7 ce 50 3f
       -0.1546146 -0.6882255 0.19515686 0.8156552
000100 7d 3e ba be 39 90 f4 3d 6b d3 3c 3e a0 d8 2d be
       -0.363758 0.11941571 0.18440025 -0.16977167
000110 5e 8d c0 3e 19 7a 1c 3d 09 39 a0 3e 1e b0 ca 3d
       0.37607855 0.03820238 0.31293514 0.09896873
000120 17 4f db 3d 8c a5 e3 3c 1e 56 9f be 40 f8 5c 3e
       0.107084446 0.0277889 -0.3112039 0.21579075
000130 e1 ce 2f bf e8 11 f9 3d b2 11 01 3e 7c f1 d2 3d
       -0.6867505 0.121616185 0.12604406 0.10299966
000140 45 72 2e bf 58 41 e9 3d 3f 0d a7 3d 42 75 30 be
       -0.6814311 0.113894165 0.08156823 -0.1723223
000150 8c c3 31 bf 5f 35 f2 bd 2f 85 fc bd f3 a4 09 3d
       -0.69439006 -0.11826586 -0.1233009 0.033604573
000160 66 5a 91 3d ea b9 aa be 29 82 98 3d 97 c0 55 3d
       0.0709732 -0.33344966 0.07446701 0.05218562
000170 da f1 3b 3c b1 27 ae bb 14 51 79 be c0 10 11 bf
       0.011471236 -0.00531479 -0.24347335 -0.56666183
000180 cc 9c 0b be 0b 24 bc 3e 35 05 0f be 2f ad e6 bd
       -0.13634032 0.3674625 -0.1396683 -0.11263501
000190 2d 1c 0b 3e 63 7d 20 bf e7 d0 e6 be 90 99 1d be
       0.13584967 -0.62691325 -0.45081255 -0.1539061
0001a0 42 14 99 be 87 58 3e 3e 41 99 9c 3b d3 fe 22 bf
       -0.29898268 0.18588458 0.0047790115 -0.6367008
0001b0 1a 76 28 be 50 ab c5 be 3b 00 ce bc 22 cc 99 3e
       -0.16451302 -0.38607264 -0.025146594 0.30038553
0001c0 0f 72 9b 3c 9c cb 8a be e3 61 51 be de 48 b4 3d
       0.018975286 -0.27108467 -0.20447497 0.08802961
0001d0 3d bb 9d be 1e 8c 17 3f d3 0f 0f be b7 ae 24 3e
       -0.30806914 0.59198177 -0.1397088 0.16082273
0001e0 fe 4c 82 3e eb 03 54 3e ba 21 bf 3e 42 51 02 3f
       0.25449365 0.2070462 0.3733042 0.5090524
0001f0 f1 09 2d bd 00 d8 71 be b2 50 15 3e 80 aa d1 be
       -0.04224581 -0.23617554 0.14581564 -0.40950394
000200 ad d2 3b 3e 10 55 02 3d 03 e6 8a 3e 2b 84 e9 3c
       0.18342085 0.031819403 0.2712861 0.028505405
000210 01 73 75 3e 96 6e 72 3e 5c f7 10 3e e1 57 25 3e
       0.23969652 0.23674998 0.1415686 0.16146804
000220 e3 ed e7 be d1 c6 e0 be c4 0b 58 be 39 24 d5 3e
       -0.4529868 -0.43901685 -0.21098238 0.41629198
000230 f2 ea 15 be cc 02 21 bd c9 75 0c 3e 18 a7 e9 be
       -0.14640406 -0.039309308 0.13716806 -0.45635295
000240 11 00 ca 3e 5b c2 d8 be 5e c7 8b 3e 87 ca 49 3d
       0.39453176 -0.4233578 0.27300543 0.04926541
000250 eb b2 7a be 4d ed 24 3f 52 75 89 3c 7d fc c6 3e
       -0.24482314 0.6442459 0.016779575 0.38864508
000260 72 b9 54 3d 43 6c ce 3c 91 c6 fc be c8 7c 7e be
       0.051934667 0.025198108 -0.49370244 -0.24852288
000270 1f b8 3e bd c2 19 2f be e5 f7 b7 3e b1 56 f3 3e
       -0.04656231 -0.1709967 0.35931316 0.47527078
000280 9e 36 1b 3e e6 d8 e0 bc 0d 5c be bc 26 38 18 3e
       0.15157554 -0.027447175 -0.023237253 0.14865169
000290 6d 82 04 3b 9b cf c8 3d 84 46 4a be 3f 7d 92 be
       0.0020219341 0.098052226 -0.19753462 -0.2861118
0002a0 bc 40 4e be 2c fa 23 be 5c 52 72 be f8 ac 2d bc
       -0.20141882 -0.16013402 -0.2366423 -0.010600321
0002b0 cc 46 3e 3e d3 e4 9f 3d 1d 2e a3 3e 44 f1 c5 3d
       0.18581694 0.07807317 0.3187112 0.096651584
0002c0 8b 75 18 3e 98 44 94 bd 70 2c ed bd 44 44 b9 be
       0.14888589 -0.07239646 -0.115807414 -0.36184895
0002d0 aa 8c 25 be 94 8f 0f be 9f 10 a1 3d 72 28 a2 3e
       -0.1616694 -0.14019614 0.07864498 0.31671482
0002e0 1f 7a 8b 3d 28 57 42 3c b2 5f a5 be 30 3d 15 3f
       0.06810402 0.0118616 -0.32299572 0.5829649
0002f0 17 96 36 3d 40 10 5d 3d 9c 99 2c 3e 79 a3 21 be
       0.04457673 0.053970575 0.16855472 -0.15785016
000300 27 5d a9 be 80 b9 25 bf c3 a7 14 3f 75 55 58 be
       -0.33078882 -0.64736176 0.58068484 -0.2112635
000310 72 b3 8f 3c 82 18 b4 3d ec 53 a8 be 79 10 7b 3e
       0.01754162 0.08793737 -0.32876527 0.24518003
000320 e5 63 f7 be 5f bf 09 bd dc db 08 3f e2 eb 18 be
       -0.483184 -0.03362977 0.5346048 -0.14933732
000330 d5 58 bb 3e 36 21 d7 3e 0b e1 04 3f ed 7c 54 3d
       0.3659121 0.42017525 0.5190589 0.05187695
000340 ce c0 21 3e be 69 e4 be 12 dd ed bd 7d 44 dc bc
       0.15796205 -0.44611925 -0.116144314 -0.026888127
000350 97 0f e8 be be 18 9c 3e cf 3d 82 be 3e 24 93 3e
       -0.45324394 0.30487627 -0.2543778 0.28738588
000360 ac 96 ce 3b 22 b6 e3 3d 8c 21 4d 3d 71 94 b7 be
       0.0063045826 0.111187235 0.05008082 -0.3585544
000370 5c 1a 40 bf 06 45 41 be 51 64 9b bd e5 80 4f bd
       -0.7504022 -0.18873987 -0.07587493 -0.050660033
000380 56 12 1b 3d 79 54 8f bc 13 02 29 3f ce c9 10 3d
       0.037859283 -0.017496334 0.6601879 0.035348706
000390 12 ef 31 3e e9 0e ee bd af 04 b9 be 36 fe 56 3f
       0.17376354 -0.11623938 -0.36136386 0.83981645
0003a0 26 50 bb 3d 16 b2 f1 3e 90 b1 e7 bd c7 e2 d1 bd
       0.091461465 0.4720618 -0.11313164 -0.102483325
0003b0 03 06 09 bf fe d6 74 bd fd 25 db 3e 94 4e a1 be
       -0.535248 -0.059775345 0.4280242 -0.31505263
0003c0 5f 00 af bd c9 0a 25 be 47 34 9a 3f 09 4c ae 3c
       -0.08544993 -0.16117395 1.2047204 0.02127649
0003d0 24 ad ec be 62 f2 52 bd cf d8 ef 3e 15 2c 7a 3d
       -0.46225846 -0.051500686 0.468451 0.061077196
0003e0 72 ff 8a bf 3b 85 90 3e 7d 63 05 3f bc 37 9f 3e
       -1.0859206 0.28226647 0.5210493 0.3109721
0003f0 a6 c9 20 bf 58 cf 32 3e 4c 99 06 3c d8 be 7c be
       -0.6280769 0.17461908 0.00821526 -0.24682176

network_body._body_endoder.seq_layers.2.bias f4 [128]
000000 a4 a5 04 3e 8c 0f f1 bd cb 8c 96 bd fd f2 3d 3d
       0.12953812 -0.117705435 -0.07351073 0.04637431
000010 ea a4 6a 3e bf 4d ac 3c 59 2b 3d 3e 10 1c 07 bc
       0.22914472 0.021033166 0.18473567 -0.008246437
000020 13 24 11 3e 68 ed ce bd 75 6c d7 3d b9 23 73 3d
       0.14173917 -0.101038754 0.105187334 0.05936024
000030 11 d6 b4 bb 56 ce 4f 3c 7f f9 8b 3d 26 18 13 3d
       -0.0055186828 0.012683472 0.06834697 0.0359117
000040 43 18 a3 3e be f5 a7 bc 89 13 9c bc cb 6f f7 3d
       0.31854448 -0.020502921 -0.019052284 0.1208187
000050 33 41 8b 3c b0 61 ad 3d 35 a3 47 3e 8e 7a e9 3d
       0.016998863 0.08465898 0.19495852 0.114003286
000060 71 9e 61 3e c5 3b f5 3c 1a 20 96 bd 55 7f 8b 3e
       0.22033097 0.029935727 -0.07330342 0.27245584
000070 92 3e 0f bc 7e eb 11 3e a6 bf e5 3d 11 3e e2 3d
       -0.008742945 0.1424999 0.11218195 0.110469945
000080 6b 39 4f bd ef 4b 06 3d a7 ca 40 bc 82 62 09 3d
       -0.050591867 0.03278726 -0.011767066 0.03354121
000090 9e d2 6c 3e 36 1a d1 3c 29 7e c8 3d f9 5f 4a 3e
       0.23127219 0.025525194 0.09789688 0.19763173
0000a0 75 63 d1 3d 40 ef 08 3d d2 d1 2e 3b 77 a5 91 3d
       0.10224048 0.03343129 0.0026675356 0.07111638
0000b0 1b 66 aa bd 8c a5 e6 3d b6 5b 3a 3e 04 bb 91 3e
       -0.08320256 0.11262044 0.18199047 0.28462994
0000c0 be bf 6e 3d 39 1e 1f bd 36 b3 de 3c 43 80 7e 3e
       0.05828833 -0.038847182 0.027185064 0.24853615
0000d0 fc 62 90 bc d5 9a 3e 3d 0c 2c 0a 3d 27 9f e7 3c
       -0.017625324 0.046534378 0.033733413 0.028274132
0000e0 ae db 75 3d cf c9 4e 3e c9 0c 2b bc 6a b2 ab bd
       0.060023956 0.20194171 -0.01044006 -0.08383639
0000f0 46 b9 2f 3c ba a9 83 3d 15 25 31 bd 36 6e d9 3d
       0.010725325 0.06428857 -0.043248255 0.10616724
000100 75 9f 18 3e 19 1c db 3c a8 b3 9c 3d 06 82 39 3e
       0.14904578 0.026746796 0.07651454 0.18116006
000110 cc cf 09 3e dc 10 8c 3e 7a 70 bf bd 6b 0c 6c bc
       0.13458174 0.27356613 -0.09347625 -0.014407258
000120 c2 e8 78 bc 90 74 e3 bd dc e4 55 3b 1a be f1 3c
       -0.015192213 -0.11106217 0.0032637632 0.029509593
000130 d0 83 03 3e fe e1 41 3d 52 f1 90 3c ba 95 02 3e
       0.12843251 0.047334664 0.017693195 0.12752429
000140 72 15 21 bd cf 20 43 bb 09 c2 a6 3d ef 5d 98 3e
       -0.039327092 -0.0029774194 0.08142478 0.29759166
000150 3f d0 3b bd 15 85 83 3d 7c b7 48 3e 0d ed d8 3d
       -0.045852896 0.06421868 0.19601244 0.10592089
000160 4f 0c 06 3e f0 2c 35 3d 58 15 51 3c 4f 14 af 3d
       0.13090633 0.04423231 0.012761436 0.085487954
000170 03 29 35 bd 30 60 8b 3b 09 c9 95 bd 7e 79 bc 3c
       -0.044228565 0.00425341 -0.07313735 0.02300715
000180 25 96 77 3d 30 ee 34 3b 11 02 86 3d 67 b1 b7 3d
       0.060445923 0.002760779 0.06543363 0.08969384
000190 9a bb 67 3d 8f 8d 95 bc 1a 95 9f bc cc 15 78 bd
       0.056575395 -0.018255977 -0.019480277 -0.060567662
0001a0 ce cc 39 3e 65 48 7f bc f4 1c 5d 3d aa f1 88 3e
       0.18144533 -0.015581225 0.05398269 0.26746875
0001b0 d6 78 59 3e 63 5a 07 3e bf 79 08 bd a7 84 ba 3d
       0.21237502 0.13218074 -0.03331923 0.09107333
0001c0 fe 95 4f 3e 3a 92 c2 3c 8e 03 f3 3c c1 02 8a 3c
       0.20272061 0.023751367 0.029664781 0.016847016
0001d0 4b 97 01 3d 0e a7 d5 3d 71 72 c8 bc e7 9c 58 bd
       0.031638425 0.10432254 -0.024468632 -0.05288401
0001e0 44 2f c3 3b c4 f8 d3 bc b6 96 51 3e fe 3e a8 bb
       0.0059565622 -0.025875457 0.20467648 -0.0051344624
0001f0 a6 44 05 bd d9 9e 14 3e 23 65 68 3d ba 31 0f 3d
       -0.03253617 0.1451372 0.056737076 0.034959532

network_body._body_endoder.seq_layers.2.weight f4 [128, 128]
000000 56 0c 74 be 24 ad 6d bd 5a 82 24 3e 8e 9a 99 bd
       -0.23832831 -0.058026448 0.1606535 -0.07500182
000010 ef 93 e4 3d 68 5d e4 bd 7c 7f b9 bc ff 3f 9a bd
       0.111610286 -0.11150628 -0.022643797 -0.075317375
000020 0a f6 ab 3d 88 0c 02 be e9 bb 0f 3d 5a 00 b1 bd
       0.083965376 -0.12700093 0.035091314 -0.08642645
000030 d1 50 b4 bd d2 3b 0d be c0 56 ad bd e2 4e e8 bc
       -0.08804477 -0.13792351 -0.08463812 -0.028357927
000040 28 53 a0 3d 94 57 ea 3d ad 0b a7 3d a4 20 80 be
       0.07828361 0.114424855 0.08156524 -0.25024903
000050 28 cf 8f be 7e f4 30 3d d8 5c c3 bd a1 bd 2b bd
       -0.28087735 0.043201916 -0.09539193 -0.04192889
000060 99 03 12 be 2e 4e 2c 3e 40 cd eb 3c 66 bb 1d be
       -0.14259185 0.16826698 0.028784394 -0.15403518
000070 04 a5 84 bd ef 93 53 bd 38 de 27 bd 6a 50 b9 bd
       -0.06476787 -0.051654752 -0.04098341 -0.09048541
000080 60 5f c3 bc 27 3c c4 bd ac 5a dd 3d d7 97 6d bd
       -0.02384919 -0.09581786 0.1080831 -0.058006134
000090 b8 e2 bf 3d 4c 39 ad be d2 c1 07 be b1 15 bb bb
       0.09369415 -0.33832777 -0.1325753 -0.005709373
0000a0 56 84 49 bd 74 cd ed 3d 78 5f e3 bc cb 25 d1 bd
       -0.04919847 0.11611453 -0.027755484 -0.102122866
0000b0 b4 d8 94 bd 09 be 27 3d 19 fb 67 3c 98 61 c3 3d
       -0.07267895 0.040952716 0.014158987 0.09540099
0000c0 a5 1a 8a 3d 9a 9c b8 bd 63 bf 9b be 67 02 49 3d
       0.06743363 -0.090142444 -0.30419454 0.049074557
0000d0 38 35 17 be 92 ff 55 3e f7 f8 ad 3d c6 b2 9f 3d
       -0.14766395 0.20898274 0.08494752 0.0779777
0000e0 b3 61 d9 bd 97 17 0b 3c 52 2c 80 be 5d 61 97 be
       -0.10614338 0.008489511 -0.25033814 -0.2956647
0000f0 b4 44 05 3d f9 e2 67 bd d3 25 d3 3d 71 09 8c be
       0.032536224 -0.056612942 0.10309949 -0.27350953
000100 b2 51 2a be e9 14 37 bc 31 17 43 3d d0 67 9b bc
       -0.16632727 -0.011174419 0.04762954 -0.0189704
000110 0a ec b9 bd 87 5d 9c bd d2 a3 04 3e a2 17 9e bd
       -0.09078224 -0.076350264 0.12953117 -0.07719351
000120 c9 6c c7 3d ac 47 cc bd cb c1 3c 3e 72 6c 03 be
       0.09737546 -0.09974608 0.18433301 -0.12834337
000130 5f 4a fd bd da 43 22 3d c8 6e 2c 3d 1d a1 79 3d
       -0.12367701 0.03961549 0.042097837 0.060944665
000140 05 94 09 be f6 e9 5b be 05 e1 dd bd 49 da cd bd
       -0.13435371 -0.21475968 -0.10833935 -0.100514
000150 40 29 47 be dd 4a a6 3d 3f 39 ea bd 5a f8 17 3e
       -0.1944933 0.08119748 -0.114367 0.14840832
000160 8a f7 06 3e b5 a5 86 3e 0f 14 8b 3d 16 59 56 bd
       0.13180366 0.262983 0.06790935 -0.052331053
000170 ab 53 a0 be 37 3c 19 bd 02 7c 6c 3d 5c f3 3d 3d
       -0.31313834 -0.03741094 0.05773545 0.046374664
000180 47 af 45 3e 79 af c6 bd 08 df 8d 3e f9 33 25 be
       0.19305144 -0.097014375 0.27709222 -0.16133107
000190 d1 e5 a4 3c f9 62 6d 3d b4 1b 81 bc 38 78 75 bd
       0.020129116 0.057955716 -0.01576028 -0.059929103
0001a0 f2 a8 b5 3c 31 67 82 bd 73 ae 95 3c cc 7f ba bd
       0.022175286 -0.063673384 0.01827166 -0.091064066
0001b0 7b 1a e0 bd 62 4f b8 3d 97 e5 ba be cc 97 51 3d
       -0.10942551 0.08999516 -0.36503288 0.051170155
0001c0 bf cc 5d 3d e9 d3 0b 3e 34 af e9 bc 4d e1 4a 3d
       0.05415034 0.13655056 -0.028525926 0.04953127
0001d0 8f a2 18 3e 8c 58 09 bd fa 1b 10 be 00 13 e3 3d
       0.14905761 -0.03353171 -0.14073172 0.11087608
0001e0 4e 85 f3 3c 7c 45 f9 3d 89 90 40 3e 44 8a a1 bc
       0.02972665 0.12171456 0.18805136 -0.01971925
0001f0 29 2b 83 3d 26 cb 2b be 35 ac ac bd 4b ea 98 be
       0.064047165 -0.16776714 -0.084312834 -0.2986625
000200 d6 f7 6f 3e ea 70 05 be e2 36 a6 3d 8d a1 6b 3d
       0.23434386 -0.13031355 0.08115937 0.057527114
000210 e8 7d 79 3d 5f d8 42 bd 55 6c 18 be d1 0e b6 bc
       0.06091109 -0.04756963 -0.14885075 -0.022223862
000220 06 c4 0d be 90 9e ce bd ad f6 0f be a4 6b b3 bd
       -0.13844308 -0.10088837 -0.14058943 -0.08760765
000230 34 8b 85 be 21 ab 4a 3d b0 54 9a be 70 f7 12 bd
       -0.26082766 0.049479607 -0.30142736 -0.035880506
000240 56 04 01 3d cc 0e 9c be 25 e0 02 bd 57 2b 5d bc
       0.031498276 -0.3048004 -0.031952042 -0.013499103
000250 2e 68 79 bd 94 1c 0a be d2 03 73 be 4e 9b 48 3d
       -0.06089037 -0.13487464 -0.23731926 0.048976235
000260 24 2d f8 bd e2 ed 20 be 6b 12 74 3d 6a c3 92 3d
       -0.12117985 -0.15715745 0.059587877 0.071661785
000270 5f d4 a4 be f4 9e 43 bd cc b0 16 be 79 4c 61 be
       -0.32193276 -0.04775901 -0.1471588 -0.22001828
000280 d1 9a 9f bd 7f 21 e2 bd 88 f9 f6 3c 55 38 47 be
       -0.07793201 -0.11041545 0.030148283 -0.19455083
000290 e8 d4 e7 3b d7 85 4b bd ec 04 b5 bd 4f 15 e8 bc
       0.007074941 -0.049688186 -0.088388294 -0.028330473
0002a0 f2 eb fc bd 63 4f f8 bd 17 72 8b bd e6 63 12 3c
       -0.123496905 -0.12124517 -0.0680887 0.00893495
0002b0 b8 bd 1a bd 64 0b e3 bd a8 a7 a2 3d 7f 49 dc bd
       -0.037778586 -0.11086157 0.07942134 -0.10756206
0002c0 38 a4 5b bd e2 c6 94 be 6a 89 76 3c 5c 39 a6 3d
       -0.053623408 -0.29057986 0.0150474105 0.08116409
0002d0 bf 61 6d be 6a 25 6e be a4 12 6d be 64 49 1e 3d
       -0.23181818 -0.2325646 -0.23151642 0.03864421
0002e0 a9 4e 9d bd d6 c0 f9 bc f4 a5 de bd ac ab 64 be
       -0.07681019 -0.03048746 -0.10871497 -0.22331113
0002f0 a3 0c d6 3d f0 42 e9 bd ed ce 53 be c3 9c dc 3c
       0.10451629 -0.113897204 -0.20684405 0.026930219
000300 75 05 28 be 0e f4 74 bd a7 d9 0f 3d 71 c5 d0 be
       -0.16408332 -0.05980306 0.03511968 -0.40775636
000310 81 81 ea bd 20 e5 05 be b0 a9 86 3c 57 6c 16 be
       -0.11450482 -0.13075686 0.016438335 -0.14689766
000320 70 7f fe bd 9c 20 30 3d 22 a9 9d bd d2 e0 55 be
       -0.124266505 0.04299985 -0.07698275 -0.20886543
000330 14 97 bb be ae 42 3e be 2a af 8e be 31 da 80 3d
       -0.366387 -0.18580124 -0.27868015 0.06291617
000340 55 1b bc bb 14 00 f3 3c 89 34 b6 bd 7f e2 aa 3c
       -0.005740563 0.029663123 -0.08896739 0.020859955
000350 bc f0 fc bd 7c d9 76 bd 1d d3 ef bb 50 d9 2d bd
       -0.12350604 -0.060266003 -0.007318868 -0.042443573
000360 40 37 e2 bc 86 76 45 bc 4f 2a 39 bc 30 c7 0b 3e
       -0.027614236 -0.012052184 -0.011301591 0.13650203
000370 97 26 22 be ba 10 4e bd b6 7b 61 bd c1 a3 e4 ba
       -0.15835033 -0.05030892 -0.05504962 -0.0017443822
000380 cc c9 83 bd a8 28 16 be 04 f1 25 3d ac 3e 88 bd
       -0.06434974 -0.14663947 0.040513054 -0.06652579
000390 9d 5f 03 3e 17 9a 84 3b 44 da 9f bd 1c c4 3f bd
       0.12829442 0.0040466893 -0.07805303 -0.046817884
0003a0 c9 b9 1c 3d 07 5c 36 be a9 fe 52 3e 7f d2 cf bb
       0.038263116 -0.17808543 0.20604958 -0.0063422318
0003b0 3f de 29 be 99 47 2a 3d 59 e8 f5 bd b0 67 75 bc
       -0.16588686 0.041572187 -0.120072074 -0.014978334
0003c0 00 d9 03 bd 35 57 7b 3d 95 55 48 3c 06 26 6a 3d
       -0.03218937 0.061362464 0.012227436 0.05716517
0003d0 78 ba e8 3c d6 0e 56 be d2 86 b6 bc 4a 56 6e 3d
       0.028409228 -0.20904097 -0.022281084 0.05818776
0003e0 18 f2 02 bf 9c 03 d8 bd 9c 8b 08 3c e0 53 84 be
       -0.51150656 -0.105475634 0.008334067 -0.25845242
0003f0 bd fa c9 be b3 2e 13 3d 6a bf 0e 3d d5 85 d4 3d
       -0.3944911 0.035933208 0.034850515 0.10377089

network_body.observation_encoder.processors.0.normalizer.running_mean f4 [11]
000000 41 ea 7c 3f d2 fe ff 3e 39 bc 1e c0 98 86 80 3f
       0.98794943 0.499991 -2.4802382 1.0041075
000010 04 ff 3f c0 e6 e1 22 c0 77 0d 79 3f 3c 47 a7 3b
       -2.99994 -2.5450377 0.9728617 0.0051049273
000020 a2 b5 1e c0 ec 8e 2d ba 82 85 25 ba
       -2.479836 -0.0006620723 -0.00063141447
