Assets/weights/FindRoad.onnx (onnx, 77078 bytes, 8 tensors)

47 f4 [11]
00000000: c0a1 8740 6ace 2539 6029 7940 8b48 a340
00000010: c20d eb39 bc76 9b40 93a3 8340 bab7 a73d
00000020: 4981 7740 1fea 9c40 00bf 9740
4.238495 0.00015812521 3.8931503 5.1026053 0.00044832943 4.858244 4.1137176 0.0818934
3.867266 4.903579 4.7420654

action_model._discrete_distribution.branches.0.bias f4 [5]
00000000: 9031 81bf dd3e 42bf 2ba0 1e3f 2f1d ab3e
00000010: a0e4 29bd
-1.009325 -0.7587717 0.61963147 0.33420703 -0.0414778

action_model._discrete_distribution.branches.0.weight f4 [5, 128]
00000000: dd3b 823d 4086 8a3e 23c3 0abf 351f 063e
00000010: 2dbc 7bbe 71e7 e23e 5673 06bf 7d8b 733f
00000020: f208 803e 0201 963e 2b26 09be 620c 49be
00000030: e6bf 0f3e 4d45 af3e f5fa d73e 93be 33bf
00000040: 0aa6 ddbd 6295 cf3e 8bc8 9abe f710 b8be
00000050: ce91 52be 5855 ea3e 0442 303e de5e cd3e
00000060: 0b1e 853e 4d0c 1d3f c977 a03e 67ac 993f
00000070: abe8 4dbf 6691 47bf 4e4b a23f b69c a03e
00000080: 591a ac3f 24c8 403d 3f39 283e adfe dc3d
00000090: 82fb c63c 6969 18be 313a cb3e d899 3cbe
000000a0: 8c3c 99bd ce70 2a3c 45b9 1d3f 33fd 813e
000000b0: 563c 81bc 895d dfbc 1bbb 8e3e 851d 4f3f
000000c0: a8af 703e 8730 0a3f 1ec7 173f d302 c43e
000000d0: 479e 11bf bcb4 383e 663a 93be e89b 663e
000000e0: 0dc4 01bf c8e8 093f 39a9 e93d 8848 703d
000000f0: 488f 02bf 87db 863f 5325 1a3f 16c5 14be
00000100: fcf6 d1bc 223c 24bf 887d fa3d 5808 6a3f
00000110: ac92 07bf 34ff 9a3d dec2 d33e c36e 133f
00000120: 6974 6e3f e87d 38bf 12b8 183f e5fd c43d
00000130: add6 2dbd e0e6 133f 4865 ba3e f806 dc3e
00000140: 4cc9 b9be 652f 713e 036f 323d 2ccf b0bd
00000150: ca6a 873e 70a9 e83c cf06 4cbe 0e8a 963e
00000160: 49f8 073f 10a8 68be 3cdb 8e3d 4faa b43e
00000170: 5d41 303e 97eb 3d3e cd60 ac3e a26a f83e
00000180: 78a9 203e 3db5 c8bd 9974 d1b9 92cc 923e
00000190: dabf b2be 58dc d63e edb2 e1be fab6 54bc
000001a0: e800 8d3e 474b 9a3e dbd7 a93e cd8f 593e
000001b0: 360c 13be 6ab7 323e dba1 df3e b332 34be
000001c0: 277f 6f3d 28c9 cdbd a07e 913e dd9d 823e
000001d0: 1bf5 21bd 7486 8b3f 8efd f8be 3b82 313f
000001e0: edc1 75bc 27c4 9ebd 5f1f f43e 2a5b 15bf
000001f0: d162 543f 17ea 35bd 5eac b8be 226f 593e
00000200: aa7d 783f c5b8 a13e 9adb 013f 5ad0 03bf
00000210: d7b1 593e dc13 573f 24a4 3c3e 163a 263e
00000220: 1ec0 333e eccf 20bf e684 103f 6bdb e83e
00000230: a46f 323e 8f89 533e cf3e 513f 022d 173f
00000240: 8ffd 4f3e e806 7cbf 9073 dc3e d0ed 323f
00000250: 42f0 9e3e f287 a6be 8aa5 33be 2572 1b3f
00000260: 503d d63e 5542 bebe c346 44be aa2e 563f
00000270: d5ed 993f 7ed4 40be d19d 9b3f 4ee4 f0bf
00000280: f2b7 c93f abf8 573f 000a e6be 487e cb3e
00000290: 4613 693e 0aeb 1e3f e1b6 803e f4e1 393d
000002a0: 6b2a a13e 7e52 21bf d62d 9dbf 9b36 093e
000002b0: b9b0 e0be e84e d13e 7e47 f93d 4b3b 663f
000002c0: 2573 ee3e 1d98 28be 8dd7 ce3d 9a14 b5bd
000002d0: d031 673d 8093 c33e 146f adbe d14a 11bf
000002e0: 5b82 343e 5f72 18be 4c65 103f 7c9d a53c
000002f0: 59a6 b63e ea95 83bf 644f b43e 825f 9f3e
00000300: 7197 f53e 377f 8f3e c2f9 9a3e ca5d 8f3f
00000310: 0efd 0f3e b18f c3bd 2591 8cbc 3690 b63b
00000320: 28eb df3e 6492 b9be b1d1 033f 38da 06bf
00000330: c253 933e 81a6 4e3f f8d4 dbbe 9348 dfbe
00000340: cb82 f1be d23f db3d 6cd9 cb3c ca63 d53e
00000350: 5ae5 1abf d132 3b3c 4601 c63e fd08 75bf
00000360: 7907 013f d303 b43e 025b 723f d2e0 7c3f
00000370: a726 dd3d c2b9 943e 191d 693e 4e09 e13d
00000380: 9acc 443f f5d2 06bf d7fb 033e daaf f5be
00000390: 3895 983f 054e f93e 1ccd 293f 654b 20bf
000003a0: 2fea 63bb aa01 12bf 5239 e43e 40b3 2e3f
000003b0: a6a3 c7be e7a9 cc3e 1d38 b93f 532c 3dbf
000003c0: 8683 ba3e 5d95 01bf 8a36 0c3f 9de9 323e
000003d0: bb19 9c3e cb7d 523f dcdd 913e 2308 723f
000003e0: 35a1 41bf 18c6 043f c378 0a3f 96df c1bc
000003f0: 5bb3 733f df8f 0d3e 8768 173f 60aa c53e
0.06359074 0.2705555 -0.54204005 0.13097842 -0.24583502 0.443172 -0.5251974 0.9513472
0.25006825 0.29297644 -0.13393466 -0.1963363 0.14038047 0.3423256 0.42183653 -0.7021267
-0.10822685 0.40543658 -0.30231127 -0.35950443 -0.20563433 0.45768237 0.17212683 0.4011144
0.25999483 0.61346895 0.3134139 1.2005738 -0.8043315 -0.77956235 1.2679231 0.3136956
1.3445541 0.04706587 0.16428088 0.10790763 0.02428985 -0.14883961 0.39692834 -0.18418062
-0.074822515 0.010402871 0.61610824 0.25388488 -0.01577584 -0.02726628 0.27877125 0.8090442
0.23504508 0.53980297 0.59288204 0.38283405 -0.5688214 0.18037695 -0.28755492 0.22520411
-0.50689775 0.5387082 0.1140923 0.05866292 -0.5099988 1.0535744 0.602132 -0.14528307
-0.025630467 -0.64154255 0.122309744 0.9141898 -0.5295818 0.075682074 0.4135961 0.57590884
0.9314638 -0.7206712 0.5965587 0.09618739 -0.04244106 0.5777416 0.36405396 0.42974067
-0.3628639 0.23553236 0.0435629 -0.08633265 0.2644866 0.028401107 -0.19924472 0.29402202
0.5311323 -0.22720361 0.069754094 0.35286185 0.17212434 0.18546902 0.33667603 0.48518854
0.15689647 -0.098001935 -0.00039950458 0.286717 -0.34911996 0.41964984 -0.44081822 -0.012983078
0.27539754 0.30135557 0.33172497 0.21246262 -0.14360127 0.1745278 0.43678173 -0.17597465
0.05847087 -0.10048133 0.2841692 0.25511065 -0.03954039 1.0900407 -0.48630947 0.6933934
-0.014999849 -0.07752257 0.47680184 -0.5834223 0.8296328 -0.0444127 -0.36069006 0.212338
0.9706675 0.3158628 0.5072571 -0.51489794 0.21259247 0.8401468 0.1842199 0.16233096
0.17553756 -0.62817264 0.56452787 0.45479903 0.174254 0.20657943 0.81736463 0.5905305
0.20311569 -0.9844804 0.43056917 0.69894123 0.31042677 -0.32525593 -0.17543617 0.60721046
0.41843653 -0.37159982 -0.19167618 0.83664954 1.2025706 -0.1883106 1.2157537 -1.8819673
1.5759261 0.8436381 -0.44929504 0.39744782 0.22761258 0.6207739 0.25139526 0.0453815
0.31477675 -0.630165 -1.2279613 0.13399737 -0.4388483 0.40880513 0.12171839 0.89934224
0.46572223 -0.16464277 0.10099707 -0.0884182 0.05644399 0.3819847 -0.33873808 -0.56754786
0.17627852 -0.14887379 0.56404567 0.020216696 0.35673788 -1.0280125 0.3521682 0.31127554
0.47967103 0.28026745 0.30268675 1.1200497 0.14061376 -0.09548891 -0.017159054 0.0055713905
0.43734097 -0.362445 0.5149184 -0.52676725 0.2877484 0.80722815 -0.4293592 -0.43610057
-0.471701 0.10705532 0.024883948 0.41677696 -0.6050621 0.01142569 0.38672847 -0.9571684
0.5040203 0.35159168 0.94670117 0.9878055 0.10798388 0.29047972 0.22765006 0.10988103
0.768747 -0.52665645 0.12889038 -0.47985727 1.1920538 0.48692337 0.663286 -0.6261504
-0.0034777035 -0.5703379 0.44574982 0.68242264 -0.3899204 0.39973375 1.447025 -0.7389576
0.3642847 -0.50618535 0.5477072 0.17471929 0.3048838 0.82223195 0.28489578 0.94543666
-0.7563661 0.5186477 0.5409052 -0.023666184 0.9519555 0.13824414 0.5914387 0.38606548

network_body._body_endoder.seq_layers.0.bias f4 [128]
00000000: f6da eb3e bdfc f03e 3dab 593d 3070 8c3e
00000010: 7b72 29bf f4ba b1bd 7f04 273e b98a b73e
00000020: 2325 38be f1b3 043f 965b ecbe 994f bf3e
00000030: fb76 68be b1be 20bf 1dda ef3e f515 16bf
00000040: 2971 cfbe 0501 31bf 47a0 b3bc 1c46 e0bd
00000050: f3dc 053f 9e85 62be dffd b8be c3b1 e83e
00000060: 357e 24bd 494a 3d3e f9c3 08bf 440f 90be
00000070: 4160 9dbe 1417 9ebd 36ea f8bd 9614 3e3e
00000080: d970 d8ba 6077 e33e ac38 053f fe1d 9fbc
00000090: 36fb 24bd 8838 563c 2aec aa3e 67fa 16be
000000a0: 3eb8 ad3e 3444 e73e 867f f43e b803 223f
000000b0: 1c56 f83e d730 bebd 81a0 34be c934 25bf
000000c0: 738e 7c3e 408a 543f c29d 9f3b f31f 23be
000000d0: 62c5 343d 3be7 1ebf 0d57 d13e ae2d 133f
000000e0: 467d abbe 4980 053f 2170 b5be f7b4 1b3d
000000f0: fb28 fa3e d354 033e f163 d8be d719 c4bd
00000100: 9cec be3c 292e a43e 178b 623e bab7 513e
00000110: 7993 31be 71c6 cdbe eea7 8abe 104d 63be
00000120: ea23 843d 0309 3abf ee80 1bbe 304d 8d3e
00000130: 1b03 8fbe a5fd a7be 8598 023e 3957 8f3e
00000140: 3cc5 5c3d c43c bfbd 99e1 6b3f 2e8f 243f
00000150: 5986 8abe 8d45 06be dfb0 283f a4f0 76bd
00000160: 23f5 94bc 0d3e cd3e d588 8b3e 0f1e 9e3e
00000170: 5595 663d 21cf 9a3e 8c65 08be c5e9 8ebe
00000180: 7ea2 983e 7188 2b3f 6076 ed3e fd6a 27bd
00000190: 2395 833e 9ec5 8a3e 2fd8 253f 947d 343f
000001a0: f5d2 263e 28f7 3e3e 07ca 0c3e 6ddb be3e
000001b0: 1f35 dc3e 9781 4e3f 27bc 05bf aaa1 913e
000001c0: 060d 8dbe a4e4 ce3e 7da0 143f 6232 c73e
000001d0: 64bf ef3e 7a44 c33d f6dc c63e 2d8e 0b3f
000001e0: efde 003f 3c53 1e3d bab0 82be 2d03 283f
000001f0: d55a 14bf ccb5 563f 861f 00bf 9a66 d33c
0.4606549 0.47067824 0.05314182 0.27429342 -0.6619031 -0.086782366 0.16310309 0.35848024
-0.17982917 0.5183707 -0.46163625 0.37365416 -0.22701637 -0.6279097 0.46846095 -0.58627254
-0.40516022 -0.6914218 -0.021927012 -0.10950872 0.52290267 -0.22121283 -0.36131188 0.4544812
-0.040159423 0.18485369 -0.5342403 -0.28136647 -0.30737498 -0.077192456 -0.12154047 0.1856254
-0.0016513123 0.44427013 0.520396 -0.019423481 -0.040278636 0.013075002 0.33383304 -0.14743958
0.33929628 0.45169222 0.47753543 0.63286924 0.48503196 -0.09286659 -0.17639352 -0.6453367
0.24663715 0.8302345 0.004871101 -0.15930156 0.04413355 -0.6207158 0.40886727 0.57491577
-0.33494014 0.5214887 -0.3543711 0.03801438 0.4885939 0.12825327 -0.4226375 -0.09575241
0.023306184 0.32066467 0.22123371 0.20480242 -0.17341413 -0.4019046 -0.27081245 -0.22197366
0.064521626 -0.7267 -0.15185902 0.27597952 -0.27932057 -0.32810703 0.12753494 0.27996233
0.053899035 -0.09337762 0.9214111 0.64280975 -0.27055624 -0.13112469 0.65894884 -0.060288087
-0.018183297 0.40086403 0.27252832 0.30882308 0.056294758 0.30236152 -0.13319987 -0.27912727
0.29811472 0.6700507 0.46379375 -0.040873516 0.2569972 0.27103895 0.64782995 0.70504117
0.16291411 0.1864897 0.13748942 0.37276784 0.43009278 0.8066649 -0.5224022 0.28443652
-0.27549 0.40408814 0.58057386 0.38905627 0.46825707 0.09534545 0.38840455 0.5451382
0.5034017 0.038653597 -0.25525457 0.65629846 -0.579511 0.8387115 -0.500481 0.02580576

network_body._body_endoder.seq_layers.0.weight f4 [128, 11]
00000000: 1f6d ab3d acab 873e 6a6f 913e f989 36bc
00000010: 9ffc eabe 5604 d23d 50ae 86bd 1e81 a43e
00000020: 6542 05be 98c1 913f fc4d 8c3f 9af1 52be
00000030: 031d 883e 0723 693e 2256 ea3c 7dc1 00bf
00000040: 00f0 9bbd d3ca 283e e1d1 2d3c 4bf3 f0bd
00000050: f463 333f 7b01 333f d3bb 4e3f a485 0f3c
00000060: e4e0 813f 1682 a3bc 7e24 7abd 9d8c 84bc
00000070: 206f 2bbf fccf 7dbe 3608 8bbf 6b30 1a3f
00000080: f073 c5be f5ed 063f b5e2 de3e 80f2 24bc
00000090: e283 9abd b07c 1fbe 4ae5 04bd f6bc 1bbf
000000a0: 6a4b 13bf 85af b53c 48e7 ac3f df2f 09bf
000000b0: 966a 5a3e 61fd a7bf 5f7b ac3d c8b0 533c
000000c0: 7c2d 413f 10c0 25bd a29c 2fbe 5e0d 1abe
000000d0: a492 903e 4965 11be 55ac 8d3f 7137 003e
000000e0: 31cb a13e c227 aabe febf bdbc 43fe 903e
000000f0: 10de 0cbc 3117 643e 6123 8b3d bf62 2b3f
00000100: b69f 4abf 55ad 9d3f 887e 51be b047 603d
00000110: af88 c33d c502 afbc 264b 823e b994 22bd
00000120: bdf7 2c3e b60f 993c 5c3a 26bf 91e2 32bd
00000130: 6ef5 e53e 51db bbbe 864f c93e ffe3 813f
00000140: 7179 50bd 7258 1dbe e29c edbd fb9c c93e
00000150: f2de db3d 5ee3 6cbf 59ef 273e 6a91 e3be
00000160: 278d 103e b068 57be 6821 3a3f 77d0 93bc
00000170: 6f61 4d3e f64a 99bb 6881 55bf 7002 803e
00000180: aaf9 1fbf ec96 663f 5c2f 7d3e cc08 9d3f
00000190: da81 c1bc ffac f4be b44b aebc 0ff1 ccbe
000001a0: b7db b33d 5c68 aabf e60c b03e abb8 6f3e
000001b0: ec9b 6fbe 3a52 133f 26f5 2d3f fd44 89bf
000001c0: 1de0 d0be bafd be3b 9229 c13e 019f 21be
000001d0: 8d01 35bf be48 ddbe e460 e3be 5a32 243e
000001e0: 67dd 333f 4f0f 9a3f aaa3 f73e 1b2a 403f
000001f0: 81bf eabb cd43 23be 874b 86bc 4b1b 92bf
00000200: f379 eb3e ef73 9bbf ae6c abbd 7bcf 83bd
00000210: 9a93 3abe 3f89 04be 2bc3 27bf 506c 4f3d
00000220: 0758 f83d 3ef3 923d e50f fbbc c954 603d
00000230: b8ff 503f ee58 95bf 333b 973f 438a a5be
00000240: bfff 34bf c3ee 27bd a843 2ebc ed87 163f
00000250: 141f e93b 08e0 883e ae94 1a3f 5319 553d
00000260: 4750 bbbf 5bef 70be 4e98 c9be 02d0 2b3f
00000270: 7c92 a53e d8ea e0bd cbbb 5abe 065c 7c3d
00000280: 641c 0c3f c830 a43e 30ac e0bd 82da f5bf
00000290: 7777 573e 4790 70bd 0ffe 76bf 359e 273f
000002a0: 2881 933c db30 133e e7a2 7abc 781f 663e
000002b0: 3a8c 503e d893 fdbe 27de a3bf fc47 b03f
000002c0: 297a 133f d989 09bf fafa 3f3f 1812 f3bc
000002d0: 7182 e83e b6b4 863d 727f 40be 9253 cd3d
000002e0: bf35 cebe 3e0e 763f a73e 35be 8fae 45bf
000002f0: 5e51 67bf e811 c1be d26d f6bc 9e33 963f
00000300: f803 533d d652 153f f474 66bf 26fb 943e
00000310: aa8e b8be 3887 2a3d 607d 283c 2412 fabe
00000320: feef 643f bb89 e2bd da0a f33e 0af8 3d3e
00000330: 7d6b 1dbe 4d07 aabd b5c1 0ebf 2748 16bf
00000340: 082f 54be 4b2a 083f f665 febe cee8 5ebf
00000350: 85db dfba 54ab 0e3f e5f8 37bd 5c02 09bf
00000360: e2b2 4c3f 393a 333f 754a f13e db2c 86bb
00000370: 208f 00bf 292b 8e3d 5294 a93e 2232 9d3d
00000380: 352d cebd a697 493d f684 e13e 50ab 0c3e
00000390: 7a01 83be c415 a83e 9211 c83e f7cb 883f
000003a0: b66c 5f3e b8fe eb3d 889c 29bd 4d80 123f
000003b0: 6b4f 99bc 7b34 89bf 4cc0 07bd c346 31bd
000003c0: 7e74 31bf efed d63f c7ca 323f b11e 41bf
000003d0: 1827 d7bc 9752 24bc 5c09 64bd dc29 9dbc
000003e0: 4b14 6fbf 713d edbc 012e 9cbd cb1d 44bf
000003f0: 2eab 6fbe a548 d13e 07a9 693f eff0 05bf
0.083704226 0.26498163 0.28405315 -0.011141294 -0.4589586 0.10254733 -0.06576216 0.3212976
-0.13013609 1.1387205 1.0961299 -0.20599976 0.26584634 0.22767268 0.028605524 -0.5029524
-0.07614136 0.16483621 0.010609121 -0.117651545 0.7007439 0.69924134 0.80755347 0.00875989
1.0146756 -0.01995949 -0.061069958 -0.01618033 -0.6696644 -0.24786371 -1.0861881 0.6023013
-0.38565016 0.52706844 0.4353234 -0.010067582 -0.07544686 -0.15574908 -0.03244523 -0.60835207
-0.5753695 0.02217842 1.3508081 -0.5358867 0.21329722 -1.31242 0.08421969 0.012920566
0.7546003 -0.04046637 -0.17149594 -0.15044162 0.28236878 -0.14198793 1.1068217 0.12521149
0.31600335 -0.33233458 -0.023162838 0.28318986 -0.008597866 0.22274472 0.06793857 0.6694755
-0.7914995 1.2318522 -0.20458424 0.054755867 0.09547555 -0.021363625 0.2544796 -0.039692614
0.1689138 0.01868425 -0.649328 -0.0436731 0.4491381 -0.36690763 0.39318484 1.0147704
-0.050897066 -0.1536577 -0.11602189 0.3937758 0.10735883 -0.92534435 0.16399898 -0.4444688
0.14116345 -0.21036029 0.72707224 -0.01804374 0.20056699 -0.0046781255 -0.83400583 0.2500186
-0.6249033 0.9007404 0.24725097 1.226831 -0.023621488 -0.47788236 -0.021276332 -0.40027663
0.08782142 -1.3313098 0.3438484 0.23410289 -0.23399323 0.5754734 0.6795219 -1.0724179
-0.40795985 0.0058285864 0.37727028 -0.15783311 -0.7070549 -0.4321956 -0.4440986 0.16034833
0.7025971 1.2035922 0.48367053 0.7506425 -0.0071639423 -0.15943833 -0.016393436 -1.1414579
0.45991477 -1.2144755 -0.083703384 -0.06436058 -0.18220368 -0.1294298 -0.6553218 0.050640404
0.12126165 0.07175301 -0.030647228 0.054768357 0.81640196 -1.1667764 1.1814941 -0.32332048
-0.7070274 -0.040999185 -0.010636248 0.58801156 0.0071143005 0.26733422 0.6038312 0.052026104
-1.4633874 -0.23528807 -0.39374012 0.6711427 0.3233832 -0.10982293 -0.213607 0.061611198
0.5473082 0.32068467 -0.10970342 -1.9207308 0.21041666 -0.058731344 -0.9648141 0.6547578
0.018005922 0.14374106 -0.015297628 0.22472942 0.20365992 -0.49526858 -1.280217 1.3771968
0.57608277 -0.53725964 0.74992335 -0.029671714 0.4541202 0.065774366 -0.18798617 0.100257054
-0.4027538 0.9611548 -0.17699681 -0.7721948 -0.9035853 -0.37708974 -0.030081663 1.1734502
0.051517457 0.5832952 -0.90022206 0.2909786 -0.36046344 0.04163286 0.010283798 -0.48841965
0.894287 -0.11061426 0.47469217 0.1855165 -0.15373035 -0.08302174 -0.55764323 -0.58703846
-0.20721066 0.53189534 -0.49687165 -0.8707398 -0.0017078972 0.55730176 -0.0449151 -0.53519225
0.79960454 0.70010716 0.4712712 -0.0040947027 -0.5021839 0.06941826 0.33120972 0.07675578
-0.10067216 0.04921689 0.44046754 0.13737226 -0.25587064 0.32829106 0.39075905 1.0687245
0.21818814 0.11523193 -0.041409045 0.5722702 -0.018714627 -1.0719141 -0.033142373 -0.043280374
-0.6931838 1.6791362 0.69840664 -0.75437456 -0.026263759 -0.010029457 -0.05567299 -0.019185
-0.9339034 -0.028959962 -0.07625962 -0.7660796 -0.23405144 0.40875736 0.9127354 -0.5232076

network_body._body_endoder.seq_layers.2.bias f4 [128]
00000000: 4c35 0bbe a5a8 01bf 3e12 d3bc 3110 07bf
00000010: 8b45 c23e 673a 1ebe 1816 59be 3cb3 8dbe
00000020: 09a9 283e b5a1 a4bd 07f3 02bf ead5 60be
00000030: c0a8 8ebe 4bb7 8f3d 425b aebe 926a 35be
00000040: 1199 c3be ec96 e7be 3772 103e 535d b8be
00000050: 7551 b1bd c409 8fbe 2dcf 1fbf 1237 4bbe
00000060: 5db1 4c3d e11e 0c3e 52e3 dd3e bd5c 8fbe
00000070: ce63 89be a177 853f 7c09 113d 3994 9b3d
00000080: 6dd7 703e 74c2 9dbe 6793 efbd 18d2 c7be
00000090: 3bdb 87be 1241 63be 3bff 983e 8330 023e
000000a0: c39e 89be c3d1 0f3d f74b fcbe 7ba3 a8be
000000b0: 4dc5 2fbf f2b8 5d3e 5c8b f33d 392c 83be
000000c0: 1e20 8dbe 14b0 7abe a72c c1bc 129d e6be
000000d0: 4f72 babe f756 a3be cfd0 4d3f a6d2 e3bd
000000e0: ba2d e4be 7066 22bf d952 173d 4c26 413e
000000f0: 8d7b b63e da61 09bf 4b83 e6be 7788 b83d
00000100: a660 19be 2217 173e b3fb 8a3d 66f7 033b
00000110: 9d9a 98be 8e1e ae3e e222 1c3e 7fad 00bf
00000120: f4f7 d3be ccba 17bf 2f46 abbe 8349 dfbc
00000130: 5206 f3be 7bc6 a4be 71c6 4cbe 74b0 0dbf
00000140: ac4d bc3d af1f 17bf 9e82 3bbe d58e 44be
00000150: 9403 38bf 64db 5cbe 6f10 2bbe 695c 0e3f
00000160: 5583 1d3d c727 cabe d4da 81be 7b9a bdbd
00000170: f8fa 77be bcf5 b6bd 128a da3d 9a83 01bf
00000180: 2fdb 17bf 81a1 733e 4ac6 c9be 5c1f 49bd
00000190: 5a2f 293e 9d2a eebe f2d1 d7bd 95c7 433e
000001a0: 2816 3dbd 0302 473e 6922 15be bdc5 d93c
000001b0: 6362 25bf 42ba 9bbc 5bae ff3d 8361 8e3e
000001c0: 21db dbbd b86e b5be 7be0 d4be 97bc efbe
000001d0: 5f60 e6bd 4c68 aabe b7ff ccbe 4750 02bf
000001e0: f138 7a3e 8cb1 f8be d4d8 2cbd cfa6 0abe
000001f0: 7d77 963c 17f0 c33d 2dbd 8abe c4e9 8cbd
-0.1359455 -0.50647956 -0.025765534 -0.5275908 0.37943682 -0.15451966 -0.21199834 -0.27675807
0.16470732 -0.08038656 -0.5115208 -0.21956602 -0.2786312 0.07017382 -0.34054 -0.17716435
-0.38202718 -0.45232332 0.1410607 -0.360087 -0.08658115 -0.27937138 -0.624255 -0.19845226
0.049973834 0.13683654 0.43337494 -0.2800044 -0.26833957 1.0427133 0.035409436 0.075966306
0.23519678 -0.30812418 -0.11698037 -0.39027476 -0.26534447 -0.22192791 0.29882225 0.12713818
-0.26878938 0.035112154 -0.49276707 -0.32937226 -0.6866043 0.21652582 0.11891815 -0.25619677
-0.27563566 -0.24481231 -0.023580862 -0.4504171 -0.36415336 -0.31902286 0.8039674 -0.111241624
-0.44566137 -0.6343756 0.036944244 0.18862265 0.35641137 -0.53664935 -0.45022044 0.090104036
-0.14978275 0.14754918 0.06786289 0.0020136475 -0.2980546 0.34007686 0.15247682 -0.50264734
-0.4140011 -0.59269404 -0.33451983 -0.027256733 -0.4746576 -0.3218268 -0.19997574 -0.5534737
0.09194502 -0.5903272 -0.18311545 -0.19195111 -0.7188046 -0.21568066 -0.16705488 0.55609757
0.038455326 -0.39483473 -0.25362265 -0.092579804 -0.2421683 -0.08933589 0.10670866 -0.50591433
-0.5931882 0.23792078 -0.39409095 -0.049102172 0.1652197 -0.46516886 -0.10538091 0.19119103
-0.046163708 0.19434361 -0.14563908 0.026583547 -0.6460325 -0.019009713 0.124844275 0.2780877
-0.10735155 -0.35436034 -0.41577515 -0.4682357 -0.1124885 -0.33282697 -0.40038845 -0.50903744
0.24435784 -0.48572958 -0.04219897 -0.13540195 0.018367523 0.09567278 -0.27097455 -0.06880525

network_body._body_endoder.seq_layers.2.weight f4 [128, 128]
00000000: 9304 3dbe f461 8a3c 7308 933e a66b 4abf
00000010: e70e bcbe 4273 253d bc18 a4bc 0d97 22bd
00000020: ca9a e6ba 5281 9bbd da72 553e bb14 bfbc
00000030: 5e77 0bbe ac65 4bbe 0a32 b03d f02d a7be
00000040: 092c bbbe 5323 a4bd 930d ce3d 0b6a 95be
00000050: 5a85 8ebd 15c8 e1bd f953 bebd 2265 6ebe
00000060: f8ee c0be 8ead 003d 7f79 cbbe 7412 75bd
00000070: d4ad fabe c382 5cbf 469c 9c3d 58e6 4bbc
00000080: eec2 6ebe 0c65 e93d dbd0 7fbe 1f31 ecbe
00000090: 2c7b 98be b85d 003e cb50 cc3d 5ddb 84be
000000a0: 9b1f 2c3d 03da 4fbd 3ba4 97be cfa4 4fbd
000000b0: 0491 46be ac93 86bd 39b3 f5bc f381 36bf
000000c0: 6c19 55be 944e 91be c91e 663d 7cd2 fdbe
000000d0: 9f52 be3d 7629 1cbe 8c6a 923d de06 24be
000000e0: 6ed2 31bf 1c21 5f3c 5314 813d 5071 0bbe
000000f0: 6a3f 483e 7212 c63d ae2e b0bd 123f 31be
00000100: bf38 78be 2356 66bf 568b 22be 3cb8 ac3d
00000110: dedb 32bf bb8b b8be 5e23 dabe 1fd4 b6be
00000120: e75a 98be fccc e93e ac16 0dbf 55d5 52bd
00000130: a1c1 95be a591 63be b423 10bf 317e c53b
00000140: 9a2f ad3d 80c9 0bbe 9057 8ebe f6e0 45be
00000150: 2c85 7b3d 8343 8cbe 3d41 e83c 0045 6d3d
00000160: 33f1 01bf 5547 243c bda6 663e dbba 603e
00000170: 2c86 e63d 42a4 023c a136 f2be 557f 80be
00000180: 1d5f edbd 3dc7 f1bb 1244 cfbe 4f98 8cbe
00000190: 37eb e33a 6334 333e e46f 683e 746b eabe
000001a0: 29ff 04bf 85d0 6a3e 1d76 33b9 6408 613e
000001b0: 1476 2fbd 7380 3dbe a34d 0f3d 6ee7 c63d
000001c0: fa4f 403d 2079 82be 1205 3ebe 71dd bbbe
000001d0: c069 f33d 0cea cb3c 2711 fc3d 4bcf 513c
000001e0: ec6d 5bbe 0572 f9be 412a 44be 2ffe acbd
000001f0: 377d 843d d8f7 44bf 9985 2c3d 18e6 01be
00000200: 491f bb3e 4203 b13e 30d1 313e 1a4b 8fbe
00000210: b882 063d 0f36 99be a31b 123e ed63 d93c
00000220: 40ef 4e3e 08e9 81bd 5072 103d 0051 b63d
00000230: 5cef 76be d124 98be 125d 9abf 5b5e 41bf
00000240: 7a76 2f3e 1647 d43d 54c8 7fbe edce 80be
00000250: cd13 683e 1da2 90bd bf0a d63d 67a3 6bbe
00000260: 1fbb 1fbf 0fd2 00bf 4878 e1bd 5a84 9ebc
00000270: 9f53 ccbe 4a61 8ebe ab7e 163e df1f f2bd
00000280: a1d5 08bd aead 89be d949 8d3e 48d4 0abf
00000290: 2fe8 1a3d df1c 37be 88cb 00be be6f c1bb
000002a0: 55e6 dc3c b258 79bf 5d0a a0be 3b9d cd3d
000002b0: 0669 bf3e 240c 25bf 72d8 b63e e493 25bc
000002c0: c016 64be 7dc3 90bf ac86 ccbc c6eb 033e
000002d0: 0861 85be d12e 19be 468b b73c c721 583e
000002e0: 8417 383e dd20 493d ab65 163d 9bd8 cfbe
000002f0: 7e3e 35bd 3988 0abf 7267 823e f6f7 e33c
00000300: fbf2 493e 32cb c1be c261 21be 934b 5d3d
00000310: 4ed5 ddbe 028e a73e d775 08bf eead fd3e
00000320: d12e 20bf 2989 d6be 15d2 91be c42c c1bc
00000330: 5de8 f13d 3a54 29be f19b a2bd 066a 673c
00000340: 6f50 5c3e 5621 a9bd 51a5 35bf be02 c2bf
00000350: f2cb dfbc c639 01bf 0491 523e 8459 033e
00000360: 31dd 5bbe 7b76 87bd b7cd fbbe 0ef3 0e3e
00000370: 9a23 503e 29ec 86bd 98ac 7ebe f9de 20be
00000380: 8904 0e3e 9ee4 863e 9683 f5be 4b0d 9bbd
00000390: e589 6dbf 1d04 c2bc b87e 813d a02e 10bf
000003a0: 0daa 543e 323a 82b9 11af 64be 73f8 d7bd
000003b0: 00ce 2d3e 1085 33bc 51c5 92bd c17c bf3c
000003c0: b5f2 51bd a11b 68bf 5dac a83e 0953 dbbd
000003d0: 2a48 503e 3a0e b33c f69f 22bf 83cf 4f3d
000003e0: 1d5f 86bf bd2f 9ebe f7fe aabe 9301 94be
000003f0: 6307 ddbe 880f 1ebe 7949 223e e2d0 fcbe
-0.18458776 0.01689241 0.28717384 -0.7907051 -0.3673012 0.04039312 -0.020031326 -0.039694835
-0.0017593738 -0.07593025 0.20844594 -0.023325315 -0.13619754 -0.19863003 0.08603294 -0.32652235
-0.36557034 -0.0801455 0.10061183 -0.29182467 -0.069590285 -0.11024491 -0.0929336 -0.23280767
-0.3768232 0.031415515 -0.39741132 -0.05983205 -0.48960745 -0.86137027 0.07646994 -0.012445055
-0.23316547 0.11396226 -0.24982016 -0.46131226 -0.29781473 0.12535751 0.099763475 -0.2594861
0.04202233 -0.05074502 -0.29617485 -0.050694283 -0.19391257 -0.06571135 -0.029992687 -0.71292037
-0.20810479 -0.28380263 0.056181703 -0.4957465 0.092931025 -0.15250191 0.071492285 -0.16018245
-0.69461715 0.013618734 0.06302705 -0.13617444 0.1955544 0.09671487 -0.086026534 -0.17309216
-0.24240397 -0.89975184 -0.15873465 0.084335774 -0.6986674 -0.36044106 -0.42605108 -0.3570871
-0.29756853 0.45664203 -0.5511272 -0.05147298 -0.2924929 -0.22223528 -0.5630448 0.006027006
0.08456345 -0.13651085 -0.2780118 -0.19324097 0.0614063 -0.27395257 0.02835142 0.05792713
-0.50758666 0.0100267725 0.22524543 0.2194628 0.1125606 0.007973732 -0.47307304 -0.25097147
-0.11590407 -0.0073784874 -0.4048162 -0.27459952 0.0017388825 0.17500453 0.22698933 -0.45785105
-0.51951844 0.22931106 -0.00017114771 0.21975857 -0.042837217 -0.1850603 0.03498615 0.097121105
0.04695127 -0.25483036 -0.18556622 -0.36692384 0.118854046 0.024891876 0.12307959 0.01280577
-0.2142865 -0.48719802 -0.19156744 -0.08446919 0.06469195 -0.7694068 0.042119596 -0.1268543
0.36547306 0.34572798 0.17364955 -0.27986985 0.032839507 -0.29924056 0.14268355 0.026536906
0.20208454 -0.06343275 0.035265267 0.08902168 -0.24114746 -0.2971559 -1.2059653 -0.755346
0.17135039 0.10365121 -0.24978763 -0.25157872 0.22663803 -0.07062171 0.104512684 -0.23011552
-0.623949 -0.50320524 -0.1100927 -0.01935022 -0.39907548 -0.278086 0.14696757 -0.11822485
-0.033406857 -0.2689032 0.27595404 -0.54230165 0.037819084 -0.17882107 -0.12577641 -0.0059032133
0.0269653 -0.97400963 -0.31257907 0.10039755 0.37384814 -0.6447165 0.3571201 -0.010106061
-0.22274303 -1.1309658 -0.02496656 0.12882909 -0.2605059 -0.14959265 0.022405278 0.21106635
0.1797772 0.049103606 0.036718052 -0.40594944 -0.04424905 -0.5411411 0.25469548 0.027828198
0.19721596 -0.37850338 -0.15759948 0.05402715 -0.433268 0.3272553 -0.5330481 0.4954676
-0.62571436 -0.4190152 -0.28480592 -0.023580916 0.11811898 -0.16536036 -0.079399 0.014124399
0.21515058 -0.082583115 -0.7095538 -1.5157087 -0.027318928 -0.5047878 0.20563132 0.12827116
-0.21471097 -0.06614395 -0.49180385 0.13959906 0.20326081 -0.06588013 -0.24870527 -0.15710057
0.13868918 0.26346296 -0.47951955 -0.07570895 -0.92788535 -0.023683602 0.06322998 -0.56321144
0.20767994 -0.0002483889 -0.22332408 -0.10545435 0.16973114 -0.010957018 -0.07166541 0.023374917
-0.051256854 -0.9066716 0.32944003 -0.10709197 0.20340028 0.02185737 -0.6352533 0.050735008
-1.0497776 -0.30895796 -0.33397648 -0.2890745 -0.43169698 -0.15435612 0.1584834 -0.49378115

network_body.observation_encoder.processors.0.normalizer.running_mean f4 [11]
00000000: 94ad 873f a7fe ff3e 7c0b 23c0 cc98 8f3f
00000010: d7fe 3fc0 c524 25c0 7450 223f 24f5 203c
00000020: 7666 c1bf cf3d 4ebd c6b6 bdbd
1.0599847 0.49998972 -2.547576 1.1218505 -2.9999292 -2.5803692 0.6340401 0.009824071
-1.5109394 -0.050351914 -0.09263377
