Assets/weights/People.onnx (onnx, 76772 bytes, 10 tensors)

68 f4 [10]
00000000: 5e67 d540 2129 953c b7d1 9e40 6f91 b940
00000010: a36c 903c e1a6 9a40 60ce 073d b5ba a43c
00000020: 5f65 833d 4fe5 b03d
6.668868 0.018208088 4.9631 5.799003 0.017629927 4.832871 0.0331558 0.02010856
0.064158194 0.08637487

action_model._continuous_distribution.log_sigma f4 [1, 2]
00000000: 77fa 2cbd ef59 6d3d
-0.04223105 0.057947095

action_model._continuous_distribution.mu.bias f4 [2]
00000000: ce86 613c c714 a93c
0.01376505 0.02063979

action_model._continuous_distribution.mu.weight f4 [2, 128]
00000000: 4c9e 98bc ad46 c6bc 2653 893c 608d a238
00000010: c432 f33a c889 d3bb 0294 133c 35be 4f3b
00000020: 6935 a43a 2d5d 973c a87a 02bc 8d37 24ba
00000030: 82af a43c b13b b83b 2a55 b7bc d7d3 babb
00000040: 0594 b33b 4870 89bb 2afc 25bd b04c 9a3d
00000050: fa51 023d e592 033a 824a d63c e28a 6ebc
00000060: 7cbb 123b d828 dfbc 89d5 233d e1cf 6f3d
00000070: 3f14 013d f70c 823b bf48 283d 93c3 53bd
00000080: 3b64 873a f4d6 203d 60a8 813c d49f a6bd
00000090: 340e 873b 2193 dc3c daf8 983c 10f7 a8bc
000000a0: 3e6d c2bc f0b7 cf3c 4fda 0d3c ea97 0abd
000000b0: 7c27 8ebc 3d26 17bd 25bd cc3a c460 a03b
000000c0: 4dcc 723c 1ff8 5a3d c477 793a 1867 48bb
000000d0: eea8 bfbb 4e65 453d 12f2 27bd 7b7c 92bc
000000e0: ff86 4cbc 9e35 4f3c c1e0 8a3c 39f9 3d3c
000000f0: df4c 193c 3f74 fd3c a961 1c3d 5184 2dbd
00000100: 7be0 19ba 195f 153d 18e1 6e3c e664 f93b
00000110: dc63 f43c a63b 89bc df8e babc d44b d03b
00000120: 5a88 1e3d 539a 75bb 4472 edbc de86 0c3c
00000130: e242 c03c e4be e7bc 96a4 19bc eaf2 b8bb
00000140: 53e7 a63c 65d7 cfbb c1fc 75bd 4624 b9ba
00000150: 70d5 c6bb 6b13 a1bd b918 893c decb debc
00000160: 4bc7 cdbb 20f5 323c f2ad d63c 827a 1f3d
00000170: cfe0 243d 3c76 b7bc eb1c 58bc 3da6 513d
00000180: b6a3 35ba a76e d9bc 884b fe3b 266f a3bc
00000190: d607 31bd a768 e43c bf59 e53c 01bc 4bbb
000001a0: 9661 57bd 1def 9fbc 0481 05bd 417a ba3b
000001b0: 90a1 a9bb f4be c6ba f91a 2abd ee72 a9bc
000001c0: 9dbb aabc 7b92 8d3c fe1f c3bb 9816 7a3c
000001d0: ff47 383d eac5 62bc d220 d0ba 94c7 c23c
000001e0: 5840 7cbc ba93 503b f9e6 9bbc 6fc3 053b
000001f0: 436e 58bb 74f8 403c c20c a13b 9170 e9bc
00000200: f43e bc3c cefe 323d e84f c43c db39 a83c
00000210: d8ef 363c fe9c 41bd 2ed2 3abc 9715 4d3c
00000220: f530 8dbc b052 ab3c 5c8a 23bd 4c35 943c
00000230: f265 973c bac5 aabc e757 963c d61c db3c
00000240: 8568 b03c a7e3 12bd 2071 6cbb 92d5 1c3d
00000250: aaee e13c 04ff 963c 5bfa 00bd c114 f93c
00000260: 5074 cb3c 2ba8 873c ecb4 943c 2837 e73b
00000270: a4b4 8e3c b1a4 c93c ca69 c33c 9beb 75bd
00000280: a82e f13c 4cc1 4b3d 666a c33c 7331 9d3c
00000290: 665d 9a3c 51d6 53bb dc9f cb3c 3a35 873b
000002a0: 4b1d bbbc 1dca 903c f7bc 0d3d 4b72 f8bc
000002b0: e4d9 d13b 3b59 59bd e55a 2dbd 717c 8abc
000002c0: 8500 583c bfdd 2b3d 84a8 8a3b f06d f73c
000002d0: 02c6 2c3d d3cb 6abc f829 e03b 345b bf3c
000002e0: 91a9 043d 6ddb 94bb d82c b53c fff8 d9bb
000002f0: dfa1 0bbd 4507 ee3c 3806 443c c483 1c3c
00000300: 1c94 81bc 2736 03bb 5925 5ebc 0912 5f3b
00000310: 2f7c d1bb 78d1 b93c 911f b93c 975d dfbc
00000320: 66a6 173d cdc0 24bd 966b f43b be49 023d
00000330: 8a54 6d3c 8a40 08bc fb7c d83c 402c 1abb
00000340: 4565 123c 7df4 99bc 401e acbd 7d55 ef3c
00000350: 5923 4c3c d9ec 2f3c a68e eb3b 4a6e cbbb
00000360: dd6b a83b 1a01 963b 1822 c03b 85e9 0c3d
00000370: f3ed 053d edaf 333d d77b ce3b f0c0 353d
00000380: 82d0 b43c 3c74 b63c 5a78 153d 65ed 13bd
00000390: 8f74 6bbd 4ff4 e73c dc41 f1bc fe0e dbbc
000003a0: c036 05bd a66a 24bd 3e5a af3a 39ca 8bbb
000003b0: dcb2 0abc 49f1 393b cfe7 793b b373 613b
000003c0: ddb3 653c 7fbb 0a3d 4a00 753c b01d 273b
000003d0: ca2e d83c f2e0 8bbc 8674 853c 90a7 293c
000003e0: 89d2 2d3d f59d 3bbc 9537 ab3c 2c7c 673c
000003f0: 7caa c33c 9cec 89bd 53e6 f8bc 0631 9f3c
-0.01863017 -0.024203623 0.016763281 7.751095e-05 0.0018554558 -0.006455634 0.009007456 0.0031699066
0.0012528124 0.018477047 -0.007963814 -0.0006264381 0.02010322 0.00562235 -0.022379477 -0.005701523
0.005480292 -0.004194293 -0.040523686 0.07534158 0.03181646 0.00050191424 0.026158575 -0.014559479
0.0022389581 -0.027241156 0.039998565 0.05854786 0.03151345 0.0039688307 0.041085 -0.051700186
0.0010329554 0.039267495 0.015827358 -0.081359535 0.004121566 0.026925625 0.01867335 -0.020625621
-0.023733731 0.025356263 0.008658006 -0.033836283 -0.017352812 -0.0369017 0.0015620334 0.004894348
0.014819217 0.053459283 0.00095164427 -0.0030579027 -0.0058489954 0.048192315 -0.04100234 -0.017881623
-0.012483357 0.012647061 0.016952874 0.011595064 0.009356706 0.03093922 0.038179073 -0.042362515
-0.0005869937 0.036467645 0.014580034 0.007610905 0.029832773 -0.016752075 -0.022773204 0.0063566957
0.038704254 -0.0037476018 -0.02898515 0.008577077 0.023469392 -0.028289266 -0.009377619 -0.005644192
0.020373976 -0.0063428157 -0.060055498 -0.001412519 -0.006067924 -0.07865032 0.016735421 -0.02719682
-0.006279861 0.0109227 0.02620599 0.038935192 0.040253457 -0.022395246 -0.013190488 0.051183928
-0.0006928997 -0.026542021 0.007760469 -0.01995046 -0.043220364 0.027881933 0.027996896 -0.00310874
-0.0525833 -0.019523198 -0.032593742 0.0056908433 -0.0051767305 -0.001516311 -0.04152963 -0.020684686
-0.020841414 0.017281761 -0.0059547415 0.015264176 0.044990536 -0.013841132 -0.0015878922 0.023776807
-0.0153962 0.0031826333 -0.019031035 0.0020410677 -0.0033024705 0.011777986 0.004914851 -0.028496059
0.022979237 0.043700032 0.023963884 0.0205354 0.011165582 -0.04726886 -0.01140265 0.012517354
-0.017235259 0.020913452 -0.03992687 0.01809182 0.018481229 -0.020846236 0.018352462 0.026747148
0.021534214 -0.035861637 -0.003607817 0.038289614 0.027579624 0.018432148 -0.031488758 0.030405404
0.024835736 0.01655968 0.018152677 0.0070561357 0.01742012 0.024614664 0.023854155 -0.060039144
0.029441193 0.04974489 0.023854446 0.019188618 0.018843364 -0.0032323787 0.0248565 0.004126218
-0.022841116 0.0176745 0.03460404 -0.030327937 0.0064041484 -0.053063612 -0.042323012 -0.016905041
0.013183718 0.04195952 0.0042315144 0.03020379 0.042181022 -0.014330822 0.0068409406 0.023358919
0.032388274 -0.004542759 0.02211611 -0.006651997 -0.03408992 0.0290562 0.011964373 0.0095529
-0.015817694 -0.002002129 -0.013558709 0.003403785 -0.0063929777 0.02268289 0.02259806 -0.027266307
0.037023924 -0.04022293 0.0074591143 0.031808607 0.014485488 -0.008316169 0.026426783 -0.002352491
0.008935277 -0.018793339 -0.08404207 0.029215569 0.012459599 0.010737621 0.007188636 -0.006208216
0.0051398114 0.004577768 0.0058634393 0.03440239 0.03269763 0.043868948 0.006301384 0.044373453
0.02207208 0.022272222 0.03649173 -0.03611507 -0.057484206 0.028314738 -0.02945035 -0.026740547
-0.032522917 -0.04014077 0.0013378335 -0.00426605 -0.008465495 0.0028372577 0.0038132553 0.0034401237
0.0140199335 0.033870216 0.014953682 0.0025499873 0.026389498 -0.017075036 0.016290914 0.010354891
0.04243711 -0.011451234 0.020900527 0.014128726 0.023885004 -0.06734583 -0.030383265 0.019432556

action_model._discrete_distribution.branches.0.weight f4 [1, 128]
00000000: 8387 03bc 17db 2e3c 8ac7 dcbb 87da ca3b
00000010: e75b 4cbb 0ba4 8cbc ba69 2fbc 5710 6e3a
00000020: 4c2e 4a3b 73eb 9f3b 983b cebb 0714 d6ba
00000030: 63b4 073c 63b0 653c dbba 013c 1cca 0e3c
00000040: 1eba 223c 8f90 383a 586d 6d3b 1545 23bc
00000050: aadf e6ba 27d4 d83a 9169 b5bb 9bed 333c
00000060: cd60 41bc abc6 83ba 748f b13b 98bd 0b3b
00000070: 929a 5c3a 9093 20bc 73b2 a1bb a45e 17bc
00000080: 0a1a 06ba 925b 96bb 27bc febb 1530 403b
00000090: 7810 163a de17 253c dd3c 463c 5a5a 79bb
000000a0: 2130 253b ba75 7cba a4e7 88bb 9566 cfba
000000b0: b9a1 4bbb f036 f73b caed 983a 3dc1 d53b
000000c0: 578e b83b e3f9 803b 7a76 e53b 61ba c03b
000000d0: c889 5bbc 0350 24bb 9069 183c 524e 51bc
000000e0: 96e7 bd3b 2f2b 4fbb 2a80 d9bb 0585 87bb
000000f0: 1e97 40bc 0397 d6bc 9fa8 3d3c f897 8abc
00000100: b448 8fbb 5685 1e3c 0c46 c63b 87dc 303c
00000110: 76c5 c8ba 617e 0fbb 1bd4 31ba afc0 0d3b
00000120: 9d7d e23b 6a2d d43b 6bec 173b cb99 6fbc
00000130: 2759 983b 7a7d 5c3b 2f27 37bc 8d17 273b
00000140: a34d fbb8 5fe2 0e3c eae4 59bb 19a5 373c
00000150: 37b1 ffbb 2318 753c 99d3 43bc 7604 333c
00000160: 87cb c2bb e92a 17bc 63dc 0c38 d211 f2ba
00000170: 4399 ac3b c54e efbb fbfa 03bc 52aa e2bb
00000180: e821 fcbb cf9d 173c 9f2f bb3c acca 093c
00000190: a58c 08ba db47 19bc e78f 92bb de4f c23b
000001a0: 0b27 193c 29df 48bc 6bc6 d53b eb67 55bc
000001b0: f035 e43b f461 3eb9 02f6 cab9 100e 153b
000001c0: c8e5 b5ba a2a7 2bbc 607e 0e3c af4f 4bbb
000001d0: ec8b 2c3b 700c a7ba 5ce8 2ebc da86 7fbb
000001e0: 973c 043c f9ce 24bc 93e5 b93b 0f19 b2bb
000001f0: fb87 913a f72b 40bc cb0c dd3b 248c 863c
-0.008027914 0.010672352 -0.006737654 0.0061906013 -0.0031182708 -0.017168066 -0.0107063595 0.00090814143
0.003085035 0.0048803627 -0.006293725 -0.0016332873 0.008282754 0.014019105 0.007918085 0.008715179
0.009932069 0.0007040584 0.0036228504 -0.009965201 -0.0017614265 0.0016542719 -0.005536266 0.0109819425
-0.011802864 -0.0010053715 0.0054187123 0.0021322723 0.0008415367 -0.009800807 -0.004934603 -0.009238873
-0.00051155745 -0.0045885528 -0.0077738944 0.0029325534 0.00057245 0.010076491 0.012099472 -0.0038048238
0.002520569 -0.000963058 -0.0041780043 -0.0015823419 -0.0031071736 0.007544391 0.0011667546 0.00652328
0.0056322026 0.003936039 0.007002649 0.005881593 -0.013399549 -0.0025072105 0.009302512 -0.012775021
0.0057954295 -0.0031611433 -0.006637593 -0.00413573 -0.011754779 -0.026195055 0.011575847 -0.016918167
-0.0043726806 0.009675344 0.0060508307 0.010794765 -0.0015317637 -0.0021895396 -0.00067836203 0.002162974
0.006911947 0.0064751403 0.0023181688 -0.014624069 0.0046492997 0.0033644126 -0.011178776 0.0025496215
-0.00011983074 0.008720963 -0.0033248016 0.011208796 -0.007803108 0.014959368 -0.011952304 0.010926357
-0.0059446725 -0.009226539 3.3583852e-05 -0.0018468446 0.0052672937 -0.007303091 -0.008055444 -0.0069172764
-0.0076944716 0.009253933 0.022849856 0.008410137 -0.0005208946 -0.009355511 -0.004472721 0.005929931
0.0093476875 -0.012260237 0.0065238974 -0.013025264 0.0069644377 -0.00018156302 -0.00038711732 0.0022743978
-0.0013877684 -0.0104769785 0.008697122 -0.0031022837 0.0026328517 -0.0012744796 -0.010675516 -0.003899029
0.008071086 -0.010059112 0.0056731193 -0.005435116 0.0011103147 -0.011729232 0.00674591 0.016424246

network_body._body_endoder.seq_layers.0.bias f4 [128]
00000000: c7c1 273c 083a 60bc 01a3 2b3d c08e 73bc
00000010: 0f80 403d 044b b0bc 20c4 e2bc 8ca9 ef3b
00000020: 1571 bc3b f36b 93bc 651e 44bd 90f3 c63c
00000030: b986 703c 1e1e e4bc d3a9 5dbd 7cdf 493c
00000040: a462 dfbc 8ce5 00bd 7b9d 35bc e5b5 023b
00000050: 273d 4abc 8db6 e7bc 1d9d c8bb 2e2d e2bc
00000060: 1c02 07bd d83f 963c 0b18 0fbc 668f fabc
00000070: 33e6 023c d252 aaba cc88 303b 37a5 1b3d
00000080: e5e4 403d 61b0 5e3d b413 88bd adf8 053d
00000090: 8a87 df3c bcc6 3bbc aa3b 6cb9 5ad3 43bc
000000a0: c666 a93b 84c9 243d 221c d5bb 0374 eebb
000000b0: c31f 68bc c92d 75bc 3f93 223d f349 273d
000000c0: 13d6 b3bc 0c4d 593d c886 0f3d 7342 0fbc
000000d0: 44b4 a53c 27d7 a63c ceba aa3c 39bc 033d
000000e0: 75c0 b1bc e50c 09bc de34 863d 0131 be3b
000000f0: 5425 01bc b617 dabc 4103 1dbb 790a 66bd
00000100: 5de5 9a3b 05f3 033d 5dbc e2bc 144e 07bc
00000110: 6b8e d8bc 5563 da3c 18c2 0bbd 3145 483d
00000120: 4d29 2ebd c0bc abbc c89c e7bc 5ca3 723c
00000130: 6866 cf3c 5222 803c 503c 4ebd ab7f abbc
00000140: f88b e73c 49fd 34bd f26e 43bd 1b1f e9bc
00000150: fcc0 1bbd cf17 803c 23c0 933c 14fa adbc
00000160: c52a 91bd 1c80 3dbd 9cd1 7136 6c50 1f3d
00000170: 63fd 29bd 9389 08bd a2af 5e3b 9dd8 9bbc
00000180: 4570 633b e349 ef3a addb 363d d977 0d3c
00000190: cfc0 8a3c 105d 11bd ef95 59bd e760 2139
000001a0: e3eb 7abc 3eaa c53c b87d d53b 0a9d de3c
000001b0: b3b5 b33a b58d 6bbc 5882 00bd 6211 5cbb
000001c0: 6542 24bd cdf9 933c fa7d b9bc a263 b6bc
000001d0: 134b e43c e12f a9bc 44ca 523c 6e3a 4c3c
000001e0: 3884 f7bb a634 41bc 642b 443d 7212 9abc
000001f0: f035 313c 86ce 483b f2bb e63b 12d8 cfbc
0.010239071 -0.013685711 0.0419035 -0.014865577 0.046997126 -0.021520145 -0.02768141 0.0073139127
0.005750785 -0.01799581 -0.04788055 0.024286062 0.014680558 -0.027846392 -0.054117035 0.012321349
-0.027268715 -0.031468913 -0.01108491 0.0019944843 -0.012343681 -0.02828529 -0.006122245 -0.027609434
-0.032960996 0.01834099 -0.00873376 -0.030585956 0.007989454 -0.0012994653 0.0026937006 0.037999358
0.04709329 0.054367427 -0.06644383 0.03270786 0.02728631 -0.011460956 -0.0002252894 -0.011952246
0.0051697223 0.040231243 -0.006503598 -0.0072770133 -0.014167729 -0.014964529 0.039691206 0.040842008
-0.021952664 0.053051993 0.035040647 -0.00874387 0.020227559 0.020366265 0.020841029 0.032161925
-0.021698216 -0.008364891 0.06553052 0.0058041816 -0.007882435 -0.026622634 -0.0023958238 -0.05616233
0.0047270493 0.032214183 -0.02767771 -0.008258361 -0.026435098 0.026658693 -0.03412065 0.04889411
-0.042519856 -0.020964026 -0.028273001 0.014809456 0.025317386 0.015641365 -0.050350487 -0.0209349
0.028264984 -0.044186864 -0.047713228 -0.028457215 -0.03802584 0.015636353 0.018035954 -0.02123741
-0.07088236 -0.046264753 3.6033807e-06 0.038895056 -0.041501414 -0.033334326 0.0033979197 -0.019024188
0.003470437 0.0018256273 0.044643093 0.008634531 0.016937641 -0.035489142 -0.053121503 0.00015390255
-0.015315029 0.02412903 0.006515231 0.027174491 0.0013710767 -0.014377047 -0.031374305 -0.0033579697
-0.04010238 0.01806345 -0.022643078 -0.022264306 0.02786783 -0.020652713 0.012865607 0.012465103
-0.0075536035 -0.0117923375 0.047892943 -0.018807624 0.010816082 0.0030640676 0.007041448 -0.025371585

network_body._body_endoder.seq_layers.0.weight f4 [128, 10]
00000000: e6cd 5bbc e096 9a3e dd8c 6f3e 6b5e 33be
00000010: 5333 b13e e391 143f fb43 a03e df3c ba3e
00000020: f29c 773e c21d e5bd b130 93bd 4a4a 13be
00000030: c511 6c3b dcde c5be 7f77 16bf 36ca 023f
00000040: 0396 d93e 8f5d 983d 5117 23be 927b f3bd
00000050: 6035 7cbe 9fc9 88bd 6b3c 063e 46b9 9ebd
00000060: 5cf1 5abe 41cf 18bf eae4 cabc 72b4 aabe
00000070: f059 b4be 2077 c73e 010c cebe 3001 16bf
00000080: 6772 c63d 3f0c 7a3c 274b 363e cb7b 123e
00000090: e053 7e3d 7267 4d3c fd3b 4e3f 8b64 c3bd
000000a0: 0869 e73d 996d ec3e 3306 123f 4819 c4be
000000b0: c9b1 813e e5a5 0dbf eb45 9bbe 8bdd 75be
000000c0: 0d6a 0d3b dce0 e43d b709 dc3e dbeb 833d
000000d0: aec4 bcbe 9c3c 6c3f 48c8 41be 33f1 983d
000000e0: 0f4f a2be 0a3c ba3e 4429 1ebe 8bc9 e23e
000000f0: 5e87 633e 21e8 10bf 617d a33e 4707 983e
00000100: 07a0 a2be 7bb2 2b3d e948 8f3e f1b0 cb3e
00000110: 93a1 c4be 5cc0 96bf a62e 553d 36e3 063f
00000120: 736d 693d 9c5a 833c 69a8 063f c09b c9be
00000130: 95f0 9dbe d169 e8bd 9f6c b6be 97e1 3bbe
00000140: 2160 74bd bad5 30bd 8a97 97be 2d3e 35be
00000150: fd2b 0fbf 3082 0a3f 5b76 b9be 63b1 31be
00000160: 0292 00bf 0ab2 183e 1720 e13e 72a8 b73d
00000170: 9b7f b03d 9198 113f 2d9c e5be 9663 3d3e
00000180: a2ef 47bd 3f1e de3c 502a 5a3e 42ec bf3d
00000190: ba49 25be 6377 213e 0f8a 0fbe 3151 61be
000001a0: e9ca b5be deff f63d 7cda 533e 3fca dd39
000001b0: 7ccb babe d8d2 0b3e c313 8fbe 7d80 36be
000001c0: 4246 b1be 37b2 ad3e 94ba f9be 94b6 d93d
000001d0: 75f1 58be aaa4 423f c4d7 e13e 681e 35be
000001e0: 60fc ddbd b18b 123f 90ca a73c bb4a a2be
000001f0: 8241 8dbe 7811 06bf 1146 61bd 151d 30bd
00000200: ea00 70bd 9b12 c2bd f025 28bd a7d0 703d
00000210: d19c edbd 60c5 b4be acaa d0be a712 21be
00000220: 4bc2 363e 3506 893c ecd6 023e 6e86 a6be
00000230: d18c 153f 701b 64bf b259 40bc 83f1 5fbe
00000240: 7d41 03be 61ac ef3d a6c7 ea3e 3c79 f53d
00000250: 703d 163e 0564 b73d 1d11 de3e d072 a7bc
00000260: 22d1 30bd 221e 3dbe 6630 7dbe c80c 043e
00000270: cf71 bdbe 314e c4be 1eac 713d 2dde b9bd
00000280: 3bc9 a03e 95f6 a63e ad8e 15be f2cb 79be
00000290: bdfc 1c3e fba1 0cbe 0c5c 13bd cf4a 90be
000002a0: c85d 93be 3fa6 afbd 544a 393e 741b 89bd
000002b0: 2764 573d 8914 c23e 953a bcbd 2657 2c3e
000002c0: 7a15 62be 9540 0fbd 7a32 ab3e 495b df3e
000002d0: b416 4bbe 7f5b 58bc 9f64 f9be 2096 973e
000002e0: ac1a 0cbe bacb 353e 5c97 4cbe 25c6 9fbe
000002f0: 62eb 9c3d 7743 48be f017 db3d 3769 9f3e
00000300: 112c ca3d 559b d9be f40b b93e 8f7a 1cbe
00000310: 6efd 13bb 373a 973c 2e54 e53e 06d1 73bc
00000320: aaaf acbc 0244 203d ae6a 26be 8006 a13d
00000330: 6df8 d13e 92d4 1dbb 9661 9c3e 503c 10be
00000340: ece1 7cbd b16e 8e3b b09c 343f d649 b7be
00000350: fd85 3cbe f207 4bbe ce79 2b3e 0a45 2c3e
00000360: dde0 3d3d beca 42bd 27ea 45be 59c6 853d
00000370: 77e2 aebe 9e94 3a3e 6f23 203f 63a4 ff3d
00000380: 8f52 00be d7ae b7be 4ed2 ebbc 757e acbe
00000390: 0be4 bfbe d1a8 2b3f 2cf4 163f 0618 be3e
000003a0: 6d00 8a3e 49de 123f 573a 123f bba5 c5be
000003b0: 9de1 cf3e c124 1dbf a532 e03d bfd2 ddbd
000003c0: e9fe c53e e4e9 4bbe 6301 18be d66e 9abd
000003d0: a303 2abd 9dca 7abe 6b9c 56bf 01fe 013e
000003e0: b9b8 56be ad09 30bf 1a5a 93be 749f 8ebe
000003f0: 888e b7bc 7765 603e 9166 66bc 597a 9a3e
-0.013415789 0.30193233 0.23393579 -0.17516486 0.3460947 0.58035105 0.31301865 0.36374566
0.24180964 -0.111873165 -0.071870215 -0.14383808 0.0036021334 -0.3864659 -0.58776087 0.510898
0.42497262 0.0743972 -0.15926863 -0.118888035 -0.24629736 -0.06679081 0.13108985 -0.07750182
-0.21381134 -0.59691244 -0.024767358 -0.33340794 -0.35224867 0.38958073 -0.40243533 -0.5859556
0.09689789 0.015261709 0.17802106 0.14305036 0.06209171 0.01253687 0.80560285 -0.095406614
0.1129933 0.46177366 0.5704071 -0.38300538 0.25330952 -0.5533126 -0.3032678 -0.24010293
0.0021578104 0.11175701 0.42976162 0.0644147 -0.36868805 0.9227998 -0.18924057 0.0746788
-0.31700942 0.3637393 -0.15445429 0.4429439 0.22219607 -0.566042 0.31931594 0.29693052
-0.31762716 0.04191826 0.27985314 0.39783433 -0.3840452 -1.1777453 0.05204644 0.52690446
0.056989145 0.016034417 0.52600724 -0.3937664 -0.30847612 -0.11348308 -0.35629746 -0.18347774
-0.05966199 -0.043172576 -0.29607803 -0.176995 -0.55926496 0.541049 -0.3622311 -0.17352824
-0.5022279 0.14911667 0.43969795 0.08967675 0.08618089 0.5687342 -0.44845715 0.1849502
-0.048812516 0.027114032 0.21305203 0.093712345 -0.16141406 0.15768199 -0.14017509 -0.22003628
-0.3550637 0.120605215 0.20688814 0.0004230309 -0.3648337 0.1365465 -0.27944764 -0.17822452
-0.34623915 0.3392503 -0.4877516 0.10630527 -0.21185859 0.7603251 0.4410993 -0.1768738
-0.10839152 0.572444 0.020482332 -0.3169764 -0.2758904 -0.52370405 -0.05499846 -0.042996485
-0.05859462 -0.09476205 -0.041051805 0.058792736 -0.11602176 -0.35306835 -0.40755212 -0.15729772
0.17847554 0.016726593 0.12777299 -0.32524437 0.58417994 -0.89104366 -0.011740135 -0.21869473
-0.1281795 0.117028005 0.45855445 0.11986014 0.14671874 0.08954624 0.4337243 -0.020440489
-0.043168195 -0.18468526 -0.24725494 0.128955 -0.37000892 -0.38340905 0.059002034 -0.0907558
0.31403527 0.32610002 -0.14605208 -0.24394205 0.15330787 -0.13733666 -0.035976455 -0.28182074
-0.28782487 -0.08576631 0.1809476 -0.066946894 0.052585747 0.37906292 -0.09190861 0.1683012
-0.22078505 -0.0349737 0.33436948 0.43624333 -0.1983288 -0.013205408 -0.4870958 0.29606724
-0.1368205 0.17753497 -0.19979614 -0.3120586 0.07662083 -0.19556986 0.10697925 0.3113496
0.09871686 -0.4250132 0.36141932 -0.15281127 -0.0022581476 0.018460376 0.44790787 -0.014881378
-0.021079857 0.039127357 -0.16251633 0.07862568 0.41009846 -0.0024083 0.30543202 -0.14085507
-0.061738893 0.0043466915 0.70551586 -0.3579852 -0.18410487 -0.1982725 0.16745684 0.16823211
0.046357024 -0.04755663 -0.19327603 0.065319724 -0.34157154 0.18220755 0.6255407 0.12482526
-0.12531494 -0.3587558 -0.028786805 -0.3369023 -0.3747867 0.6705447 0.58966327 0.37127703
0.2695345 0.5737043 0.5712027 -0.38603005 0.40601817 -0.61384207 0.1094716 -0.10831212
0.38671044 -0.19913441 -0.14844279 -0.075406715 -0.041507374 -0.24491353 -0.83832425 0.12694551
-0.20968904 -0.68764764 -0.2877968 -0.27856028 -0.022406831 0.21913706 -0.01406254 0.3017147

network_body._body_endoder.seq_layers.2.bias f4 [128]
00000000: 4205 babc a2f6 313b 14f2 a63c 7494 5dbb
00000010: 5708 97bd c522 443d 79d6 3ebd e165 89bc
00000020: f8b3 a03c da41 8bbc df1f b4bc 039d 8dbc
00000030: 24e1 3d3b 28f6 393c fd60 80bc 79af e1bc
00000040: 80dd 72bd 78d6 963c e3f1 c5bc fba7 823c
00000050: 1640 1c3d f87d 2dbd 9a1e 0cbc 8f9b 88bd
00000060: 15e5 17bd 2e10 a8bd 5f2d f93c 6f43 7b3c
00000070: cd76 d63c 2b3b b3bc b868 6a3d d0e2 563c
00000080: 65e5 bbbb 2fac d83c ee9a bcbc 69a3 2e3c
00000090: ee30 b23b 198c 933b 8f71 8c3b bfc6 6abd
000000a0: 98e8 163c 149d 9fbc c25e e1bc 4f81 47bc
000000b0: 24b8 5fbd 22bb a9bc a0d8 d4bc cef7 b6bb
000000c0: f3d8 eebc b12e c13c f985 dc3b 8e20 40bd
000000d0: 41cc 4a3c 78b0 36bc 9eef 25bd 59a8 6ebd
000000e0: 353c 24ba bca3 2fbc 41f5 f03b 29c9 89bc
000000f0: 59c6 01bd 6e24 d13c 4869 5fbb 9113 92bc
00000100: 4231 96bc b47b adba f2a1 4dbc ffc6 b53c
00000110: d6de 75bb 28de 90bd cb1a b0bd 1e88 0fbb
00000120: de30 323c e607 88bc b752 923b 313f 603b
00000130: a8c2 01bd 5f18 4dbd 981a 05bc c23b 69bd
00000140: a779 663c 47e0 ceba e534 513c 5099 95bd
00000150: dfc0 52bd c1b6 0bba 3aca 60bd 9426 40bd
00000160: 215f 21bd a83f d6bc 2540 96bc d142 be3c
00000170: 0ee1 9e3c 7597 35bb b038 9cbd 849d 37bc
00000180: 3ad3 44ba d8a9 8dbd 709d ab3c a172 c53c
00000190: 5ea1 cf3c 8d5c e03c b2f3 a6bc bfba d4bc
000001a0: 99fd 8b3c f36e 033d cd15 bf3b 4ae8 c3bc
000001b0: 2177 253d 31c9 2cbc 2377 cfbc 6b2f 6cbd
000001c0: 6da0 59bc 1c0d 9bbc e69f debb 88ed 8dbc
000001d0: 748c b63c 553e 8a3b 016a a4bc 7f01 eabc
000001e0: 541a ca3b ee74 4bbd f0af febc 791f 3ebd
000001f0: 0625 b2ba ae96 f5bb cd10 01bd 9fa2 0ebc
-0.022707585 0.0027155061 0.020379104 -0.0033810409 -0.073746376 0.04788472 -0.046591256 -0.016772212
0.019617066 -0.016999174 -0.021987854 -0.017286783 0.0028973306 0.011350192 -0.015671248 -0.027549492
-0.05929327 0.018412814 -0.024163192 0.01594924 0.038147055 -0.04235646 -0.008552218 -0.066702954
-0.037083704 -0.08206211 0.030417142 0.015335902 0.026179696 -0.0218788 0.057228774 0.0131156
-0.005734133 0.026449291 -0.023023095 0.010659077 0.005437962 0.004502785 0.004285998 -0.057318445
0.009210728 -0.01948408 -0.027511004 -0.012176826 -0.05461897 -0.020719115 -0.025982201 -0.00558374
-0.029156184 0.023581835 0.006729838 -0.046906047 0.0123777995 -0.011150472 -0.04051172 -0.058266018
-0.0006265075 -0.01072019 0.0073534553 -0.016819553 -0.0316833 0.025530066 -0.0034089852 -0.017831596
-0.018334035 -0.0013235719 -0.012550818 0.022189615 -0.0037516854 -0.07073623 -0.0859886 -0.00219012
0.010875909 -0.016605329 0.004465427 0.0034217353 -0.03167978 -0.05007207 -0.008124016 -0.056941755
0.01406709 -0.0015783393 0.012768959 -0.07304633 -0.051453467 -0.00053296617 -0.05488036 -0.04691179
-0.039397363 -0.0261534 -0.018341133 0.02322522 0.019394424 -0.0027708684 -0.07628 -0.011206988
-0.0007508282 -0.06917161 0.020949095 0.02410251 0.0253455 0.027387882 -0.020379875 -0.025967954
0.017088698 0.03208823 0.0058314563 -0.023914475 0.040396813 -0.010546015 -0.025325364 -0.05766241
-0.013282877 -0.01892715 -0.0067939637 -0.017325178 0.02228377 0.0042188563 -0.020070078 -0.028565167
0.0061676893 -0.04967206 -0.031089753 -0.046416733 -0.0013591356 -0.007494769 -0.031510163 -0.008705764

network_body._body_endoder.seq_layers.2.weight f4 [128, 128]
00000000: 0462 8cbc e426 353e 02ff 793d 72af ffbc
00000010: b391 6ebd 0441 abbb 959f febd 797c 4d3c
00000020: 7ccc 27bd 42b0 6cbd 28e4 2f3e 1cfd 953d
00000030: 6271 8ebd 9221 bdbd 962c e63d ebef b8bc
00000040: f8f2 d3bd 8584 14bd 93f7 01bd 5a26 af3d
00000050: ddf6 b7bc 2a6d a6bd f3c3 45be 5088 863d
00000060: a082 11be d600 09be 70c7 66bd 6fed 153d
00000070: 0cfe 483d a822 27be 0ae1 8e3c b844 b03c
00000080: b0df 07bd e193 83bd 76b0 b93d b267 c93d
00000090: 0deb e8bd d91f e2bc 8da9 04be 4fa1 1b3d
000000a0: 54c6 05be 647a 0e3e 5e1c cbbc 7a34 0dbe
000000b0: f22a 263d 4e82 803d e8d9 9f3d 95bd 2bbd
000000c0: 28f8 0bbe b1d4 7b3d 2275 06bc bae5 34bd
000000d0: b0e4 5abc 5d17 1dbe f8f4 c5bc 999d 82bd
000000e0: 55f5 24bd 90b1 67bd 2dc6 a63d f9fd 0b3e
000000f0: 3969 a1bd 944f e1bc 73ca d53c 7b98 a5bd
00000100: cb54 1bbe dbb0 90bd c060 573d 3728 0ebe
00000110: 77aa d33d 0d68 a2bd 4274 8bbc 1a3f 423c
00000120: 7c74 0cbd b85f c63c 0b03 513e 0e66 22bd
00000130: e98d 253e 1626 d43d ed10 debd 35fe 2f3d
00000140: 07f2 3b3d 0ea5 25be ae9e 3abd 834c e73c
00000150: 64c0 503d 9d8c 233e a141 4dbe 97e0 9dbd
00000160: 152f 8c3c 5833 203d 970f efbc ee6d 1bbd
00000170: 1e0a b6bd 5a05 f9bc 869e fdbd 995b b43d
00000180: 65bb b93d 8f69 9e3d cfde cdbd cea7 28bd
00000190: cb55 07bd 1529 82bb 10f8 523d b073 3cbe
000001a0: d0af 6ebe c7cf 25bc 5b2f 2f3d 4c26 ff3c
000001b0: 37ca 87bd a342 93bd 2583 a0bd b5d4 1b3d
000001c0: 7122 14be 3763 ff3d b374 e2bc 2b24 d73c
000001d0: 1d3b 53bc 66dc 1f3d 0cdd d3bb 8775 ebba
000001e0: f70b 65bd 8ee8 aa3d 63d1 32be 6a7d 88bd
000001f0: 5a76 293d bdca 74bd 1482 2e3e 0000 11bd
00000200: ef84 20bd 9863 bb3c 3a9c ecbd e231 4fbb
00000210: f7de aebd eb17 15bd 673b 6a3d c7ad f13a
00000220: f01c 63be c817 223e 85a0 f3bd 0e09 f8bc
00000230: 71f5 093d d177 563d e6e8 fe3c 4b26 293c
00000240: f18e 10be 6fcf 293e 4db5 aa3c f3c3 99bd
00000250: 0f34 023e e251 f6bd f8a1 2dba aaec 44be
00000260: c697 bb3d 3ff3 033d 6028 0e3d a72b 293d
00000270: 9cb1 7cbb 7cc0 71bd 8412 1b3d 6d64 8f3c
00000280: 518b 96bd b619 6c3d 7e9b d6bb 76a9 79bd
00000290: 5b39 37bd ada4 523d 2caa 4c3d 48b0 aabd
000002a0: 5e27 733d eb1c 123e 6458 7bbd cc88 493c
000002b0: d95c a7bd 4d2e 183e dcc3 ef3d 427c ee3b
000002c0: 15dc c93c dbd1 0abd e4ed c4bc 420a eb3c
000002d0: 67c2 edbd 4fe2 7dbd 0c72 043e fce1 0abe
000002e0: 41a9 023e 9eed 003e e3db e73d 3b6d 093d
000002f0: 24ff 0f3d b666 dcbd 2552 8bbd ed82 383e
00000300: 0f1a 25bd ccb3 17bd eff6 4fbc 0c2b fbbd
00000310: 17e3 93bd 02d1 b7bb 40a5 d73c 2ad8 d03d
00000320: c6d8 ae3c 266b 0abe 9a32 233d d05c 20bd
00000330: 091d 54bd ab28 89bd 6c08 bbbc 81dd 67bd
00000340: 321c 523e f5ae 523e 5380 b73d b9f1 553d
00000350: 7d11 843d 043b 1d3e 06f7 9abc 887c 673c
00000360: 32dc ba3d a5d6 423e 7765 b63d 7818 14bc
00000370: 5f61 91bd fb05 fbbc d381 023d ecd6 293e
00000380: 175e abbd 3c24 6ebd 7dd5 85bd ecb6 b73d
00000390: ec15 c3bb 7bef 22be 540c 85bc fec8 a7bd
000003a0: 06af bbbb d240 b9bd cf3a 043d dde6 89bc
000003b0: d0bd 363d 3366 a7bd 7132 09be d6ea 56bd
000003c0: fe8e 2fbc d133 9ebc 5e70 423e 600e b13d
000003d0: 720b fcbd 4e6d acbd e973 c83d 1e7f 573c
000003e0: 1ba1 393a a78c 83bc 449f 6abd d360 60bd
000003f0: a259 ffbd 1c62 38bd e4c6 c9bd 26a5 6e3c
-0.017136581 0.17690617 0.06103421 -0.031211589 -0.05824442 -0.0052262563 -0.124327816 0.012541884
-0.040966496 -0.05778528 0.17176878 0.073236674 -0.0695522 -0.09234919 0.11238973 -0.02257534
-0.10349077 -0.036259193 -0.031730246 0.08552237 -0.02245658 -0.0812629 -0.1931303 0.06568968
-0.14209986 -0.13379225 -0.056342542 0.036603387 0.049070403 -0.16321814 0.017441291 0.021517143
-0.03317231 -0.0642469 0.090668604 0.098342314 -0.113729574 -0.027603077 -0.12955303 0.037995633
-0.13063937 0.13913876 -0.0247938 -0.1378955 0.0405683 0.06274854 0.07805234 -0.041928846
-0.13668883 0.061482135 -0.008206638 -0.044164397 -0.013360187 -0.15340944 -0.024164662 -0.063777156
-0.04027303 -0.05656582 0.08143268 0.13671102 -0.07881398 -0.027503766 0.026097512 -0.08085724
-0.15169065 -0.070649825 0.052582502 -0.13882528 0.10335248 -0.07930002 -0.01702321 0.011855865
-0.034290776 0.024215564 0.20411317 -0.03964811 0.16167416 0.10358827 -0.10843072 0.04296704
0.045885112 -0.16176245 -0.045561485 0.028234726 0.050964728 0.15971608 -0.20044567 -0.07708853
0.017112294 0.039111465 -0.029182239 -0.037946634 -0.088886485 -0.03039806 -0.123837516 0.08806533
0.09068946 0.077349775 -0.10052263 -0.041175656 -0.033040803 -0.0039721825 0.051506102 -0.18403506
-0.23309255 -0.010120339 0.04276977 0.031146191 -0.06630366 -0.07190444 -0.07837514 0.03804465
-0.14466263 0.124700956 -0.027643537 0.026262363 -0.012892512 0.039028548 -0.00646556 -0.0017964103
-0.055919614 0.083451375 -0.17462687 -0.06664546 0.041372634 -0.05976366 0.17041808 -0.03540039
-0.039189275 0.022874638 -0.11553235 -0.0031615426 -0.08538621 -0.036399763 0.057185557 0.001843863
-0.22179008 0.15829384 -0.11895851 -0.030277755 0.033681337 0.05236036 0.031116914 0.010324071
-0.14117028 0.16583036 0.020838404 -0.075080775 0.12715171 -0.12027337 -0.00066235615 -0.19230905
0.09159808 0.0322144 0.034706473 0.041301396 -0.0038558012 -0.059021458 0.037859455 0.017503941
-0.07350791 0.057641707 -0.006549298 -0.060952626 -0.044732433 0.05142658 0.049966976 -0.08334404
0.059363715 0.14268844 -0.061363593 0.012300681 -0.08172006 0.14861412 0.11707279 0.0072779963
0.024641076 -0.03389154 -0.024039216 0.028691415 -0.11609345 -0.061983403 0.1293413 -0.13562769
0.12759878 0.12590644 0.11321237 0.033551436 0.03515543 -0.10761778 -0.06802777 0.18018694
-0.040308055 -0.037036702 -0.012693151 -0.1226407 -0.07221048 -0.0056096325 0.026323915 0.1019748
0.0213436 -0.13517436 0.03984318 -0.039151013 -0.051785503 -0.0669721 -0.022831164 -0.056607727
0.20518568 0.20574553 0.08960023 0.052232478 0.06448648 0.15354544 -0.018916618 0.014128812
0.0912403 0.19027193 0.08906072 -0.009039037 -0.0709865 -0.0306425 0.03186209 0.16585892
-0.083675556 -0.058140025 -0.0653486 0.089704365 -0.005953541 -0.15911667 -0.01624123 -0.08192633
-0.0057276515 -0.090455666 0.032282647 -0.016833717 0.044614613 -0.0817379 -0.13398148 -0.05247005
-0.010715244 -0.019311817 0.18988177 0.0864532 -0.123068705 -0.08419286 0.09787733 0.013152866
0.00070811965 -0.01605828 -0.057280794 -0.05477984 -0.12468268 -0.04501544 -0.098523885 0.014565742

network_body.observation_encoder.processors.0.normalizer.running_mean f4 [10]
00000000: ce86 ce40 f914 00bc d276 cdbf 059b 0340
00000010: 5591 0abd 0622 0b40 58db 4fbb 2bdb 19bb
00000020: 2175 15bc c905 833c
6.4539557 -0.0078175 -1.6051886 2.0563366 -0.033830006 2.1739516 -0.0031716432 -0.0023476582
-0.009122164 0.01599397
