Assets/weights/Santa.onnx (onnx, 73994 bytes, 9 tensors)

50 f4 [8]
0	0x4012e74e	2.2953677
1	0x3b3b3cca	0.0028570169
2	0x4019d67f	2.4037168
3	0x40082c52	2.127705
4	0x3cba5a4e	0.022748139
5	0x4007fd70	2.1248436
6	0x3b2be37c	0.002622812
7	0x3b2d4227	0.0026437135

action_model._continuous_distribution.log_sigma f4 [1, 2]
0	0xbda2ed7e	-0.07955454
1	0xbd541a8b	-0.051783126

action_model._continuous_distribution.mu.bias f4 [2]
0	0x3b3690e7	0.0027857365
1	0x3c03df8e	0.008048905

action_model._continuous_distribution.mu.weight f4 [2, 128]
0	0x3d81987e	0.06327914
1	0xbc8e2ac3	-0.017354375
2	0x3c431ec4	0.011909191
3	0xbcbe433c	-0.02322542
4	0x3d8d1e51	0.06890548
5	0x39a166ca	0.00030784897
6	0xbb33b0fa	-0.0027418719
7	0x3c185e3f	0.009299814
8	0xbd6d4b6e	-0.057933263
9	0x3d1dd3df	0.038532134
10	0x3c7c463c	0.015397605
11	0x3be1c203	0.006889583
12	0xbccff398	-0.02538471
13	0x3c003b69	0.0078266645
14	0xbbdf9915	-0.0068236687
15	0xbd250b99	-0.040294264
16	0xbd00a4ca	-0.031407155
17	0xbd0084ea	-0.031376757
18	0x3c8c3ae7	0.01711793
19	0xbc6c7258	-0.014431559
20	0x3cc35b7e	0.023847338
21	0x3c84c245	0.016205916
22	0xbd0fd1ac	-0.035112068
23	0x3d10008e	0.03515678
24	0x3d27afb2	0.04093904
25	0x3ca15a19	0.019696282
26	0x3d4a664b	0.04941396
27	0x3b0eeff7	0.002181051
28	0xbbaa1899	-0.0051909206
29	0x3d048824	0.032356396
30	0x3d344f4d	0.04402094
31	0xbc36c05e	-0.011154262
32	0xbd24da0e	-0.040247016
33	0x3d3eb4e1	0.04655922
34	0xbc61013a	-0.013733203
35	0xbd53c892	-0.05170495
36	0x3d87fabf	0.06639623
37	0xbc25e850	-0.010126188
38	0xbbbc8634	-0.005753303
39	0x3c178c38	0.009249739
40	0xba8a08df	-0.0010531208
41	0x3dba0abb	0.09084078
42	0x3cdf13d0	0.027231127
43	0xbc8b3c91	-0.016996654
44	0x3cbf858f	0.023379115
45	0x3c62331c	0.013806131
46	0x3d980fdc	0.074249
47	0x3ce6fa47	0.028195513
48	0x3d6f41c5	0.058412332
49	0x3d06e40f	0.032932337
50	0x3a5f48f5	0.00085176463
51	0x3c905af2	0.017621491
52	0x3d13f693	0.036123823
53	0xbd10acdc	-0.0353211
54	0xbc52327b	-0.012829418
55	0x3bf70f58	0.007539671
56	0xbd1e1bdd	-0.03860079
57	0x3d53faf0	0.051752985
58	0xbd0bc8b0	-0.034126937
59	0x3b49b3f4	0.0030777426
60	0x3bad32d7	0.0052856016
61	0xbc686a43	-0.014185491
62	0xbc11c95a	-0.008898104
63	0xbae48ef3	-0.0017437622
64	0xbc905448	-0.017618313
65	0xbdace154	-0.084414154
66	0xbd12d411	-0.035846774
67	0xbcc18769	-0.023624139
68	0x3c7111e5	0.014713739
69	0xbd69ec06	-0.057109855
70	0xbd97ce7c	-0.07412431
71	0xbc11804d	-0.008880687
72	0xbd67bded	-0.05657761
73	0xbc5279ee	-0.012846453
74	0x3d19294c	0.0373929
75	0xbce04d00	-0.027380466
76	0xbb36cfca	-0.0027894848
77	0x3b4915e8	0.0030683223
78	0xbcb60f73	-0.022224164
79	0xbd3c7d4b	-0.046017926
80	0xba66ffbd	-0.00088119117
81	0x3d51d9e6	0.051233195
82	0x3ce2dabb	0.02769219
83	0x3d2e435b	0.042544704
84	0xbd25cf96	-0.040481173
85	0xba3d079d	-0.00072109123
86	0xbbe353e3	-0.0069374903
87	0xbb871fcb	-0.004123663
88	0xbbd76eee	-0.006574503
89	0x3d4c6457	0.04990038
90	0xbc83c807	-0.016086591
91	0xbc92d616	-0.01792435
92	0xbcb32da1	-0.021872343
93	0x3d4b011a	0.049561597
94	0x3bb6fe45	0.0055845105
95	0x3b818f01	0.003953815
96	0xbc044b8a	-0.008074651
97	0xbbff6043	-0.0077934577
98	0xbd27a4a3	-0.040928494
99	0x3c8b5cd7	0.017012043
100	0xbb717aff	-0.0036846993
101	0x3cb390b7	0.021919591
102	0xbb1cbddd	-0.0023916878
103	0xbcf9a621	-0.030474724
104	0xbd6a289a	-0.057167627
105	0xbc219691	-0.009862558
106	0x3bfe7e32	0.0077665085
107	0x3b1f847f	0.0024340448
108	0xba726874	-0.0009247132
109	0xbb12c917	-0.002239769
110	0x3c07eb4a	0.008295843
111	0xbc7685ef	-0.015046581
112	0xbaa6f5fc	-0.0012738104
113	0x3b87b2ae	0.0041411733
114	0xbc22c1da	-0.009933913
115	0x3b7940f3	0.0038033098
116	0xbd8c1e4a	-0.06841715
117	0xbc47070c	-0.012147676
118	0x38d96815	0.00010366753
119	0x3d484129	0.048890267
120	0x3b8af71b	0.004240883
121	0xbbeb51f5	-0.007181401
122	0x3b4da63c	0.00313796
123	0xbd271441	-0.0407908
124	0x3bafbb16	0.0053628786
125	0xbd00e9a2	-0.03147281
126	0x3d0df67b	0.03465889
127	0xbd35d228	-0.044389874
128	0xbd1833b4	-0.037158683
129	0xbc2f9333	-0.010716247
130	0x3d32dbdb	0.0436667
131	0x3c547c69	0.012969115
132	0x3bd2fe2b	0.0064389906
133	0xbd54ea9c	-0.051981553
134	0x3d4b8e19	0.04969606
135	0xbba61a3d	-0.005069046
136	0x3d1b401a	0.03790293
137	0x3d4632f1	0.048388425
138	0xbc84ef44	-0.016227372
139	0xbce751e1	-0.028237285
140	0xbd09aaa3	-0.033609997
141	0x3cf5d7eb	0.030010184
142	0x3d11cab7	0.035593715
143	0x3caafd39	0.0208727
144	0xb9177690	-0.0001444465
145	0x3da6b28f	0.08139526
146	0x3d8b2128	0.067934334
147	0xbabef82e	-0.0014569813
148	0x3cccfca8	0.02502282
149	0xbd1e6574	-0.038670972
150	0xbd265d03	-0.040616047
151	0xbda89d05	-0.08233074
152	0x3d0b8124	0.034058705
153	0x3dc32191	0.09527887
154	0x3b930d91	0.004487701
155	0x3d944df1	0.07241429
156	0x3b1cd074	0.0023927959
157	0x3cd2bbb1	0.025724264
158	0x3cd6392d	0.02615031
159	0xbd5d602f	-0.054046806
160	0x3d4af769	0.049552355
161	0x3d518edb	0.05116163
162	0xbd0e8cbb	-0.03480218
163	0x383459f7	4.299913e-05
164	0xbd8a1de4	-0.067439824
165	0x3c94819f	0.018128214
166	0x3d0637ad	0.03276794
167	0xbd3b1ead	-0.04568355
168	0xbbc09c0c	-0.0058779772
169	0x3d0e7f2d	0.034789253
170	0x3d487c2c	0.048946545
171	0x3ceb5299	0.02872591
172	0xbcc97b1a	-0.024594832
173	0x3d07c379	0.0331454
174	0xbd380bf3	-0.04493327
175	0xbb4a8b49	-0.0030905774
176	0x3da82cab	0.08211645
177	0x3d014ea4	0.03156914
178	0xbd3ebbea	-0.046565928
179	0xbd0dfef4	-0.03466697
180	0x3d180d6a	0.037122168
181	0x3cacdde2	0.021101896
182	0x3ccd0863	0.025028413
183	0x3c83e3fe	0.016099926
184	0xbcc6209a	-0.024185468
185	0xbd47f68a	-0.048819102
186	0xbd1d6503	-0.03842641
187	0x3cad157d	0.02112841
188	0xbb839997	-0.004016112
189	0x3d0b0815	0.033943255
190	0xbc5f4ef9	-0.013629668
191	0x3d51b054	0.05119355
192	0x3d13bf3b	0.036071043
193	0x3a85f110	0.0010218937
194	0x3d4806d4	0.048834637
195	0xbd0b66c1	-0.03403354
196	0x3d6e7889	0.05822042
197	0xbbec1795	-0.0072049596
198	0xbc9fa225	-0.019486496
199	0x3bcc0c0d	0.0062270225
200	0x3c557941	0.013029397
201	0xbb4a8d59	-0.0030907004
202	0xbd1e2ee3	-0.038618933
203	0x3bd05d8f	0.0063588093
204	0x3c60fdb5	0.0137323635
205	0x3bca3db4	0.0061719064
206	0x3d945bc3	0.07244065
207	0x3cd9aeb7	0.026572568
208	0x3cbcffff	0.023071287
209	0xbc898ce8	-0.016790822
210	0x3d05cdab	0.032666843
211	0x3d535bf0	0.05160135
212	0x3bce0995	0.0062877634
213	0xbc87acc7	-0.016561879
214	0xbca12f6c	-0.019675933
215	0x3d545bb4	0.051845267
216	0xbc596da5	-0.01327077
217	0xbd905bbe	-0.070487484
218	0x3d1c045b	0.03809009
219	0x3b9ad11e	0.0047246357
220	0x3d12beeb	0.035826605
221	0x3d60f9fa	0.054925896
222	0xbd92aae4	-0.07161501
223	0xbcc224aa	-0.023699123
224	0xbd872116	-0.065981075
225	0xbc2641b7	-0.010147504
226	0xbaca71da	-0.0015445307
227	0x3bd6a9c2	0.0065509984
228	0x3c3246c3	0.010881129
229	0x3c88bc5f	0.016691385
230	0x3ccc5f95	0.02494792
231	0x3c4da208	0.012550838
232	0x3b666333	0.0035154342
233	0x3c64e71f	0.013971119
234	0xbd0950a4	-0.03352417
235	0xbbaeff08	-0.0053404607
236	0x3c5ea384	0.01358879
237	0xbd52e607	-0.051488902
238	0x3cc137f4	0.02358625
239	0x3c00f5a0	0.007871062
240	0xbd372978	-0.044717282
241	0x3d0d2241	0.034456495
242	0xb9dd05a8	-0.0004215662
243	0x3d884082	0.06652929
244	0xbbcf73a9	-0.0063309264
245	0x3c85caa5	0.01633198
246	0xbb24d1fd	-0.0025149577
247	0xbb5ff299	-0.00341717
248	0xbc407222	-0.011745961
249	0x3cf613ed	0.030038798
250	0xbcefdf7a	-0.029281367
251	0x3d30e950	0.043191254
252	0x3bfbae17	0.0076806652
253	0xbc909cbb	-0.01765286
254	0x3d04c78c	0.032416865
255	0xbc2765e6	-0.010217166

network_body._body_endoder.seq_layers.0.bias f4 [128]
0	0xbd807eba	-0.06274171
1	0x3c05f8c1	0.008176983
2	0xbc7381aa	-0.014862457
3	0xbdc32173	-0.09527864
4	0xbb361ad6	-0.0027786992
5	0xbd51ab3f	-0.051188704
6	0xbab6e4a6	-0.0013953641
7	0x3c6c7e37	0.014434389
8	0x3d43066c	0.047613546
9	0xbb64d46e	-0.0034916657
10	0xbc2d381d	-0.0105724605
11	0x3c1f4fd7	0.009723625
12	0x3b4d2e32	0.0031308052
13	0xbd330eda	-0.043715335
14	0xbdf7702f	-0.12081944
15	0x3d56846c	0.05237238
16	0x3d96abdc	0.07356998
17	0x3ada32ad	0.0016647183
18	0x3d0b26bb	0.033972483
19	0x3c846abe	0.01616418
20	0xbdb8fcf4	-0.09032622
21	0xbd09e4ca	-0.033665456
22	0xbd37816b	-0.044801157
23	0x3d750fce	0.059829526
24	0x3c09a00d	0.0083999755
25	0xbdcbeab8	-0.099568784
26	0x3caefecf	0.021361737
27	0xb9950132	-0.00028420385
28	0x3c8ea898	0.017414376
29	0x3bec2e75	0.0072076865
30	0x3d70f851	0.058830563
31	0x3ba44696	0.0050132973
32	0xbd6be972	-0.057595678
33	0x3dc31f19	0.09527416
34	0x3c47589d	0.012167123
35	0xbd6ef8a8	-0.058342606
36	0xbd82c9b6	-0.063861296
37	0xbd55b33e	-0.05217289
38	0x3c90e955	0.017689386
39	0x3d4166f4	0.047217324
40	0xbc5acf2a	-0.013355056
41	0x3d7e456a	0.062077917
42	0xbc2f575a	-0.010701979
43	0xbc752eb4	-0.014964748
44	0xba11d419	-0.0005562916
45	0xbc1bbc03	-0.009505275
46	0x3d93ae3d	0.07210968
47	0xbd922541	-0.07136012
48	0xbcef2430	-0.02919206
49	0x3c717ab5	0.014738728
50	0x3c85360b	0.016261121
51	0xbd846dc9	-0.06466252
52	0xbe05a756	-0.13052115
53	0x3c011b7c	0.007880088
54	0xbc813109	-0.015770452
55	0x3d50f245	0.051012296
56	0x3c2d9cf6	0.010596504
57	0xbdae4144	-0.08508542
58	0xbd876fbe	-0.0661311
59	0xbd2ddc5d	-0.042446483
60	0xbc905624	-0.0176192
61	0xbd21e022	-0.03952039
62	0xbd6412ec	-0.055682108
63	0xbca070b8	-0.019584998
64	0x3c8069b7	0.015675409
65	0x3cf0d753	0.02939955
66	0xbcc334fb	-0.023828974
67	0xbd394f1e	-0.045241468
68	0xbcf73d6c	-0.030180655
69	0x3cfce2a6	0.030869793
70	0x3d4a7c89	0.049435172
71	0xbda5d803	-0.080978416
72	0xbd90042b	-0.07032045
73	0x39c71f7c	0.00037979695
74	0x3d1a074e	0.037604623
75	0x3ce583f0	0.028017014
76	0x3ccd75ac	0.025080524
77	0x3d6b479b	0.057441335
78	0xbcdd0267	-0.026978685
79	0x3c9075be	0.017634269
80	0x3d01d19c	0.03169404
81	0x3dbfaf79	0.09359641
82	0x3d8c7796	0.06858747
83	0x3ccc853f	0.02496588
84	0x3d83138c	0.06400213
85	0xbd8e0758	-0.069349945
86	0x3d5ae8b6	0.053444587
87	0xbcd7a753	-0.026324904
88	0xbd0625c4	-0.03275086
89	0xbc41a053	-0.011818009
90	0x3dd23621	0.102642305
91	0x3d97a1de	0.074039206
92	0xbcb516d1	-0.022105606
93	0xbd131142	-0.03590513
94	0xbcf41b3e	-0.029798146
95	0xbc2f3a05	-0.010694985
96	0xbd0eb615	-0.034841616
97	0xbccce816	-0.025013011
98	0x3d77feab	0.060545605
99	0xbaed118d	-0.0018086896
100	0xbd18bae1	-0.037287597
101	0x3b38273f	0.0028099564
102	0xbde0aae4	-0.10970095
103	0xbd643a81	-0.055719856
104	0xbd6d7f4b	-0.057982724
105	0xbcd75869	-0.026287274
106	0xbb1d2b57	-0.0023982131
107	0xbd031561	-0.03200281
108	0xbd8f5904	-0.069994
109	0x3d4e1273	0.050310563
110	0xbd3133be	-0.043262236
111	0x3d115df4	0.03548999
112	0xbc9dba49	-0.019253867
113	0xbd793132	-0.060837932
114	0xbde325cf	-0.11091196
115	0xbb655ccb	-0.0034997936
116	0xbc9c9fb1	-0.019119116
117	0xbd3c0cf8	-0.045910805
118	0xbbcef11d	-0.006315364
119	0x3d76f3fc	0.060291275
120	0x3cc74da6	0.024329018
121	0xbc00db31	-0.007864759
122	0x3bbadc6e	0.005702547
123	0xbd12697b	-0.035745125
124	0xbda0a58b	-0.07844075
125	0xbd9946ff	-0.074842446
126	0xbcf04089	-0.029327648
127	0x3d8dc162	0.069216505

network_body._body_endoder.seq_layers.0.weight f4 [128, 8]
0	0x3e0176a2	0.12642911
1	0x3ed37a31	0.41304162
2	0xbcdda821	-0.02705771
3	0xbd966728	-0.07343894
4	0x3eacf778	0.33782554
5	0x3f0dbeb6	0.55369127
6	0x3f01b40b	0.5066535
7	0x3f02e628	0.5113244
8	0x3f0defb9	0.5544391
9	0x3f021884	0.5081866
10	0xbee5ab30	-0.44857168
11	0xbeec395d	-0.46137515
12	0x3e9063a5	0.28201023
13	0xbc3f0532	-0.0116589535
14	0xbd53958e	-0.0516563
15	0x3cc56cb6	0.024099689
16	0xbea9d4da	-0.33170205
17	0x3eb303c0	0.349638
18	0xbf067791	-0.52526194
19	0x3daf5c01	0.0856247
20	0xbe530dd0	-0.20610738
21	0x3eb415f6	0.35173005
22	0xbe351a2b	-0.17685764
23	0xbe473947	-0.19455443
24	0x3c94e250	0.01817432
25	0xbd6f4146	-0.05841186
26	0xbe2bdaa0	-0.16782618
27	0xbda5422f	-0.08069264
28	0xbe98c9b7	-0.29841396
29	0x3f280f49	0.65648323
30	0x3daf6811	0.08564771
31	0xbe2ed5fd	-0.17073818
32	0x3f24355f	0.6414394
33	0xbe7b0855	-0.24514897
34	0x3e64dfaf	0.22350954
35	0xbd5012b6	-0.050799094
36	0xbe687963	-0.22702555
37	0x3f4712d2	0.7776309
38	0x3d42264c	0.047399804
39	0x3ed075e4	0.40714943
40	0x3dbd43e5	0.092414655
41	0xbf2d0c51	-0.6759692
42	0x3f0f0338	0.55864286
43	0xbf242473	-0.6411812
44	0xbf01477a	-0.5049969
45	0x3e411465	0.18855436
46	0xbebd6cf9	-0.36997202
47	0xbc1addc8	-0.009452291
48	0xbef61304	-0.48061383
49	0x3f4eb3f2	0.80743325
50	0xbfc3610f	-1.5263995
51	0xbe9eaafe	-0.30989832
52	0x3c909478	0.01764892
53	0xbeb42187	-0.3518183
54	0xbe1ab1f2	-0.15106943
55	0xbd6654fd	-0.056233395
56	0x3e5072b1	0.20356251
57	0xbcff34e4	-0.03115315
58	0xbef15065	-0.4713165
59	0x3f80cab4	1.006186
60	0xbf06a0dc	-0.525892
61	0x3e323616	0.17403445
62	0xbe457f8d	-0.19286938
63	0x3e57a27d	0.21058078
64	0xbebeb13f	-0.37244603
65	0xbf5aceeb	-0.8547198
66	0x3f253e70	0.645484
67	0x3e43bd61	0.19115211
68	0x3f464d9a	0.7746216
69	0xbef900f6	-0.48633546
70	0x3ee9f356	0.45693463
71	0x3e99dcbd	0.30051222
72	0xbcd8ce18	-0.02646546
73	0xbe42d0da	-0.19024983
74	0xbd9c9faa	-0.07647641
75	0x3e0b9661	0.13631584
76	0x3e01c2c0	0.12671947
77	0x3ef24469	0.47317818
78	0x3e639d95	0.22228082
79	0x3dbce503	0.09223368
80	0x3eece4c7	0.46268293
81	0xbf000b1d	-0.5001696
82	0xbd089f73	-0.033355188
83	0x3ebdc11c	0.37061393
84	0xbe274c6a	-0.16337743
85	0x3e41228f	0.1886084
86	0x3ebb646d	0.36600056
87	0x3a80db58	0.0009830995
88	0xbef67ee0	-0.48143673
89	0xbe89e030	-0.26928854
90	0x3e3ad92c	0.18246907
91	0x3eed7888	0.4638102
92	0x3f09e9bd	0.5387228
93	0xbe3c1914	-0.18368942
94	0xbe5c4865	-0.21511991
95	0xbe2caa5e	-0.16861865
96	0xbef24933	-0.47321472
97	0x3dee2e66	0.116299435
98	0xbf04ffc2	-0.51952755
99	0x3ed95ed1	0.42455152
100	0x3e666423	0.22499137
101	0xbf23fb4f	-0.6405534
102	0x3ce9398e	0.028469827
103	0x3e6df323	0.2323728
104	0xbe998975	-0.29987684
105	0x3e21ddc2	0.1580725
106	0xbdd4556d	-0.10367856
107	0x3e1f63bf	0.15565394
108	0x3e505564	0.20345074
109	0xbd8e1282	-0.06937124
110	0xbec2ca50	-0.38044977
111	0x3e63769b	0.22213213
112	0x3e908a79	0.28230646
113	0xbefe8b58	-0.49715686
114	0x3e1ed95c	0.15512604
115	0xbda20e76	-0.079129145
116	0xbf1cd863	-0.6126768
117	0xbce7d665	-0.028300473
118	0x3d033051	0.0320285
119	0xbdd0249f	-0.10163235
120	0x3ec0c71d	0.3765191
121	0xbebc5100	-0.36780548
122	0x3f1fd1cd	0.62429506
123	0xbe1d1bac	-0.15342587
124	0xbd1fd42a	-0.039020695
125	0xbe57d673	-0.210779
126	0x3bbf9ab2	0.0058472985
127	0xbe9b5dbd	-0.30344954
128	0x3e0162be	0.12635323
129	0xbe099d98	-0.13439023
130	0x3cd4ac0e	0.025960948
131	0x3ef60ea8	0.48058057
132	0x3d32e3d7	0.043674316
133	0xbf49af4d	-0.7878311
134	0x3eb08e9a	0.34483796
135	0xbf20128c	-0.625283
136	0xbee9ccfb	-0.456642
137	0x3eaa38ed	0.33246556
138	0x3d9bbc37	0.076042585
139	0xbda7de22	-0.08196665
140	0xbcbdda11	-0.023175271
141	0xbec4d8f0	-0.3844676
142	0x3ec74528	0.3891995
143	0xbe9520b5	-0.29126516
144	0xbe930f55	-0.28722635
145	0x3c95e3b0	0.018297046
146	0x3ea0bd3f	0.31394383
147	0xbd0ce7bb	-0.034400683
148	0x3ebc70eb	0.368049
149	0x3ebacecd	0.364859
150	0x3f4f06e0	0.80869865
151	0x3be29860	0.006915137
152	0xbf73530d	-0.950486
153	0xbefb4665	-0.49077144
154	0xbe5c9984	-0.21542937
155	0x3ebca3e2	0.36843783
156	0x3cd4b1b7	0.025963647
157	0xbed79521	-0.42105964
158	0x3ee9755b	0.45597348
159	0xbd907297	-0.07053106
160	0xbe3364a0	-0.17518854
161	0xbf0a87b5	-0.5411332
162	0x3e4097e9	0.18807949
163	0xbd92331a	-0.07138653
164	0xbf39b1ac	-0.7253673
165	0x3e85e649	0.26152256
166	0x3ec51657	0.38493606
167	0xbe475712	-0.19466808
168	0x3dd86465	0.10566024
169	0x3f060017	0.5234389
170	0xbe877608	-0.26457238
171	0xbe855fda	-0.2604969
172	0xbd26c793	-0.040717673
173	0x3c44ca32	0.012011098
174	0x3e4ab55d	0.19795747
175	0x3ed985bb	0.4248484
176	0xbe0ead13	-0.1393321
177	0xbe9580a7	-0.29199716
178	0xbe02c49b	-0.12770312
179	0xbec8b2c7	-0.39198896
180	0x3ec84875	0.3911778
181	0x3e2a7074	0.1664446
182	0x3e8fc35f	0.28078744
183	0xbe44e3b2	-0.19227484
184	0x3f42cc02	0.7609254
185	0x3f0787c8	0.5294156
186	0x3d24e2b7	0.040255275
187	0xbe2ce0a6	-0.16882572
188	0x3eb9bbc8	0.36276078
189	0xbf2f2bcf	-0.6842622
190	0xbecfbc6d	-0.40573445
191	0x3daac3ac	0.08338103
192	0xbf0f7c75	-0.5604928
193	0x3eb45da8	0.35227704
194	0xbed9bab5	-0.4252526
195	0x3e88d1f4	0.26722682
196	0x3eadb93e	0.3393039
197	0xbdf6a3bc	-0.120429486
198	0xbe00974b	-0.12557714
199	0xbf19f2e9	-0.60136276
200	0xbdf9bc2c	-0.12194094
201	0xba42dcc2	-0.0007433408
202	0x3d46c9d8	0.048532337
203	0xbcb0bb37	-0.021573646
204	0xbec7be6b	-0.39012465
205	0xbf1e875f	-0.6192531
206	0xbe5aadfd	-0.21355434
207	0xbde6e304	-0.112737685
208	0x3f0b5d49	0.54439217
209	0xbdaa14b6	-0.083047315
210	0x3e4bae0f	0.19890617
211	0xbe5b9d6b	-0.21446769
212	0x3af92338	0.0019007688
213	0x3d2f0ca2	0.042736657
214	0x3e6225f1	0.22084786
215	0xbe29196a	-0.16513601
216	0x3ec63bb3	0.38717422
217	0x3b9d9735	0.004809285
218	0xbd67fe8e	-0.056639247
219	0xbdc46543	-0.09589627
220	0x3ecefe0c	0.40428197
221	0x3d160a63	0.036631
222	0x3ea653ed	0.32485905
223	0x3f91df9f	1.1396369
224	0xbf51730c	-0.8181617
225	0x3e67a13f	0.22620104
226	0xbe85e6fe	-0.26152796
227	0xbe23c0a9	-0.15991463
228	0x3ec14e40	0.37755013
229	0xbe4f72cd	-0.20258637
230	0x3e225944	0.15854365
231	0x3d50a24c	0.05093603
232	0x3bb57433	0.0055375337
233	0xbea08b16	-0.31356114
234	0x3ec5d687	0.38640234
235	0xbe2689d1	-0.1626351
236	0x3e6dcff7	0.23223864
237	0x3cbe7587	0.0232494
238	0xbd67df2d	-0.05660932
239	0xbeaab018	-0.33337474
240	0xbee7800c	-0.4521488
241	0x3f2ed3d4	0.68291974
242	0xbd248c2b	-0.040172737
243	0xba37d1a8	-0.0007012137
244	0xbd27205c	-0.040802345
245	0xbf2050e0	-0.62623405
246	0x3d5a5dd9	0.053312156
247	0x3e0f1d00	0.13975906
248	0xbed21675	-0.41032758
249	0x3e6b76a5	0.22994478
250	0x3ed03372	0.4066425
251	0xbf00a6d4	-0.5025456
252	0x3eb34581	0.35013965
253	0x3f0a5038	0.54028654
254	0x3d9c0330	0.076177955
255	0xbf5d3d0c	-0.86421275

network_body._body_endoder.seq_layers.2.bias f4 [128]
0	0x3cec6341	0.028855922
1	0xbd0fb7ff	-0.03508758
2	0x3bf16a96	0.0073674424
3	0xbafd6bd0	-0.0019334499
4	0x3cfc945b	0.03083246
5	0xbcbd3c30	-0.023099989
6	0x3cba640b	0.022752782
7	0xbcfcb659	-0.030848669
8	0x3cfd62c3	0.030930882
9	0x3c35ff68	0.011108257
10	0xbd0243e0	-0.031803012
11	0xbda74333	-0.08167114
12	0xbb856a22	-0.00407149
13	0xbc0462e7	-0.008080221
14	0x3c8491f9	0.016182886
15	0xbbccc0b0	-0.006248556
16	0xbc901971	-0.017590256
17	0x3d387ba4	0.045039788
18	0x3d0f6885	0.035011787
19	0xbc44ef6d	-0.012019974
20	0x3c8ac6bc	0.016940467
21	0xba518872	-0.0007993049
22	0x3c3fd2c4	0.011707965
23	0xbc2c9b5e	-0.010535089
24	0x3d0a52f1	0.033770505
25	0x3dedcf64	0.11611822
26	0x3d065cc3	0.03280331
27	0x3db29db0	0.08721483
28	0xbd04cad8	-0.03242001
29	0x3b27cafd	0.0025603168
30	0x3d23b76d	0.03996985
31	0xbc3a26a1	-0.011361749
32	0x3d7e3cdf	0.06206977
33	0x3d83f46b	0.064431034
34	0xba1015e3	-0.00054964254
35	0x3be9042e	0.007111094
36	0xbb8084c0	-0.003922075
37	0x3c6a9df8	0.014319889
38	0x3cebbce0	0.028776586
39	0xbd0a0a3a	-0.03370116
40	0xbd13ad0a	-0.036053695
41	0x3d6ded3d	0.058087576
42	0x3d75c4e4	0.060002223
43	0x3d89f920	0.0673697
44	0xbc68a02d	-0.014198345
45	0x3d393049	0.045212064
46	0x3d1cf2a5	0.03831734
47	0xbcd37441	-0.02581227
48	0x3d2bf99d	0.041986097
49	0x3d176bad	0.036967922
50	0xbbf32a99	-0.0074208495
51	0xbd2c4806	-0.042060874
52	0x3c4460d1	0.011985973
53	0x3d477c22	0.048702367
54	0x3d455715	0.04817875
55	0x3d61f3f7	0.055164304
56	0xbc8a681f	-0.016895352
57	0x39253daf	0.00015758605
58	0x3b9bde01	0.0047566895
59	0x3c85c7c1	0.016330602
60	0xbd0b8164	-0.034058943
61	0x3d1785ce	0.03699284
62	0xbd97d839	-0.07414288
63	0x3dc3ad34	0.0955452
64	0x3cf401b6	0.029785972
65	0x3d59a6af	0.053137477
66	0x3d9b6b11	0.07588781
67	0xbcb3f66a	-0.021968085
68	0x3d915ada	0.07097407
69	0xba51bf96	-0.0008001266
70	0x3bc919f9	0.0061371294
71	0xbce4c79e	-0.027927216
72	0x3cab6063	0.020919984
73	0xbbea8532	-0.0071569914
74	0x3bdf90a6	0.0068226634
75	0xbc85ce8d	-0.016333843
76	0xbc2911de	-0.010319201
77	0xbcd47b70	-0.025937766
78	0x3d206693	0.039160322
79	0x3d8e8899	0.06959648
80	0x3d4fdbbd	0.050746668
81	0x3c6cea2c	0.014460128
82	0xbbb0b814	-0.0053930376
83	0x3d9ebddf	0.07751059
84	0x3c1e1c31	0.009650276
85	0xbdcbbc3a	-0.09948011
86	0xbd8f48f5	-0.06996337
87	0x3c701497	0.0146533465
88	0xbca5c1b5	-0.020233968
89	0xbcf0f166	-0.029411983
90	0x3b6749c1	0.0035291763
91	0xbcd11d16	-0.025526565
92	0x3ca442fc	0.020051472
93	0x3c8e0bb3	0.017339563
94	0xbd35bec3	-0.044371378
95	0xbd385850	-0.045006096
96	0xbd8cc5b8	-0.06873649
97	0xbd715ab1	-0.05892438
98	0x3c07d0b0	0.008289501
99	0x3c5d8b24	0.013521943
100	0x3ccee9be	0.025257941
101	0xbc5ed09f	-0.013599544
102	0x3c59d315	0.013294955
103	0x3cb06f39	0.02153741
104	0x3b1bc234	0.0023766877
105	0x3b146842	0.002264515
106	0xbd52c7ab	-0.05145995
107	0xbd539ab7	-0.05166122
108	0x3cc510e1	0.0240559
109	0xbca4ff1b	-0.020141175
110	0xbb916c3e	-0.0044379523
111	0xbcdd95b9	-0.027048932
112	0xbd979562	-0.074015394
113	0x3d0d0db1	0.034436885
114	0xbd337d78	-0.04382083
115	0x3d9cc4b5	0.076547064
116	0xbb95cab4	-0.0045712832
117	0xbc8080e0	-0.015686452
118	0xbcbe7f2c	-0.023254
119	0x3ce9de36	0.028548341
120	0xbd25b797	-0.040458288
121	0x3d3f4058	0.046692222
122	0xbd6e3393	-0.058154654
123	0x3c3e6c29	0.011622467
124	0xbb21817d	-0.0024643831
125	0xbbeb344e	-0.007177866
126	0x3c8d2a8f	0.017232208
127	0xbc533ca9	-0.0128928805

network_body._body_endoder.seq_layers.2.weight f4 [128, 128]
0	0x3de63274	0.11240092
1	0x3e0d17eb	0.13778655
2	0xbc380d03	-0.011233571
3	0x3d2876e3	0.041129004
4	0x3d62b03e	0.05534386
5	0xbe03ef7e	-0.12884328
6	0xbc568e0a	-0.013095388
7	0xbd964ebe	-0.07339238
8	0xbd072ba9	-0.033000622
9	0x3cebc542	0.028780583
10	0xbe2845fb	-0.16432945
11	0x3ce4133f	0.027841209
12	0xbde19459	-0.11014623
13	0xbe42cf9f	-0.19024514
14	0xbd10c04c	-0.03533964
15	0x3df5405a	0.11975165
16	0xbc838db0	-0.016058773
17	0x3d03e9d4	0.032205418
18	0xbe0b30ea	-0.13592878
19	0xbe0c6688	-0.13710988
20	0x3e190c1b	0.14946024
21	0x3d3e920c	0.046526
22	0x3d33228c	0.04373412
23	0x3ce71199	0.028206633
24	0x3d83499d	0.06410525
25	0x3d7e7964	0.062127486
26	0x3cb867ae	0.022510376
27	0x3dbcf43b	0.09226271
28	0xbccdc0eb	-0.025116405
29	0x3dde87a5	0.10865716
30	0x3d2fd7ec	0.04293053
31	0x3d8645ce	0.06556283
32	0x3d96f5c4	0.07371095
33	0xbd8c16b2	-0.06840266
34	0xbd43f325	-0.047839303
35	0xbe0464a8	-0.12929022
36	0x3df3d7a5	0.11906365
37	0xbcd3f448	-0.025873318
38	0x3da2bf1c	0.079466075
39	0xbd8cf2fb	-0.06882282
40	0x3d42f797	0.0475994
41	0xbde9c19a	-0.1141388
42	0x3ce6eae0	0.028188169
43	0xbd14994b	-0.036279004
44	0x3d4dbdeb	0.050229948
45	0xbd9cc048	-0.07653862
46	0xbdb0df30	-0.0863632
47	0xbd59fe12	-0.053220816
48	0x3c1589d8	0.009127103
49	0xbbc738f6	-0.0060797883
50	0x3d4dba9f	0.050226804
51	0x3deafc3c	0.11473891
52	0x3d9267a0	0.07148671
53	0xbd11dd39	-0.035611365
54	0xbd6d0002	-0.057861336
55	0x3da0ca7d	0.078511216
56	0xbd93b24c	-0.07211742
57	0xbd8d68ea	-0.069047764
58	0xbd8de314	-0.06928077
59	0x3d8b2ef9	0.06796069
60	0xba268a48	-0.0006353003
61	0x3cc25b5c	0.023725204
62	0xbe12e967	-0.14346848
63	0x3c47c68c	0.012193333
64	0xbd03a758	-0.032142013
65	0xbdb40c54	-0.08791414
66	0xbe14cbee	-0.14530918
67	0x3e261262	0.1621795
68	0xbcbf2b05	-0.023335943
69	0x3cca5df9	0.024703013
70	0x3ca72ca5	0.02040703
71	0xbdd13b07	-0.10216337
72	0x3e15102e	0.14556953
73	0xbd6701e3	-0.056398284
74	0x3cb77ae7	0.022397472
75	0xbdd8130c	-0.10550508
76	0x3d218a9b	0.039438825
77	0xbe14aaae	-0.14518234
78	0xbdf4c7ee	-0.11952196
79	0xbdc9c094	-0.098511845
80	0x3e3fcd5f	0.18730687
81	0xbd92c3cb	-0.07166251
82	0x3e11bde1	0.1423259
83	0x3d65f11c	0.056138143
84	0x3d125e13	0.035734247
85	0xbd433f78	-0.04766795
86	0x3d76ad19	0.060223673
87	0x3db8c79b	0.09022447
88	0xbd24e60b	-0.04025845
89	0xbda75cb1	-0.08171976
90	0xbe03258e	-0.12807295
91	0xbd606047	-0.054779317
92	0x3dba0b03	0.090841316
93	0x3d4c0234	0.04980679
94	0xbdc6e067	-0.0971077
95	0x3c695e56	0.014243683
96	0xbc0e8d9c	-0.0087007545
97	0x3e000ab1	0.12504078
98	0x3e2db573	0.16963749
99	0xbe54fad3	-0.20798807
100	0x3d406d39	0.046979163
101	0xbd62ff46	-0.05541923
102	0xbbc22e79	-0.00592595
103	0x3e2fa113	0.17151289
104	0xbc803ae8	-0.015653089
105	0xbe41b8b1	-0.1891811
106	0x3da7b1f7	0.08188241
107	0x3c3776f9	0.011197799
108	0xb9cce451	-0.0003908002
109	0xbd6a7843	-0.057243597
110	0x3d73d6a8	0.059530884
111	0xbdce1b47	-0.100637965
112	0xbdff0221	-0.12451578
113	0x3bf22607	0.007389787
114	0x3dad954c	0.08475742
115	0x3e2fa8a2	0.17154172
116	0xbe1e5934	-0.15463716
117	0xbe401023	-0.18756156
118	0xbcbff1f1	-0.023430796
119	0xbdc89414	-0.09793869
120	0xbc798f0a	-0.015231857
121	0x3d626d89	0.055280242
122	0x3d7a089c	0.061043367
123	0xbe463048	-0.19354355
124	0xbdb79869	-0.08964617
125	0xbe1f01d9	-0.15528049
126	0xbc6c8e37	-0.014438204
127	0x3c8b1af1	0.01698062
128	0x3aca353d	0.0015427243
129	0x3d869298	0.06570929
130	0xbdf47937	-0.119371824
131	0x3e0bc89a	0.13650742
132	0x3cdaa73d	0.026691074
133	0xbd2ea276	-0.042635404
134	0x3e068240	0.13135624
135	0x3e165272	0.14679888
136	0x3d3c2a94	0.045939043
137	0x3d571e95	0.0525194
138	0x3d0d02bb	0.034426432
139	0x3cc77720	0.024348795
140	0xbc57fd2a	-0.013182918
141	0xbe3ba4f8	-0.1832465
142	0x3dad0594	0.084483296
143	0xbe1f3519	-0.15547599
144	0x3dda8b98	0.10671157
145	0x3c9b425c	0.018952541
146	0xbdc889c2	-0.097919
147	0xbe02273a	-0.12710276
148	0x3d36766e	0.044546537
149	0x3dc87e68	0.09789735
150	0x3d85cf8c	0.06533727
151	0xbc74ce0a	-0.014941702
152	0xbc6741f4	-0.014114846
153	0x3e0c080d	0.13674946
154	0x3e030757	0.12795769
155	0xbd84b010	-0.06478894
156	0xbd464c4b	-0.048412602
157	0x3e0a2bad	0.13493223
158	0x3db566f4	0.088575274
159	0x3caa2f7c	0.020774595
160	0xbcb3ecbf	-0.021963475
161	0x3d978fff	0.07400512
162	0xbd8d6dc2	-0.069057
163	0xbb60e8a6	-0.0034318357
164	0x3d27b18c	0.040940806
165	0xbdcb9512	-0.09940542
166	0xbd2b3b87	-0.041804817
167	0xbe0a84c2	-0.13527206
168	0xbd293e15	-0.04131897
169	0xbe06f3b7	-0.13178907
170	0x3b9362ef	0.004497878
171	0xbd26d9fd	-0.040735234
172	0x3c142d35	0.009043981
173	0xbe1c55b9	-0.15267076
174	0x3e4855fd	0.19564052
175	0x3c86e30a	0.016465683
176	0xbdfddfb0	-0.12396181
177	0x3d5f693e	0.054543726
178	0xbe28f91f	-0.16501282
179	0xbda410e9	-0.08011038
180	0xbcc90a4e	-0.024541046
181	0xbd15e762	-0.036597617
182	0x3d3ca5a2	0.046056397
183	0x3dcaf339	0.09909672
184	0xbd88d043	-0.06680348
185	0xbd280508	-0.041020423
186	0x3da9fb1b	0.08299848
187	0x3d7f6a77	0.062357392
188	0xbd78a84b	-0.06070737
189	0x3ce94674	0.028475977
190	0xbc2dfc1d	-0.0106191905
191	0x3dd76f23	0.105192445
192	0xbdc15a66	-0.0944107
193	0xbdc1997c	-0.09453103
194	0xbe28279d	-0.16421361
195	0x3bfb9710	0.00767792
196	0xbdc9d7df	-0.09855627
197	0xbcdb6d60	-0.026785553
198	0xbd6edc30	-0.058315456
199	0xbc3952c5	-0.011311238
200	0x3c45c062	0.012069793
201	0xbd86ae8c	-0.06576261
202	0xbd66e1cc	-0.05636768
203	0xbd264667	-0.040594485
204	0xbdaa0513	-0.08301749
205	0xbd947f57	-0.07250851
206	0x3c3d1b60	0.011542171
207	0x3d529d0e	0.05141931
208	0x3dbad958	0.09123486
209	0x3c134188	0.008987792
210	0x3d5d7816	0.0540696
211	0xbbf92cb2	-0.007604205
212	0xbe184153	-0.14868669
213	0x3db2633a	0.08710332
214	0xbd8b42eb	-0.06799873
215	0x3a908c26	0.0011028096
216	0x3a02bdaa	0.00049873686
217	0x3d995499	0.07486839
218	0x3d12cf07	0.035841968
219	0xbb3de714	-0.0028976845
220	0xbde71f2c	-0.112852424
221	0x3d97caf7	0.07411759
222	0xbce3fbd1	-0.027830036
223	0xbdbc46f7	-0.09193223
224	0x3d80d63e	0.062908635
225	0xbdee26cd	-0.116284944
226	0x3caa71e0	0.020806253
227	0x3e0fd1f5	0.14044936
228	0xb8d29bbf	-0.0001004259
229	0x3d2d8ea6	0.04237237
230	0x3daa739b	0.08322831
231	0x3da2aaec	0.07942757
232	0xbd897b5a	-0.067129806
233	0x3bc7ebca	0.0061011063
234	0xbd48a810	-0.048988402
235	0xbcd3ec05	-0.025869379
236	0x3d9828a5	0.07429627
237	0xbe201d48	-0.1563617
238	0x3d5d4ee2	0.054030307
239	0x3c224846	0.009904927
240	0xbc05d1e9	-0.008167722
241	0x3cf389a8	0.029728726
242	0x3bf2ac44	0.0074057896
243	0x3e0e8d28	0.13921034
244	0x3db91fb7	0.09039252
245	0x3dd66c62	0.10469891
246	0x3d0a414e	0.033753686
247	0x3bd1518f	0.0063878964
248	0x3daa306e	0.083100185
249	0xbd969948	-0.07353455
250	0xbcee8d26	-0.02912004
251	0xbcc83fd5	-0.0244445
252	0x3d688e9e	0.056776635
253	0xbd5cf912	-0.05394847
254	0xbbc650dc	-0.0060521197
255	0x3d942ff2	0.07235707

network_body.observation_encoder.processors.0.normalizer.running_mean f4 [8]
0	0x3e04b0a6	0.12958011
1	0x3effff5f	0.4999952
2	0x3f646dc5	0.89229995
3	0xbd429ba7	-0.047511723
4	0x3d372cc4	0.044720426
5	0xbf69c252	-0.91312134
6	0x3739e69e	1.1080554e-05
7	0x375bb6dc	1.30959925e-05
