Assets/weights/Zombie.onnx (onnx, 76772 bytes, 10 tensors)

68 f4 [10]
00000000: 597c b940 0171 903c eee5 9a40 134f d540
00000010: 23cc 943c daba 9e40 ed50 833d 72ca b03d
00000020: 54bc 073d 1cb3 a43c
5.796429 0.01763201 4.8405676 6.6659026 0.018163746 4.960309 0.0641192 0.086323634
0.033138588 0.020104937

action_model._continuous_distribution.log_sigma f4 [1, 2]
00000000: f4d9 f83c 67f7 37bc
0.030377366 -0.011228419

action_model._continuous_distribution.mu.bias f4 [2]
00000000: bae2 9ebb 222c 5e3d
-0.0048488053 0.054241307

action_model._continuous_distribution.mu.weight f4 [2, 128]
00000000: 9098 3cbb c919 0dbb cb2b ba3c 4f3a dcbc
00000010: 9876 0cbc 9119 0a3b 1a42 463d d6ad 9e3c
00000020: d575 f239 ab18 f53c 11d0 8f3d fa1a 10bc
00000030: 27ff 4fbd d083 d03c b6e5 043c 1503 203d
00000040: 32e7 4a3d e850 e13c cf52 c73b ca76 993c
00000050: 2204 a13c 0d41 adbc 39a3 b6bc 7936 b33c
00000060: 4894 9e3b 5269 603c e8e8 a5bd fc32 49bd
00000070: 7b7a 62bd c558 dd3c afbe 8dbd 5e7b 163b
00000080: b00c 3a3d 83e4 a5bd 9a0c 473c ed41 b23c
00000090: a69c 903c 2595 843c c5f0 8f3c 5264 73bc
000000a0: 0929 f5bc 61a2 cb3c 29ae 723d cb11 7c3c
000000b0: d270 debc d931 953b 4b08 e03b 9d08 6a3d
000000c0: d674 453c 97c7 b93c d8e3 8d3c 4afd 2bbd
000000d0: 72b7 d73c e50f 373d dae9 2b3c 5bbf 0dbb
000000e0: b4cf 063d 694d 903c bd5a 123a e807 b4bd
000000f0: 228c d9bc 2e14 49bd 2733 be3c e04b 003d
00000100: 62f3 1dbd 8e1c 023b ae62 c2ba 66c5 cf3c
00000110: 6a5f 39bc 3e56 443c 5e4e b8bd e4db 99bc
00000120: 5307 05bc a09b 223d f927 7bbb b0e5 0e3c
00000130: 837d 653c 2441 0e3d 7c83 833c b1ab 22bc
00000140: cc07 313d d09f 7a3c 7360 02bd 64c7 8fbd
00000150: b226 223c a98f 2fbd 89d5 9fbc 329c 373d
00000160: 32e3 ea3c fe1c c7bc fa8f 1e3d acf0 04bd
00000170: bfd8 a33b 569a 8cbc 5f60 343c f739 f13c
00000180: 4b70 563d 45f6 8c3c 8682 6c3b c4ed 1b3d
00000190: c26f 38bb c4f4 3fbd a597 b43c fd02 0d3d
000001a0: ca35 93bd 05c8 27bc db83 8f3b 066f 10bc
000001b0: 6ff0 e93b 7300 97bd 0e5a 023c 75e3 553c
000001c0: 8ff7 abbc ad09 97bd f93e 34bd b685 4a3c
000001d0: c51a 37bc 03c8 5dbc c2dd 6d3c f3b7 9ebd
000001e0: 8e25 8f3c 5f58 413d c090 e33c e2e8 acbd
000001f0: 11f6 5f3c 92f6 e33b a776 1b3c 3a1c cfbc
00000200: c00e b4bc 267b 3abd a8ae 333d e08a 313d
00000210: 1776 f13c 9b83 fe3b 035e 18bd 4c8d b0bb
00000220: 90d6 2cbd 6f26 1abc 527d 96bc acf4 f13b
00000230: 6560 173d f3e9 82bd 9fa9 17bd f92f 113d
00000240: f9fb 1f3d a338 f63b 3946 51bc d0c5 49bc
00000250: 46b9 a0bb 7e70 e23c f3ea 40bc fa11 61bc
00000260: 10d0 843d f52a 523d 9323 61bd b9d5 a73b
00000270: 13c6 dc3c a518 6ebc 5aca 6bbd 07b7 4a3d
00000280: 7038 0cbd 5a60 14bd 8f1c 033c bbbf 38bd
00000290: 5b34 8a3d 999a 623c 02f0 2fbc 7cd3 273d
000002a0: 97a2 26bd 364a afbc 663d abbc fee9 e9ba
000002b0: 9ca0 5dbd 1d30 a03d d097 0b3d da7d afbc
000002c0: 31ae 0d3b 17d5 2dbd 85a4 2cb9 7487 2bbd
000002d0: 19d5 52ba d45a 04bd 53fd b43b 3cf9 9fbc
000002e0: 7d05 61bc 2708 89bb 59f0 30bd 9a47 2ebc
000002f0: 4f7c 8e3d ea3d 673d 6eac 933d 2447 3e3d
00000300: 5cd6 20bd a758 edbc 924f 0bbd 2d42 253c
00000310: f3af eb3c 64f3 663c 2e27 21bd 2297 423d
00000320: bb94 9bbc b5bd 10bd d07d a2bb 0ba0 b9bc
00000330: 9272 5f3b 95f5 013c 7e06 67bd df70 863d
00000340: 56c8 91bc 103e bb3a 965f 473d a15c 443d
00000350: a75d 38bd 577c 3f3d f14b 433c ffe6 1bbd
00000360: 5720 56bc abee 083d 1b77 5bbb 9119 90bb
00000370: 51a4 dfbb 62bc 30bc 506e 8b3a 3109 f1bb
00000380: cf03 a0bc cc2f 9f3b 7567 1e3b ce2b 05bb
00000390: b537 b2bc b848 fdbb 78c9 fcbb 1a73 8bbc
000003a0: 8903 93bc 5a40 cb3d fb66 7e3b bc4c 43bc
000003b0: f67e 823d bf5a 9abc 985d 47bc 31a5 cfbc
000003c0: 4b7c d53c a4aa 893c 1d52 86ba 032b 5e39
000003d0: a917 49bd b171 a03c 2c80 15bd 5bf6 5fbc
000003e0: 298a 2f3b 57d6 57bc 60a1 0fbd 3673 02bc
000003f0: 27c0 a33d be3c 10bd 5797 813c 9da2 373d
-0.0028777458 -0.0021530262 0.02272596 -0.026883272 -0.008573197 0.0021072368 0.048402883 0.01937
0.0004624563 0.02991899 0.070221074 -0.008795494 -0.05078044 0.025453478 0.008111408 0.03906544
0.04953689 0.0275044 0.0060828696 0.0187334 0.019655291 -0.021149183 -0.022294628 0.02187656
0.004839454 0.013696985 -0.08101064 -0.049120888 -0.055292588 0.027019868 -0.06921136 0.0022961716
0.045422256 -0.08100226 0.012149001 0.021759951 0.01765282 0.016184399 0.017570863 -0.014855461
-0.029926794 0.024857702 0.059248123 0.015385102 -0.027153406 0.0045530614 0.006836926 0.05713712
0.012051782 0.02267818 0.017320558 -0.041989602 0.02633259 0.044692893 0.010492766 -0.002162895
0.032912925 0.017615037 0.0005582979 -0.087905705 -0.026556078 -0.04909151 0.02321775 0.03132236
-0.038562186 0.0019853446 -0.0014830434 0.025362682 -0.011314252 0.011983452 -0.08999322 -0.01878161
-0.008119422 0.039699197 -0.0038323386 0.008721754 0.014006975 0.03473009 0.016053908 -0.00992863
0.043220326 0.015296891 -0.031830262 -0.070204526 0.009896921 -0.042861614 -0.019511001 0.044826694
0.028672788 -0.024305817 0.038711525 -0.032456085 0.0050002034 -0.017163437 0.011009305 0.029446585
0.052353185 0.017207274 0.003608854 0.038068548 -0.0028142785 -0.046864286 0.022044966 0.034426678
-0.07187994 -0.0102405595 0.004379732 -0.008815533 0.0071392576 -0.073731326 0.007956041 0.013054718
-0.020992069 -0.073748924 -0.044005368 0.012360981 -0.011175816 -0.013536456 0.014518203 -0.07749929
0.017473962 0.047203418 0.027778983 -0.08442856 0.013669507 0.0069568837 0.009488738 -0.025282014
-0.02197969 -0.0455276 0.043867737 0.043345332 0.029475255 0.0077671534 -0.03719903 -0.0053879377
-0.04219681 -0.009408577 -0.018370304 0.0073839035 0.036957163 -0.063922785 -0.037026998 0.03544614
0.03905866 0.007514076 -0.01277309 -0.012315229 -0.004904899 0.027641531 -0.011774766 -0.013737196
0.06484997 0.0513105 -0.054965567 0.0051219133 0.026949918 -0.014532243 -0.057566024 0.049490955
-0.03423351 -0.0362247 0.008002414 -0.045104723 0.06748267 0.013830804 -0.010738375 0.04097317
-0.0406824 -0.021397691 -0.0209033 -0.0017846224 -0.054108247 0.07821677 0.034080327 -0.021422315
0.0021618719 -0.042439546 -0.00016464487 -0.041877225 -0.0008042618 -0.032313183 0.0055233627 -0.019528024
-0.013734219 -0.00418188 -0.043197963 -0.010637188 0.06957304 0.05645553 0.07210623 0.046454564
-0.03926693 -0.028972937 -0.03401143 0.010086578 0.028770423 0.014096115 -0.039344005 0.047507413
-0.018991819 -0.03533717 -0.0049588457 -0.022659322 0.003409539 0.0079320865 -0.056402676 0.06564497
-0.017795723 0.0014285464 0.048675142 0.0479399 -0.04501119 0.04674944 0.011919961 -0.038062092
-0.013069234 0.033430737 -0.003348774 -0.004397579 -0.006825008 -0.010787101 0.0010637734 -0.007355832
-0.019533066 0.0048579928 0.0024170552 -0.00203203 -0.021755079 -0.007729616 -0.0077144466 -0.017022658
-0.017946022 0.099243835 0.0038818705 -0.01192015 0.06371872 -0.0188421 -0.012168311 -0.025347324
0.026060244 0.016805 -0.001024786 0.00021187593 -0.04909483 0.019585462 -0.036499187 -0.013669576
0.002678523 -0.013173661 -0.03506601 -0.007962039 0.079956345 -0.03521418 0.015819235 0.044832814

action_model._discrete_distribution.branches.0.weight f4 [1, 128]
00000000: a1e9 883c 0a04 d43b 0dc1 b4bb fa5f 53bb
00000010: 23ba b23b b5c5 27bb 719e 00bc e3a0 2f3c
00000020: 7b97 f53b b82a 833b c366 91bb 9072 40bb
00000030: a13c a8bc 8b74 e3ba 12cf f93a 0026 92b9
00000040: d70f d13b 419a 0c3c e368 0dbc f702 a43b
00000050: 978d 683c 6491 14bc 4d72 c83b 7004 983c
00000060: 84c7 bdbb 0f3f eaba 4bb2 dcba bb41 a23b
00000070: 6826 82ba 62bf 98bb d737 57bc efaf 02b8
00000080: 6360 ed3b 8864 98bc da59 2a3b a884 dc3a
00000090: af3e 33bc 14b1 44bc e779 a63b d7cc fcb8
000000a0: 2b99 c8bb a61f 04bc 6a54 a7bb a041 7c3b
000000b0: 4f1f 093c bfe8 29bc ab1d 07bc 1765 923b
000000c0: b042 58bb df7b b43b f243 4bbc b718 f73a
000000d0: 785e aaba 3be7 a0bb 51a5 ad39 f4da 99b9
000000e0: 7f48 aebb 434a 9cbb 0309 2c3a c2cc 8bbc
000000f0: 6f2d 0ebb 758d d5bb 87bd b2b9 187f 753c
00000100: 6ddf afbb 92e7 90ba d5e0 d53b 3f27 9dbb
00000110: e2c6 07bb 3a79 403b 831a aebb 9605 113b
00000120: f6ed 9abc 66ce 24bb 7ae4 453c f65b 45bc
00000130: c539 7f3b 1b84 68bc 7125 213c e5b6 00bb
00000140: f670 94bc 6f0c 353a 570c 593c 8837 febb
00000150: 3035 d23b d8b2 89bb 0fbd 92b9 a82e e43b
00000160: a217 953b 90e6 983c f8a9 3139 8151 01bc
00000170: 741a 253c 7aeb c6bb 73b7 6cbc cd81 7d3b
00000180: 046f 49ba 96c7 013c 4064 49bc ebca b3bb
00000190: 2311 51bc 8adf 49bc 128f 5b3a 74f4 bd39
000001a0: 0925 313c fbc9 18bc c099 d13a cb8d 2d3c
000001b0: a150 c53b 3bc9 d0ba bb52 e23b bc1b 163a
000001c0: 42d0 d1bb 1a4a d53b ea32 a0bb b976 00b9
000001d0: dbd4 5c3b a279 0f3b bff1 ea3b 9bed 12bc
000001e0: e74f 76bb d8c7 3cbb 603c ed3b 5d14 03bc
000001f0: 7a4a 773a 8100 a13b 7f14 05bb b809 8b3b
0.016712965 0.006470208 -0.0055161775 -0.0032253251 0.005454318 -0.002560002 -0.007850275 0.010719511
0.0074948645 0.004002895 -0.004437299 -0.002936516 -0.020536723 -0.0017353458 0.0019058904 -0.00027875602
0.006380062 0.008581699 -0.008630964 0.0050052362 0.014193914 -0.009067867 0.0061171413 0.018556803
-0.0057916064 -0.0017871576 -0.0016837803 0.0049516833 -0.0009929659 -0.0046614865 -0.013135872 -3.1158266e-05
0.007244156 -0.018602625 0.0025993497 0.0016824203 -0.010940238 -0.012005109 0.00508045 -0.00012054451
-0.0061217747 -0.008064186 -0.0051064985 0.0038491264 0.008369281 -0.010370432 -0.0082468195 0.0044676173
-0.0032998733 0.0055079306 -0.012406336 0.001885197 -0.0012998125 -0.0049103773 0.00033120302 -0.00029345567
-0.005318701 -0.004769595 0.0006562622 -0.01706541 -0.002169456 -0.006517107 -0.00034092015 0.014983915
-0.0053672106 -0.0011055341 0.006527046 -0.0047959383 -0.0020717909 0.0029369132 -0.005313219 0.0022128574
-0.018912297 -0.0025147437 0.012078399 -0.012045851 0.0038944345 -0.014191653 0.009835587 -0.0019640264
-0.01812027 0.0006906455 0.013247571 -0.0077580847 0.006415032 -0.004202228 -0.0002798815 0.0069635697
0.0045499364 0.018664628 0.00016943354 -0.007892967 0.010077108 -0.0060705515 -0.014448035 0.0038682104
-0.0007684084 0.00792112 -0.012291968 -0.005486836 -0.012760433 -0.012321362 0.0008375506 0.0003623102
0.0108120525 -0.0093255 0.0015991256 0.010592888 0.0060215746 -0.0015929112 0.006906835 0.00057261786
-0.006403 0.0065090777 -0.004888882 -0.00012251259 0.0033696208 0.0021892567 0.0071699317 -0.008967782
-0.0037584247 -0.002880564 0.0072398633 -0.00800046 0.00094334 0.00491339 -0.0020306406 0.004243102

network_body._body_endoder.seq_layers.0.bias f4 [128]
00000000: 306d df3c 0b12 813d 576f 5abd 2d63 7ebd
00000010: 04bf 06bd ab9c 873c acde 85bd 25f8 223d
00000020: dea6 49bd 8069 c5bb 8d03 003d 1751 3abc
00000030: 691c 6ebd a10e 053d f169 d73b d8fa 473d
00000040: 83be 1e3d bfe4 a4bd fa22 9fbc fe83 66bd
00000050: 3ec4 28bd cffa 043a 940f 09bd aa5d 243b
00000060: 18e1 95bd 107a 6ebd 016a 4cbd 646f 7b3c
00000070: 4dc5 6e3d 245f 6fbd 720a a33b f019 f3bc
00000080: b146 cd3c f87b dbbb 175e 16bd 4033 1cbd
00000090: af4e acbd 3c3c b73c c525 1b3c ba37 ca3c
000000a0: b261 223d fbcb 48bd 2cbc 49bd c494 d3ba
000000b0: 5070 d43c ef2b 483d 67c0 a2bd cb03 27bd
000000c0: 46ca 92bd bc49 23bd efb7 153d 279f a93c
000000d0: 5ad9 e5bc 5657 0abc 6348 3f3d b3d1 653d
000000e0: 8649 953d a095 9f3c 8a45 eb3c 4757 0f3c
000000f0: 52a8 edbc b3cb 313b afef 8ebc 8817 09bd
00000100: a399 2c3d b6bd 98bd 698a 91bd 7b1e 88bc
00000110: bd3b 08bd 3d08 fbba dffa 693d 9490 98bd
00000120: 1b70 553d decc a93c 4b6e c13c c3b9 0ebd
00000130: 62a3 03bd 034c 17be 665f 143c fe19 b6bc
00000140: 7cd7 8bbd e1aa 07bd 2e87 0cbd 6447 6dbc
00000150: 92a8 46bd 3ad5 66bc 1646 423d 4394 a1bd
00000160: 5e0d 0bbd c0d2 9a3d db8c 843d 00c3 58bc
00000170: 6ff2 6abd f980 eabc 5fb5 60bd 8dad 4bbd
00000180: 243a 58bd 9a87 b7bc 9d6f 02bc 71fc a0bd
00000190: 20f0 a9bc 4f9d 70bd fbb0 87bd 39bd 543d
000001a0: c78f 46bd dcf3 e0bc b4f2 2c3d c168 08bd
000001b0: 952b cd3c 3cfc fd3c a15d 963c 75f2 1dbd
000001c0: 86c4 0d3d bf36 fabc bf90 1abd 3117 5abd
000001d0: 97d5 99bc 8664 ebbd 30b2 043d 5340 3d3d
000001e0: d5db a13b b53b 27bd aff7 c9b8 2228 7e3d
000001f0: bd5d f8bc 50ac 6ebd 738d eabb d106 563b
0.027273744 0.063022695 -0.05332884 -0.0621063 -0.03289701 0.016554197 -0.06536612 0.03978743
-0.049231403 -0.0060245395 0.031253386 -0.011371872 -0.058132563 0.032484654 0.0065739085 0.048823208
0.038755905 -0.08051442 -0.019425858 -0.05627822 -0.041202776 0.0005072774 -0.033462122 0.0025080242
-0.07318324 -0.058221877 -0.04990578 0.015346382 0.05829363 -0.058440343 0.0049756104 -0.029675454
0.025058122 -0.006698128 -0.036710825 -0.038134813 -0.08413445 0.02236759 0.009469454 0.024684776
0.03964395 -0.049022656 -0.04925172 -0.0016142358 0.025932461 0.048870023 -0.07946854 -0.0407751
-0.07167487 -0.03986524 0.036552366 0.020705773 -0.028057743 -0.008443674 0.046699893 0.056108188
0.07289414 0.019480526 0.028719682 0.008748836 -0.029010925 0.002712947 -0.017448274 -0.033469707
0.042138707 -0.074580595 -0.07106478 -0.016616097 -0.033260096 -0.0019152235 0.057124015 -0.07449451
0.052108865 0.020727571 0.023612162 -0.034845125 -0.032138236 -0.1477509 0.009055948 -0.02222919
-0.0682821 -0.033121947 -0.034308605 -0.014482353 -0.048500605 -0.014088923 0.04743012 -0.07889607
-0.033948295 0.075597286 0.064721785 -0.013230085 -0.05736011 -0.028625952 -0.05486047 -0.049726058
-0.052789822 -0.022403527 -0.007961181 -0.078606494 -0.020744383 -0.05874377 -0.06625553 0.05193827
-0.04847696 -0.027460031 0.042223647 -0.033303026 0.025045196 0.031004064 0.018355193 -0.038561303
0.034611247 -0.030543683 -0.037735697 -0.053244773 -0.018778605 -0.11493783 0.032396495 0.046203922
0.004939536 -0.040828425 -9.6305615e-05 0.062049992 -0.030318135 -0.0582698 -0.0071579753 0.0032657871

network_body._body_endoder.seq_layers.0.weight f4 [128, 10]
00000000: 6113 8f3e 8ab7 e23c 7cf9 e1bd a95a d8be
00000010: 133e 1fbf 30af aebb ffb8 ce3e d2a0 4abe
00000020: 8f3f 133f c94e 1b3e 6f1b 98be 0f07 e9bd
00000030: 0c73 653e ed6a c6be fc22 303e 9f53 c33e
00000040: 8c35 803c c74c 60bd c875 dfbe e013 31bf
00000050: 6a91 263e 7a8f 693e 38e7 1abf 2dd1 82be
00000060: 94bc aa3e 23b2 b5bd 6a65 c43e d2ae a5be
00000070: a518 00bf dadd fe3e e998 06bf ddcf 61be
00000080: 5c81 08be 8498 b23e d370 03bf 1b76 0dbf
00000090: a9a6 163e 87ad 77bd 6965 383f 98f2 c8bc
000000a0: fe62 a13c 2c16 523e 8a7c 2d3c 9a22 e1be
000000b0: 1d49 45be 5543 36be 42f3 e23e 30b2 42be
000000c0: a458 423f fd72 ac3d 4eb6 753f 6aba 27be
000000d0: 8ce1 b43d 84f1 c0be 3b98 16be f658 cebd
000000e0: c515 f73d 5a8d 143f 5c27 d03e 63de b8bb
000000f0: e002 c1be 0a45 bf3d adf6 73be 8c8e d13e
00000100: 2873 85be 1f8e b2be cf19 593e 1769 c63d
00000110: 9445 8abd 7091 edbd d58d c0be 7e4b ef3e
00000120: c154 1fbf 9966 fdbe 16ac 273f 8a6a 553f
00000130: eaea 14be d084 973e 0174 243f 0353 063f
00000140: 1646 be3e ff3b 023e 855f 0dbf bbf1 973e
00000150: 6e4d 1b3f 6699 20be 3999 073f a9b3 b03e
00000160: f232 2c3e c142 bebe b257 b9bd f2cc dd3d
00000170: 2705 cdbe d9da da3d f63e 52bc e7aa 0c3f
00000180: cd91 503e 1c7b 773e 237b 91bd b169 bfbe
00000190: 0b0b 35be 1834 32be 7fde 30be 1c97 f7be
000001a0: fd13 80bd 5b86 41be 0bf7 013e 322a 74bd
000001b0: 692c a6bd f8ae f83d b18d b83e c61d d2be
000001c0: fe0f 663b 6483 3fbf 3860 37bf cce8 c9bd
000001d0: 6fdd c4be 4d3b 22bf fd3b 5e3d 2e0e 0dbe
000001e0: ddbb 8cbd ad50 123e 31aa 1a3e b7ac e73d
000001f0: a790 383d b854 55bd 00f6 643c efdd f4be
00000200: d6aa 05bb 4a26 41be f54b 1f3c a83e e83d
00000210: 11a0 9ebd bed1 83be 18aa 1b3f 0f82 81bd
00000220: 073c 113f a9f3 f6bd c4cb 923e c993 ddbe
00000230: fba7 053f 1943 f03b f9b1 2d3f df1d e1be
00000240: 830c 013f 3375 793c 54e2 92bd 696b 8ebd
00000250: 1471 253d bd29 973d cb13 bdbe 3978 febe
00000260: c5b8 71bc 9b47 d9be 258c e63e 0270 dbbe
00000270: d168 c0be f1cd a53e 1338 b1be 0a33 89be
00000280: 78b5 87bd 6a0e 0dbf e1dc fa3b 52fd 2d3e
00000290: 5e89 d83e 35c9 ce3d c20e aa3b c619 d7bd
000002a0: e619 71be 249b 283e 0b97 bebe 5b0a d8bd
000002b0: a51e 9d3e bca9 113f e35b 0dbf 8781 f4be
000002c0: a8a9 b83d f275 083d 7e6c f13c 3859 de3c
000002d0: 7b54 d8bd 910d 523d 2741 2bbf ae60 a73e
000002e0: 6817 cdbe 9f64 993d 7c4c 0c3e ca1f 2d3c
000002f0: 9d73 ba3d be17 8b3e b07a 8dbe e42c 9e3e
00000300: 0022 bfbe 85e1 1dbf 8b8f 49be 890c 333e
00000310: c3da 8c3e 0f9d 20bf 80b0 7d3d f6a2 02bf
00000320: d1e5 153e b4a5 483e cc1c 003f 535f 8bbe
00000330: 2d3b 52be dbb9 78be 01ae b53d 850d cbbe
00000340: 054b 3ebe 8e1d 50be 920b 463e a7df 4f3e
00000350: f40c 093e fcbb 2fbe e65a 963d 9ae9 1abe
00000360: 9748 f3bd fab3 50be 21e1 95be 9ab7 463d
00000370: 144c 963e 98ae b5be a48f 0bbf 285b e03e
00000380: d692 113d f5ed e3be a2e6 80be fea9 edbe
00000390: 2ce5 56be 1cd9 323e 6b41 8ebe 2855 bebe
000003a0: d6d2 cbbd 2e5b 45bd 72ec 403e af7c fabe
000003b0: 3974 a1bd 2954 d5bd 251d a93d bac7 ae3e
000003c0: 15c0 e83e 4ec0 86be 23de bcbd 1b46 733d
000003d0: 9156 a5be b1cd 81be 928e e1bc 08f7 a8be
000003e0: 3f86 843e 10c0 dc3e 962b 083f 4ffc b5be
000003f0: b68d 99be 7ef2 043f 99b7 47be 34b2 86be
0.27944472 0.027675409 -0.110339135 -0.42256668 -0.6220409 -0.0053309426 0.40375516 -0.1978791
0.5751886 0.15166773 -0.2970843 -0.113782994 0.22407168 -0.38753453 0.17200845 0.38149735
0.015650533 -0.05476072 -0.43644547 -0.6917095 0.16266409 0.22808638 -0.6050906 -0.25550213
0.33347 -0.088718675 0.38358623 -0.3235994 -0.50037605 0.49778634 -0.5257707 -0.2205195
-0.13330597 0.34881985 -0.5134403 -0.5525834 0.14712013 -0.060468223 0.7202974 -0.02452974
0.019700523 0.2051627 0.010588774 -0.4397171 -0.19266172 -0.17799123 0.44326216 -0.19013286
0.75916505 0.0842037 0.959813 -0.16379705 0.08832082 -0.37684262 -0.14706509 -0.10075562
0.12064699 0.58028185 0.4065503 -0.005641745 -0.37697506 0.0933934 -0.23824568 0.40929067
-0.2606442 -0.34874055 0.21201251 0.09688013 -0.06751552 -0.116000056 -0.3760821 0.46737283
-0.622387 -0.49492338 0.6549696 0.8336569 -0.14542738 0.29593515 0.6423951 0.52470416
0.37162846 0.12718199 -0.55223876 0.29676613 0.60665023 -0.15683517 0.52968174 0.3451207
0.16816309 -0.37160304 -0.0904993 0.10830106 -0.40042993 0.10686273 -0.012832394 0.54948276
0.20368119 0.24168056 -0.071035646 -0.37385324 -0.17679994 -0.17402685 -0.17272376 -0.48357475
-0.062538125 -0.18898909 0.12691896 -0.059610553 -0.08113939 0.12142748 0.36045602 -0.4103834
0.0035104747 -0.7480986 -0.71631193 -0.098588556 -0.3845019 -0.63371736 0.054256428 -0.1377494
-0.068717696 0.14288588 0.15103985 0.113122396 0.045059826 -0.052082747 0.013974667 -0.47825572
-0.0020396016 -0.18862262 0.009722699 0.11340076 -0.07745374 -0.25745958 0.6080642 -0.06323635
0.5673222 -0.12058193 0.28671086 -0.43276814 0.5220944 0.0073322174 0.6784969 -0.43968102
0.50409716 0.015225696 -0.07172075 -0.069540806 0.040391043 0.07381008 -0.36929163 -0.49701098
-0.014753525 -0.42437443 0.45028797 -0.42858893 -0.3757997 0.32383683 -0.34613094 -0.26796752
-0.06626409 -0.5510012 0.0076557253 0.16991165 0.42292303 0.10096971 0.0051897475 -0.10502963
-0.23545036 0.16465431 -0.37224612 -0.1054885 0.30687442 0.5689962 -0.55218333 -0.47755072
0.09016734 0.033315606 0.029470678 0.027142152 -0.10562988 0.05128247 -0.6689629 0.32690948
-0.4005692 0.07489895 0.13701051 0.010566661 0.09104083 0.2716655 -0.27632666 0.30893624
-0.37330627 -0.6167224 -0.19683664 0.1748525 0.27510652 -0.6273965 0.0619359 -0.5102991
0.14638449 0.1959446 0.5004394 -0.27221164 -0.20530386 -0.24289648 0.08871079 -0.39658752
-0.18583305 -0.20323774 0.19340351 0.2030016 0.13383847 -0.17161554 0.07341556 -0.15128174
-0.1187908 -0.20381156 -0.29273322 0.04851494 0.29354918 -0.35484767 -0.54516053 0.43819547
0.035540424 -0.44517484 -0.2517596 -0.46418756 -0.2098586 0.17465633 -0.27784285 -0.37174344
-0.09952323 -0.04818266 0.18840197 -0.4892325 -0.07883496 -0.10416443 0.08257512 0.34136754
0.45459047 -0.26318592 -0.09222057 0.05939303 -0.32292607 -0.25352243 -0.027533803 -0.3300097
0.25883672 0.43115282 0.53191507 -0.3554406 -0.2999093 0.51932514 -0.1950363 -0.26307833

network_body._body_endoder.seq_layers.2.bias f4 [128]
00000000: 04be 95bc 61aa adbd a0b1 d73c 5b64 253d
00000010: a0a6 963c 44e2 b1bb b078 b7bc 9300 07bc
00000020: 38b0 4abd 38d4 b0bc 94c6 ad3c 9d3a 163d
00000030: 18b1 7f3d 21fe 5cbd df18 7bbd 599d 113d
00000040: 2598 3c3d 924e 9ebc 18e7 02bd b6c6 45bd
00000050: 8171 99bc a201 f03c b711 363a f0a3 35bd
00000060: 94ed 8d3d a059 653d 69ec 1d3d e599 c13b
00000070: cb9c 3e3d e2c8 f5bc 45cd 073c 6430 d53c
00000080: 13e1 01bd 03c5 a83c a53a f23c 3a37 30bd
00000090: a7b4 273d 206d 6dba 3a49 4fbd e273 283d
000000a0: 2000 79bc 350f d4bc 39b4 01bc ed86 1bbd
000000b0: 9419 09bd 6de0 163d f6ee 363d 3b4a aabc
000000c0: d930 20bd 4504 57bd 4a18 26bd b017 1cbd
000000d0: 94ff 293b e281 9bbc 597e 07bd 97a8 56bd
000000e0: 18b3 6cbc 362c 0ebd 541c a3bd 8a43 e23c
000000f0: fced 923d af26 973d 65fa 8b3d 7930 4e3d
00000100: 8d1e 9cbc eecb 7dbd e12b 73bd 1ca3 2dbc
00000110: 7cd6 463d b009 903b 020c 1a3c b0da 7f3d
00000120: 1601 8abd c10d 1abd bf15 77bc a4b6 54bd
00000130: 07b1 d9bc d335 42bc 76af 8bbd 49ea 4e3d
00000140: 0532 35bc 0454 5ebd e6d3 593d 9455 fb3c
00000150: cb5b cabd 3ef3 5a3d 46f7 2d3c 091a 90bc
00000160: b0e9 4fbc c04c 483d 889a 7abd df4a 913c
00000170: 0a24 1bbd a81c 25bd 1173 01bd 5535 78bd
00000180: fd37 3abc fe64 c4bc ebf6 3dbd d6f0 cbbb
00000190: 52e5 84bd 663f ae3c 7c72 5abd bfe0 ccbc
000001a0: 77bd 9e3b 63a0 a23d 5c86 c5bc 8510 5dbd
000001b0: c1a5 873d c973 d23b 3cab 38bd f11d 61bd
000001c0: 0e92 1b3d c623 0f3d 6ae7 023d 3cca 1cbd
000001d0: ac32 97bd c861 a93c b011 a6bd 76ad b33c
000001e0: b0d4 f4bc b66f c0bc fc06 16bd fa70 243d
000001f0: ea30 ac3d 486b 06bd 9e87 023c 2daf 553d
-0.018279083 -0.08479763 0.026329815 0.04037891 0.01839 -0.0054285843 -0.022396415 -0.008239883
-0.04948446 -0.021585569 0.021212853 0.03667699 0.06242475 -0.053953294 -0.061303016 0.03555045
0.046043534 -0.019324575 -0.03195867 -0.04828521 -0.01873088 0.029297654 0.0006945389 -0.044345796
0.0693008 0.055993676 0.038555536 0.0059082382 0.04653625 -0.030003015 0.008288686 0.026024051
-0.031708788 0.020601755 0.02956898 -0.04302142 0.040943768 -0.00090570934 -0.050606944 0.04112614
-0.015197784 -0.025886158 -0.007916504 -0.037970472 -0.03347166 0.036835123 0.044661485 -0.020787349
-0.039109085 -0.052494306 -0.040550508 -0.038108528 0.002593969 -0.018982831 -0.03307948 -0.052406874
-0.014446996 -0.03471013 -0.079643875 0.027620096 0.07174298 0.07380425 0.06834868 0.050339196
-0.019057536 -0.06196206 -0.059368018 -0.01059797 0.048544392 0.004395686 0.009402277 0.062464416
-0.067384884 -0.037610773 -0.015080868 -0.051931992 -0.026573671 -0.011853653 -0.06820576 0.0505164
-0.011059289 -0.054279342 0.053180598 0.030680455 -0.09880789 0.05345463 0.010618037 -0.01759054
-0.012689993 0.04890132 -0.06118253 0.017735897 -0.037876166 -0.04031053 -0.031603877 -0.060597736
-0.011365888 -0.023973938 -0.046378057 -0.0062237782 -0.06489052 0.021270465 -0.053331837 -0.025009511
0.0048443633 0.079407476 -0.02411192 -0.053970832 0.06623412 0.006422494 -0.045085177 -0.054960195
0.037981085 0.034946226 0.031958975 -0.038278803 -0.07382712 0.020676509 -0.081088424 0.021933299
-0.029886574 -0.023490768 -0.036627755 0.040146805 0.08407767 -0.032817155 0.007966904 0.052169014

network_body._body_endoder.seq_layers.2.weight f4 [128, 128]
00000000: 4469 5b3d 60b8 0f3e 5b8c 193d 679b 6a3c
00000010: 8bf2 aebd 2169 fbbd 1608 a7bc 7e35 75be
00000020: e3ef 1dbe 44af 42bd 4ca1 36bd aa3c 2b3e
00000030: ad31 8b3d df44 1cbc 554b 90bd 0989 34bc
00000040: cd01 043d aeb0 2f3e 8587 acbd fb1d d2ba
00000050: 6b40 f0bc cfc2 2ebe f02e e3bc ddce d2bd
00000060: 23ac a63c f02c 813c e0e3 03be 30af afbd
00000070: af8d 76bd 375c b0bc 999c 02be 0055 cb3d
00000080: 1808 ffbc 3f24 9b3e 8888 01be de87 ba3d
00000090: 95f7 7a3e 4d19 903d 9448 fbbd 420e 60bd
000000a0: a24d 063d a8cd 63be 6586 6a3d 5802 6f3d
000000b0: 1427 26be e3a7 20bd d744 9ebd 3e23 7ebd
000000c0: 6d0a 3f3e b2e1 fdbc 5c02 d63d 3579 403d
000000d0: c0a9 cfbd 6c38 b1bd ca26 8bbd adbb 99bd
000000e0: 850f e0bc 762f 11bd 17a4 dd3d 08f3 ccbd
000000f0: 926a 75bc 1f2f 65bc 387c 823d db1c 6f3c
00000100: 4b81 3fbe 6bbd b83d 22ac 8a3d f12b abbc
00000110: 9153 423d 8720 b53d 21d5 a9bd 9c91 11bd
00000120: a7be d0bd 1fe0 513d a3b5 023d 1cd2 3fbc
00000130: 7aaa 543e 12f0 ce3d 8b4e 3abe 901f 283e
00000140: 6d2c 36be 31ce 9fbd 69b1 56bc 9b87 083e
00000150: 6317 933d bed8 b5bd 9af1 e2bd e8ae 103c
00000160: 36fd b03c 3e45 d43d 8052 37bd f499 0fbe
00000170: 89ff 7c3c cbf6 2abd cb01 71bc 2c72 73be
00000180: 71e1 3bbd 2098 78bd be47 ab3c 85bd dc3c
00000190: 288a 2c3d 5325 893e d535 24bd 5bc4 5ebe
000001a0: e779 0cbd ac89 e5bc 6043 bd3d 8b84 95bd
000001b0: 8c15 e43c 851b cb3a 7e1d 983d 4990 9a3d
000001c0: 5605 1dbe 3f68 1cbc 8398 103d 53e9 aebd
000001d0: 29f9 d53d 46f6 41bd 9407 a13d a623 923d
000001e0: 179e 0d3d 37bc 733d c386 35be 1be9 35be
000001f0: a886 3cbd b7fe 70bd c0d9 1ebd ba3e 0e3e
00000200: de24 9f3d 5226 51bc 775b 0bbe f718 723d
00000210: 4427 8ebb 7506 463c 9748 b93d 48ec 3cbe
00000220: ced2 763c 9daf 2fbe caca c13d a50e 80bd
00000230: 5deb 413a 4015 70bd 6683 b93d 92a4 96bb
00000240: c5fe 983b 849a 483e 8a71 c53d f7e6 cc3d
00000250: 8303 6a3d 6886 0d3e 1eb7 22bd d23a bb3c
00000260: 1614 0cbd 7b58 80bd eb25 c23d d3b5 2dbc
00000270: 557c 373d 93ae 3bbd c6bc b9bc 5456 72bd
00000280: a8d4 abbd c919 d53c e55e 23be a9fd 12bd
00000290: 64ea 72bd 0042 883d db2f bc3c 6bc6 95bb
000002a0: db1d 573d 74de fe3d 98d4 b3bc 827c 513e
000002b0: dd66 3ebe 1719 28bd 64c5 783e 8bdf 4ebe
000002c0: d0df 33bc 26d3 dc3d a8c9 21bd 24f5 a5bd
000002d0: 0ea2 80bc 4bb1 533c 7f2d 8ebd 1015 b53d
000002e0: 3067 c0bc 6661 4fbd 8cac 91bd 1b2a 5d3d
000002f0: 25f6 e73d 5f3f debd 91b5 b23c aa39 a13d
00000300: 3bd9 de3d 70d1 8d3d 1bbf 663d ebd5 2dbd
00000310: cadc ab3c 6dd2 2a3e 507b 7c3d 4d67 80bd
00000320: 939c 3ebe 35eb ce3b 7225 67bd e022 80bd
00000330: a04a 10bc a8b7 b3bc 495d 7a3d ec40 a23b
00000340: f86c ea3d 0101 cdbd eea9 0c3b 910b 3dbe
00000350: 9c4a 883d 205a 0bbe ca1d 04bc 966e 953d
00000360: c908 ca3d 07d9 4ebe 1645 5cbe 5f29 1dbd
00000370: 3c4b 263c b49f be3d b2fc 983d 77a8 e53d
00000380: bfc2 46be 0e4d 9bbd 56a5 963d a5b3 80bd
00000390: 7eb1 c0bc f75d 8bbb b003 9ebc a485 a8bd
000003a0: 0bb2 b13d e9f2 7e3d bdfd 20be 21bb b13c
000003b0: c81a 1a3d 195e b53d 2c60 e8bd c404 ed3c
000003c0: 8563 ef3b 7597 4e3d 105c ddbd 9882 e23d
000003d0: 061f d33d 790a ad3b 6045 01bd d81d 0f3e
000003e0: df96 9e3d fe09 1abd 10e3 33be 7cc4 343e
000003f0: 5341 683c 69ce 783d 4d91 893d 8920 e4bd
0.053567186 0.14035177 0.03748737 0.014319277 -0.08542355 -0.12275911 -0.020389598 -0.23946187
-0.15423541 -0.047530428 -0.04458742 0.1672236 0.06796584 -0.0095379045 -0.070456184 -0.011019
0.03222828 0.17157242 -0.08424286 -0.0016030663 -0.029327592 -0.17066501 -0.027732342 -0.10293362
0.020345753 0.015768498 -0.12879896 -0.08578336 -0.060193714 -0.021528346 -0.1275505 0.09928322
-0.03113179 0.3030109 -0.12649739 0.09107946 0.24508508 0.07036076 -0.122697026 -0.054701097
0.03278888 -0.2224642 0.057257075 0.058351845 -0.16225845 -0.03922261 -0.07727974 -0.06204533
0.18656321 -0.030991409 0.10449669 0.046990592 -0.10139799 -0.0865334 -0.06794508 -0.075064994
-0.02735115 -0.035445653 0.10822313 -0.10007292 -0.014979022 -0.013988285 0.06371349 0.014594282
-0.18701665 0.090205036 0.06771113 -0.020894976 0.047442976 0.08844095 -0.08292604 -0.035539255
-0.10192614 0.05123913 0.031911504 -0.011707809 0.20768157 0.101043835 -0.18194024 0.1641829
-0.17790385 -0.07803 -0.013103821 0.1333298 0.07182195 -0.08879231 -0.11081238 0.008830763
0.021605115 0.103647694 -0.044756413 -0.14023572 0.015441784 -0.041739266 -0.0147099 -0.23774022
-0.045869295 -0.060691953 0.020908233 0.026945839 0.042123944 0.2678629 -0.0400904 -0.21754591
-0.034295943 -0.028019749 0.092413664 -0.07300671 0.027842306 0.0015495872 0.074275 0.075470515
-0.15334067 -0.009546339 0.035301697 -0.08540597 0.10447914 -0.047354005 0.078627735 0.07135706
0.034574594 0.059505668 -0.17727189 -0.17764704 -0.046026856 -0.058836665 -0.03878188 0.13891116
0.07770704 -0.012765484 -0.1360911 0.05910584 -0.004338177 0.0120865 0.090470485 -0.18449509
0.015064908 -0.17156835 0.09462507 -0.06252793 0.00073974376 -0.058614016 0.090582654 -0.004597255
0.004669043 0.19590193 0.096407965 0.100049905 0.057132255 0.13820803 -0.039725415 0.022855196
-0.034198843 -0.06266876 0.094798885 -0.010602432 0.044796307 -0.045820784 -0.022673022 -0.05916436
-0.0839017 0.026013272 -0.15954168 -0.03588644 -0.059305564 0.066532135 0.022972038 -0.0045707724
0.052518707 0.12444773 -0.021951959 0.20457652 -0.18593927 -0.041039553 0.24294049 -0.20202462
-0.010978654 0.10782461 -0.039498955 -0.081033975 -0.015702274 0.012920688 -0.069422714 0.08841908
-0.023486704 -0.050629996 -0.07112989 0.053995233 0.11326245 -0.10851931 0.021815093 0.07872327
0.10881277 0.06924713 0.056334596 -0.042440336 0.020979304 0.16681834 0.061641037 -0.06269703
-0.18614416 0.00631466 -0.056432195 -0.06256652 -0.0088068545 -0.02193816 0.06112412 0.004951587
0.114465654 -0.10009957 0.002146359 -0.18461443 0.066548556 -0.13608599 -0.008063743 0.07296483
0.09864957 -0.20199977 -0.21510729 -0.038369533 0.010149773 0.09307805 0.07470073 0.11213773
-0.19410227 -0.075830564 0.07355754 -0.062842645 -0.023522135 -0.004253145 -0.019288868 -0.08228615
0.08676537 0.062243376 -0.15721793 0.021695675 0.037623197 0.08855838 -0.11346468 0.028932936
0.007305565 0.05043741 -0.10808575 0.11060065 0.103086516 0.0052807895 -0.0315603 0.13976228
0.0774362 -0.037607186 -0.17567086 0.17653078 0.014175731 0.060743723 0.06717167 -0.11139018

network_body.observation_encoder.processors.0.normalizer.running_mean f4 [10]
00000000: 9daa 0240 1691 0abd 4d50 0a40 f36c ce40
00000010: 3328 00bc 8475 cdbf 8848 15bc e8dc 823c
00000020: 3fcd 4fbb 620c 19bb
2.0416634 -0.03382977 2.1611512 6.4507995 -0.007822084 -1.6051488 -0.009111531 0.015974477
-0.003170803 -0.0023353328
